rnn_training/20260103_191208_2layer_GRU128_MAE_linearout/best_model.pth (torch, 729589 bytes, 12 tensors)

initial_state_projection.weight f4 [128, 110]
000000 a9 34 a7 3c 13 0f 92 bc 25 de 75 bc 84 97 85 bd
       0.020410853 -0.017829454 -0.015006577 -0.0652304
000010 af 04 9f bd e4 45 04 be 9e 87 2a 3d 96 b7 02 3e
       -0.07764565 -0.12917286 0.04163324 0.12765345
000020 f9 ae 3b bd 67 c0 e5 3d 4d d9 39 bd 96 91 c2 bc
       -0.045821164 0.112183385 -0.04537325 -0.023751061
000030 d3 91 cf 3d 66 0f f0 bd ec 91 80 3d 88 b5 bc bd
       0.10135236 -0.11721687 0.062778324 -0.09214312
000040 fe e1 bb bd fe bf 9d 3c c4 0a cd bd 9b 4e cf bd
       -0.09173964 0.019256588 -0.10011819 -0.10122415
000050 29 3d 77 3a b4 25 2a bd 56 c2 45 bd ff 62 95 bd
       0.0009431416 -0.041539863 -0.048281036 -0.07294273
000060 eb b6 a5 bb c8 cd 02 be 9c d1 de 3c 50 14 26 bc
       -0.005057206 -0.12773812 0.027199559 -0.010136679
000070 f7 f3 a6 3d 78 45 d6 bd ce f4 c1 3d 52 f9 93 be
       0.08152001 -0.10462469 0.09470521 -0.28901154
000080 c4 13 e5 3d ff 48 24 3d 15 68 f0 3d 2e e5 69 3d
       0.111854106 0.040108677 0.11738602 0.05710333
000090 55 19 85 3d 57 29 6b 3c 01 44 b9 3d 7a f8 71 bd
       0.06498972 0.014353118 0.09046174 -0.059074856
0000a0 fb 55 76 3d 40 cc d1 bc 89 01 99 3d 27 81 85 bd
       0.06014059 -0.02561009 0.07470996 -0.065187745
0000b0 37 35 1a be 2f 88 3d 3d f2 12 b6 bd 8c 02 c2 bc
       -0.15059362 0.046272453 -0.08890332 -0.023682855
0000c0 7b 7c a5 3d 48 f9 40 3d b8 77 b0 bd 7f 8d 91 3d
       0.080803834 0.047112733 -0.086165845 0.07107066
0000d0 76 80 44 bd 2a 6e a9 3d e7 c5 b6 3d 03 20 5a bd
       -0.047974072 0.08272965 0.089244656 -0.053253185
0000e0 c9 e2 07 be 96 c2 0b be 08 0e e5 bd e0 a9 c7 bd
       -0.13270105 -0.13648447 -0.11184317 -0.09749198
0000f0 70 2b 52 3d c1 8c 3f bd c1 f3 e7 bd ff 4a c8 3c
       0.051310956 -0.046765093 -0.11325789 0.024449823
000100 67 55 26 be a1 4b e8 3d 7a 38 0a 3e 8a 41 9c be
       -0.16243516 0.1134255 0.13498107 -0.30518752
000110 33 e5 1d 3e d5 e8 3a 3b 92 c7 20 3c b3 f9 00 bc
       0.15419464 0.0028520126 0.009813206 -0.007872033
000120 7c cc a0 3d 60 ac a7 ba fe 9d d0 3d b9 e3 8b bd
       0.07851502 -0.0012792461 0.101863846 -0.06830544
000130 18 29 0f bd bb d3 2e bd 54 cb 9e bd 6b f6 29 3c
       -0.0349513 -0.04268239 -0.077536255 0.010373692
000140 ac 43 bb 3d f3 3d 77 bc 36 18 4e 3d 24 6d 3b bd
       0.09143767 -0.015090453 0.050316058 -0.04575838
000150 cb 00 ec 3c 6d ef 41 bd 52 b3 bf 3c 7b 10 2c bd
       0.028808972 -0.047347475 0.023400936 -0.042007904
000160 04 60 e5 3d d8 6c c6 3d ae 0f 5e 3d a2 fe cb 3c
       0.11199954 0.09688729 0.054214172 0.024901692
000170 d8 ba 43 bd 50 9b be bd 2d e7 0a bd b2 e4 ce bd
       -0.04778561 -0.09306967 -0.033911873 -0.10102214
000180 ea 23 0c bd e3 c8 09 be 66 cf 82 bc 27 69 6c 3c
       -0.034213938 -0.13455538 -0.015968036 0.014429367
000190 b0 34 40 3e ea 89 74 bb f9 c2 bf 3c 10 81 4a bc
       0.18770099 -0.0037313648 0.0234084 -0.012359872
0001a0 f2 36 9a 3c 89 bd 25 bd 49 3b 0f bc a7 1e 0b 3e
       0.018825028 -0.040463958 -0.008742162 0.13585912
0001b0 53 2d 1d 3d b0 fd 17 bd 58 8c 32 bb b2 1a 21 3b
       0.038373303 -0.03710717 -0.0027244296 0.0024582562
0001c0 bc 04 79 3d a4 ad 5e 3d 1b b0 a4 3d 25 bc 35 bc
       0.06079553 0.054364815 0.08041402 -0.01109222
0001d0 b2 b4 12 3d 0a 52 4a 3d bb 5f 9a 3c 88 88 bd bd
       0.035816856 0.049394645 0.018844476 -0.09254557
0001e0 30 64 ed 3d 8a 82 cc 3d 52 ba 56 bd 3b 80 09 bc
       0.11591375 0.09985836 -0.052423783 -0.008392389
0001f0 5c 11 76 3d 0e cb ee 3d a1 ef 1a 3e ad 63 e7 3b
       0.06007515 0.11659823 0.15130474 0.007061443
000200 ab a6 c1 bd f2 5d a4 3d 06 ce f5 3d c9 a4 48 3e
       -0.094556175 0.08025731 0.120021865 0.1959411
000210 88 6e 82 3d ed 27 97 3c 6f 51 f2 bc 7c 60 c6 3d
       0.063687384 0.018451655 -0.029579846 0.09686372
000220 e7 ed fe 3c 06 c0 cf 3d 4f 3a 0a 3e 5a d5 a2 3d
       0.0311193 0.101440474 0.13498805 0.0795085
000230 be 32 dd 3b f6 84 5e 3d bc ca c1 bc a3 ff 99 bc
       0.0067504337 0.05432602 -0.023656242 -0.018798655
000240 7b 76 72 3d 19 53 83 3b 80 ef 0f 3e 36 09 57 3d
       0.059195023 0.0040077087 0.14056206 0.05249902
000250 4f 0e 7e bc f1 4c 8f 3d 1e b7 66 3d 92 40 14 3d
       -0.015506341 0.06997097 0.056326978 0.03619439
000260 76 9f 63 3d 23 e5 0b be bf 71 08 be 82 23 85 3d
       0.055571996 -0.13661627 -0.1332464 0.06500913
000270 5e 8a e6 3d da 9d 56 bd ff fb 33 3d 58 19 d9 3d
       0.1125686 -0.052396633 0.043941494 0.10600537
000280 a8 88 b6 bd 40 c3 45 bd 00 83 c2 bc a5 31 cb 3d
       -0.08912784 -0.048281908 -0.023744106 0.09921578
000290 f7 8c 34 bd 3e b0 aa 3d 1f f4 8d bd de 7e 88 3d
       -0.044079747 0.08334397 -0.06931328 0.06664823
0002a0 48 94 71 3d e1 3e 70 3d b3 60 9c bb 98 2d 4b bd
       0.058979303 0.058653716 -0.0047722696 -0.04960403
0002b0 56 3f fa 3c b7 4a df bd 2f 68 14 3c 44 18 c1 3d
       0.030547779 -0.109029226 0.009058042 0.094284564
0002c0 d6 e0 a3 3d 0b f8 20 3d bb 86 90 3d e1 ac b1 bd
       0.080018684 0.039299052 0.07056948 -0.08675552
0002d0 2b 37 03 3d 46 a4 8b bd 2d d2 55 bd 38 4a 8b 3d
       0.032035034 -0.06818442 -0.052202392 0.068012655
0002e0 d6 22 0f 3e 11 d0 40 3b dd 1e 59 bd 68 ba 7b 3c
       0.13978133 0.0029420892 -0.05300795 0.015364267
0002f0 45 fc a6 3c 6e a2 6b bd fd 67 80 3d bc dd d6 3d
       0.020383963 -0.057527952 0.06269834 0.10491511
000300 14 9f ed 3c 7e 86 14 3e 72 01 1d bd 99 79 3c 3d
       0.029006518 0.1450443 -0.038331456 0.046014402
000310 c7 2f 3e bd 5d bf 4d bc 62 77 d1 3c 22 9e 50 bd
       -0.046432283 -0.012557832 0.025569621 -0.050932057
000320 3d 90 4d 3d 5e 8b 9c bd a0 f0 32 3d b4 55 31 bd
       0.050186384 -0.0764377 0.04368651 -0.043294623
000330 44 70 4a bd 02 f2 c1 bd 4e 9c 1c 3d 3d 35 05 be
       -0.04942347 -0.094699875 0.038235 -0.1300859
000340 cf 80 95 3d 18 2e bd 3d 1e 25 c1 3d 71 fb cc 3d
       0.07299959 0.09237307 0.09430908 0.10008896
000350 6c 53 8b 3d aa d5 a5 3d 65 a5 06 3d b1 a5 e4 3d
       0.06803021 0.08097394 0.032872576 0.11164416
000360 07 f4 a7 bc 13 a3 f8 3d 64 50 ae 3c 0a 22 a3 3d
       -0.020502103 0.12140479 0.021278568 0.07965477
000370 c1 da b3 bb 4b 21 f0 3b 63 fc a3 bd 90 87 48 bd
       -0.005488724 0.0073281876 -0.08007123 -0.048957407
000380 08 9c 23 bd a3 17 7f bd ae 01 71 bd ac db e5 bd
       -0.039943725 -0.0622784 -0.058839492 -0.1122354
000390 47 34 72 bd d1 95 b1 3d 76 a6 d8 bd 2a b2 5d bc
       -0.059131887 0.08671153 -0.10578625 -0.013531247
0003a0 a0 65 71 bd 8c b7 04 3d 73 73 ae bd 4f f1 97 bd
       -0.058934808 0.032401606 -0.08518114 -0.07419073
0003b0 8d 79 0c 3e cf c1 21 bc 35 6b e1 3d 57 e8 87 3c
       0.13718243 -0.009872868 0.11006776 0.01659028
0003c0 ee 85 a6 bd 31 47 b5 3d 71 38 b1 3d 30 1b 0a be
       -0.08131014 0.08851469 0.086533435 -0.13486934
0003d0 e9 21 46 bd 0a 92 ff bc 43 1e 3a bd 0f 47 a2 bd
       -0.048372183 -0.031197567 -0.045439016 -0.079237096
0003e0 c9 43 0c be fc 9f 63 3d 42 0d 03 3e 96 43 9e 3d
       -0.13697733 0.055572495 0.12798026 0.07727735
0003f0 f8 6f 82 3c 88 7a 9e 3d bb c6 80 3d 72 69 c4 bd
       0.015922531 0.07738215 0.06287905 -0.095904246

initial_state_projection.bias f4 [128]
000000 48 cf 0b 3d 99 f1 0b 3e ec bd b1 bc 32 ea 76 ba
       0.034133226 0.13666381 -0.021697007 -0.0009419053
000010 30 3e 04 bd 3f 8d 36 3d 36 76 5a bd 41 6e 06 be
       -0.03228587 0.044568297 -0.05333539 -0.13127996
000020 e4 d0 ba 3d dc 9b 94 3d 7b b5 5a 3d 8f d0 58 3d
       0.09121874 0.0725629 0.05339573 0.052933272
000030 f3 fb 4a 3b 3c da 89 3d db 6d 40 bd 2b 22 8a 3d
       0.0030972927 0.06731078 -0.046979766 0.06744798
000040 85 cb 49 bd cc 80 5c 3d cc 5e 14 3d 03 94 17 bd
       -0.049266357 0.053833768 0.036223218 -0.03700639
000050 58 d3 10 bd a2 fb 35 bc 64 fe 85 3d f9 37 00 3d
       -0.035357803 -0.011107357 0.06542662 0.03130338
000060 8b 82 55 bd ed fb 96 bc 9c 5b 64 3d 42 fe 82 bd
       -0.05212645 -0.018430674 0.055751428 -0.06396152
000070 8b a6 26 be 14 e6 f5 bc 77 de c6 bc e0 66 10 3d
       -0.16274469 -0.030016936 -0.024276001 0.03525436
000080 f0 b1 87 bd 16 5c 2f 3d bd e4 4f bd f8 bc 9e 3c
       -0.06625736 0.04281243 -0.05075525 0.019377217
000090 a9 96 bd bd af f4 98 bd df 30 03 3e 0b 37 09 be
       -0.09257252 -0.07468545 0.12811612 -0.13399903
0000a0 5f d3 cb 3d fc e4 91 bd 37 68 7a bd 3c 57 8e 3d
       0.09952425 -0.071237534 -0.061134543 0.069502324
0000b0 9f 9b 90 bc 5f 5f 2a 3d c8 0c a8 bc fa a3 ba 3c
       -0.01765233 0.04159486 -0.020513907 0.022783268
0000c0 f9 a2 7a 3d f0 95 d6 3c 14 a4 4e 3d 7a 7d 5c 3d
       0.06119058 0.026194543 0.050449446 0.0538306
0000d0 da af 95 3d ed e4 69 ba ae 74 8b bd 9c 73 6c 3d
       0.07308932 -0.0008922357 -0.06809364 0.05772744
0000e0 a0 b7 40 3d c5 14 23 3d 0e 57 8f 3d a2 9b 51 bb
       0.04705012 0.03981473 0.06999026 -0.0031983634
0000f0 2c 61 53 bd 21 68 be 3d 82 a0 16 be 8f 3d eb bc
       -0.051606342 0.09297205 -0.14709666 -0.028715877
000100 9f 41 da bd ce bb e6 3d 8b fc aa bd 95 b7 1c 3e
       -0.106570475 0.1126629 -0.0834895 0.15304406
000110 24 ae 59 3d 96 2e f9 3d 99 75 2c bd 33 71 5c bb
       0.05314459 0.12167089 -0.042104337 -0.0033636808
000120 01 b9 0e 3d eb dd 95 bd fe b2 2d 3d 26 a1 b2 3c
       0.034844402 -0.07317718 0.04240703 0.021805357
000130 82 5c 29 3d a3 5f 48 bd 34 71 af bd f5 9a c4 bd
       0.041347988 -0.04891933 -0.08566514 -0.09599868
000140 d7 85 16 3e 19 7d 6c bc c3 dc 79 bc c6 89 44 bd
       0.14699493 -0.0144341225 -0.015250388 -0.047982953
000150 c5 11 17 bd ab c4 9e 3c 7d 6d cc b9 95 60 21 bd
       -0.03688218 0.019380888 -0.00038991487 -0.03939875
000160 1c d6 ae bd 65 7d b4 3c ad c7 30 3d 3a 52 42 bd
       -0.08536932 0.022032449 0.043159176 -0.0474417
000170 87 87 2c 3d 6e 3a c2 3d 6f 11 19 3e 1a 9f 11 3d
       0.042121436 0.09483801 0.14948057 0.03555212
000180 a2 80 e8 3d a4 13 2b bd 2d f3 53 3d c3 e9 14 3d
       0.1135266 -0.041766778 0.051745582 0.036355745
000190 2b 9a 27 3d bb 55 52 bc 2a 25 94 3c 38 5b 2f 3d
       0.04091851 -0.012837823 0.018084127 0.042811602
0001a0 48 7b 4f bb 96 ef 41 3d a6 2d 07 bd 05 36 1d 3d
       -0.0031659175 0.047347628 -0.033002518 0.038381595
0001b0 83 ac 51 bc 03 ce 80 3d 71 d0 a7 bd ca 93 1f bd
       -0.012797478 0.062892936 -0.08194054 -0.038959302
0001c0 54 8b f8 bd ec ea aa bc ef cb e8 3d 5e dc d5 3c
       -0.1213595 -0.020863973 0.11367022 0.026106056
0001d0 67 a4 42 3d d3 a7 7f 3d 58 32 da 3d c1 e6 8e bd
       0.047520068 0.06241591 0.106541336 -0.069776066
0001e0 2c c7 72 bc 44 1e f9 3d 5f 5e 47 3c 3a 9f 82 bd
       -0.014817994 0.12163976 0.012168496 -0.06378026
0001f0 68 c5 c3 3d 68 70 89 bc 77 a0 7a bd d5 8d a5 bd
       0.09559137 -0.016777232 -0.061188187 -0.08083693

rnn.weight_ih_l0 f4 [384, 10]
000000 66 9b 23 3d d7 85 7b bd 01 9a 95 bd ff 65 95 bd
       0.03994312 -0.061406936 -0.073047645 -0.07294845
000010 fc 46 a8 3d ca 33 be 3c 82 e4 cd bb ed a6 bc 3d
       0.08216664 0.023218054 -0.006283344 0.09211526
000020 f4 00 e1 3a 28 31 ef bc f2 0b f4 3c f4 72 73 bd
       0.0017166422 -0.029198244 0.029790852 -0.0594358
000030 bc 24 3d bc c8 90 8e 3d f1 b4 38 bd 57 73 34 3c
       -0.011544403 0.069612086 -0.045094434 0.011013827
000040 95 ad 55 bd a8 f4 08 bc 72 85 0d 3d c3 11 63 3d
       -0.052167494 -0.008359112 0.03455109 0.05543686
000050 bb 9e 65 3d 29 8f 80 3d b0 6f ab 3d 9a 28 bb 3d
       0.05605958 0.06277306 0.08370912 0.091386035
000060 07 22 08 bd 00 08 2e bd ec 5f 4c 3d f3 1e 83 3d
       -0.033235576 -0.0424881 0.049896166 0.064023875
000070 73 65 2e bd 23 5a 2a bd 3f 52 c0 3c ba f3 75 3d
       -0.04257722 -0.041589867 0.023476718 0.06004689
000080 7d a8 65 3c 83 b1 61 bd 58 2d c0 3d 6f 9f b0 3b
       0.0140172215 -0.05510093 0.09383649 0.0053900997
000090 6e e0 a2 bd b8 04 8e bd 37 44 13 3d 0c e9 fa 3c
       -0.07952963 -0.06934494 0.035953727 0.030628704
0000a0 8c 71 82 bd 60 3c 21 bd ba 82 46 bc 81 6e 23 3a
       -0.063693136 -0.03936422 -0.012116129 0.0006234423
0000b0 9e e8 0b 3d 48 d0 af bc c5 fc 5e bd fe 00 81 bd
       0.034157388 -0.02146162 -0.05444028 -0.06299017
0000c0 e3 b9 4f bd 60 0e 54 bd ee 8c 26 bd 9c 94 35 bc
       -0.050714385 -0.05177152 -0.040661745 -0.0110827945
0000d0 10 6d 69 bd 4d 83 23 bc 37 a4 e3 3c fd d6 27 3c
       -0.056988776 -0.009980035 0.027788265 0.010244128
0000e0 d4 3a 98 bd 82 80 11 bd 4d 7c dd bc e2 5e c0 3c
       -0.074330956 -0.035522945 -0.02703681 0.023482744
0000f0 d1 fb fd bc 9d 62 ed ba 5e 10 93 bd 4a b2 a9 bd
       -0.031003864 -0.0018111054 -0.07180856 -0.08285959
000100 cd b8 7e bd 7f 2d 05 3c 13 d8 b3 bb 68 90 97 3d
       -0.06218796 0.008128523 -0.0054884045 0.0740059
000110 69 3e a7 3a c7 f5 33 bd b9 77 8d bd 88 c1 8a bd
       0.0012759689 -0.043935563 -0.06907601 -0.067751944
000120 62 65 81 bd 2a 25 cc 3c 05 99 47 bd f7 bb 67 bc
       -0.06318165 0.024920065 -0.048729915 -0.014143935
000130 af 9d a1 bd 21 95 30 bd 59 b6 41 3d d9 3f 7c 3c
       -0.07891404 -0.04311097 0.04729304 0.015396082
000140 77 14 63 3c f4 e4 8b 3d df ad 31 bd 06 0e d5 bc
       0.01385986 0.06830779 -0.043378707 -0.026007663
000150 cf c0 af 3d 8e da f2 bc 16 5d 8a bc 58 9f 27 ba
       0.08581697 -0.02964523 -0.01689009 -0.00063942885
000160 b1 da 30 bc a2 c5 b5 bd a5 f2 55 bd 29 61 88 3d
       -0.010794328 -0.08875586 -0.052233357 0.06659157
000170 70 ec a5 bc 7b c3 bc bc 3b 68 b7 3c 2f e2 33 3d
       -0.020254344 -0.023042431 0.022388568 0.043916877
000180 55 93 99 bd 24 c1 54 bd ce 92 21 3d 6c 29 99 bd
       -0.074988045 -0.051942006 0.039446644 -0.07478604
000190 d2 e0 a0 bc be 56 f0 3c 7a eb 9a bc 8e 52 0b 3d
       -0.019638453 0.029338237 -0.018911112 0.034014277
0001a0 44 9f 78 bd 68 1d 7e 3c 92 f7 80 bd c2 97 5a bd
       -0.060698763 0.015509941 -0.0629722 -0.053367384
0001b0 2a e1 37 3d 8b ab a4 bd 27 68 f8 3c 0f 2e 9e bd
       0.044892468 -0.08040532 0.030323101 -0.07723629
0001c0 bc a1 83 3c 7e 69 ea 3c 1a 29 90 bd ea 5d 2f bd
       0.016068332 0.028614756 -0.070390895 -0.042814173
0001d0 1f 97 85 bd fa b1 7f 3d 92 e2 c8 bb 26 cd 62 bd
       -0.06522965 0.06242559 -0.006130525 -0.055371426
0001e0 bc a5 17 3d 09 0c a8 3d fa b5 d2 3d 61 bc 53 bd
       0.03702329 0.082054205 0.102886155 -0.051693324
0001f0 ee 37 bd 3d e2 03 bc bc 83 e1 98 3d 65 6b 95 bd
       0.09239183 -0.02295107 0.07464888 -0.072958745
000200 e6 2d 9d 3c 99 2f 85 bc 67 a4 5e 3d 22 6b 8d bc
       0.019186925 -0.016258048 0.054356005 -0.017262999
000210 95 fb 2c 3d 28 af 94 3d 32 6e 8b bc 1a da 6d bd
       0.042232115 0.07259971 -0.017020319 -0.058069326
000220 94 44 23 bd 74 00 56 bd 7d 58 f0 3b 47 97 59 3d
       -0.039860323 -0.052246526 0.0073347674 0.053122785
000230 8b 56 80 bd b4 d5 9e 3c 99 33 8b bd ff 48 67 3d
       -0.06266507 0.019389011 -0.06796951 0.0564661
000240 3c 05 5b bd f4 92 bc bd 2f 46 73 bd 62 96 93 bd
       -0.05347179 -0.092077166 -0.059393104 -0.072064176
000250 dd 23 f8 bd d2 1b 21 bc 3e 48 99 bd 6e 10 85 3c
       -0.121162154 -0.009833293 -0.07484482 0.016243186
000260 c6 a2 b7 bc d2 87 71 bd 92 e7 e8 3d 89 43 a3 bc
       -0.022416484 -0.05896742 0.113722935 -0.019929664
000270 e0 18 2f 3c 87 17 24 bd 9c c8 d6 bc c5 22 12 bd
       0.010687083 -0.0400615 -0.026218705 -0.03567769
000280 4e 7c 8a 3d bb 8e 32 bd 6d f2 9b 3d f1 66 bd 3d
       0.067619905 -0.04359315 0.076145984 0.0924815
000290 6d 7f e0 bc 9d 91 0d bd f5 92 44 3d 1f 19 55 bd
       -0.027404511 -0.034562696 0.04799171 -0.05202591
0002a0 0b ca 77 3d 00 d4 02 3d 82 3b 3a 3d 27 89 07 3c
       0.060495418 0.03194046 0.045466907 0.008272446
0002b0 fc 65 e4 3d cc 7a 06 bd ee bc 32 bc 77 21 74 bd
       0.111522645 -0.032831952 -0.010909302 -0.059602227
0002c0 59 c0 8d 3d 37 5a 28 3c af 13 b7 bd 53 d8 95 39
       0.06921453 0.010275415 -0.08939301 0.0002858067
0002d0 92 c2 9a 3d 2f 1b 2a 3d 3c ad 9c 3d 30 a0 99 bd
       0.075566426 0.04152983 0.07650229 -0.075012565
0002e0 84 8e c8 3c 78 1c 74 3c 3b 47 9b 3d 68 df 87 3d
       0.02448202 0.014899366 0.075819455 0.06634408
0002f0 14 8d 59 3c 59 f2 04 bb bd 5e c2 3c cc da 1b 3d
       0.013278265 -0.0020286052 0.023726815 0.038050458
000300 cc 83 87 3d 8f 5a ba 3d f4 9a ad 3d 2b cc 95 3c
       0.06616935 0.09099304 0.084768206 0.018285831
000310 60 e1 83 3c b1 da 69 3c ac 19 5a 3d b4 ab 3b 3d
       0.016098678 0.0142733315 0.05324714 0.045818046
000320 2a c6 0d bd 4d c9 e9 bc b0 90 3e bd c5 6e 39 3d
       -0.034612812 -0.02853837 -0.046524704 0.045271654
000330 36 e8 68 bd 25 6f 6c bc aa 74 3b 3d 1f 5b 7c 3c
       -0.05686208 -0.014430796 0.045765556 0.015402584
000340 23 5f 77 3d 53 6e cd 3c 90 bf 5f bd a6 5f ff 3c
       0.060393464 0.02507702 -0.054626048 0.031173538
000350 b0 96 1e 3d d1 0d 9d bb a9 4f 02 3c c0 e3 01 3d
       0.038717926 -0.004792907 0.007953563 0.03171134
000360 c1 5f 7e 3c 56 dc 76 3d 0d 20 4a bd d3 a3 8e 3d
       0.015525759 0.060268722 -0.049346972 0.06964841
000370 49 84 a7 3d 26 31 be 3d 2a 92 a7 3d 48 c9 8d 3d
       0.08179528 0.09286718 0.081821755 0.06923157
000380 0e f9 3e 3c b1 34 67 bd 38 53 8a 3c af 99 48 3d
       0.011656059 -0.056446735 0.016885385 0.04897469
000390 08 53 0d bd da 2e c5 bc f5 63 82 3d 69 83 9b bd
       -0.034503013 -0.024070192 0.063667215 -0.07593424
0003a0 7e 36 df 3c 34 87 a6 bd 6e 3d 82 bd 05 d5 6a 3d
       0.027247664 -0.08131257 -0.06359373 0.057332058
0003b0 74 22 74 3d f0 4b cd 3c 08 dc 11 3d 59 93 68 3c
       0.05960317 0.025060624 0.03561023 0.014195287
0003c0 4c 67 f5 bc b2 a8 43 3d e2 6a 04 bd 78 12 84 bd
       -0.029956482 0.047768302 -0.032328494 -0.06448835
0003d0 5f 4d b9 bd 63 56 25 bd fa 5e 94 ba 0a 53 0c bd
       -0.090479605 -0.040365588 -0.0011319809 -0.03425888
0003e0 9e c5 a1 3b a3 21 96 bd 53 55 8f 3c 1f 22 8c 3d
       0.004936888 -0.073306344 0.01749674 0.068424456
0003f0 4c ec 14 bd 95 2a f9 bb 0f c1 4b 3d 61 b5 a5 bc
       -0.036358163 -0.007603953 0.049744662 -0.02022809

rnn.weight_hh_l0 f4 [384, 128]
000000 09 76 24 bd 45 6e 64 bd 8c 69 10 bd 06 89 09 3c
       -0.04015163 -0.055769224 -0.035256907 0.008394485
000010 71 f2 9f 3c b0 8f e0 bb 2b ac 82 bd 8c 26 2c 3c
       0.019524785 -0.0068530664 -0.06380495 0.010507237
000020 ad 60 28 bd be b9 07 bd 30 57 99 3d c7 06 a5 3d
       -0.041107822 -0.033136122 0.07487333 0.08057933
000030 6e 02 be 3c 75 95 aa 3c 39 d4 02 bd 4c b7 8a 3d
       0.023194518 0.02082322 -0.031940673 0.06773242
000040 76 99 1b 3c 54 3e f5 3b 2a ed 09 bc 8a 4d af bc
       0.009497037 0.0074842367 -0.008418361 -0.021399278
000050 86 53 4c bd ed 80 19 bd 3d 64 ba 3c 88 fd 8b bd
       -0.04988434 -0.03747647 0.022752875 -0.068354666
000060 a3 95 47 bd dc f2 a0 bd 93 cb 26 bd ab c5 ae 3c
       -0.04872669 -0.07858822 -0.040721487 0.02133449
000070 d1 67 85 3d dd 21 11 3c 84 0c 7a bc 4b 02 9d 3d
       0.06513942 0.008858171 -0.015261773 0.07666453
000080 c5 d5 1a bc 80 5a a7 bd f9 d0 5b bd 19 8b 2b 3d
       -0.009450381 -0.081715584 -0.05366609 0.0418807
000090 17 f9 50 3d 53 ae 82 3d 92 d8 de 3d f0 f8 6c bd
       0.0510188 0.06380906 0.10881151 -0.057854593
0000a0 20 9a 85 bc f1 07 d0 bb 68 4f 59 3d ff b0 92 bc
       -0.016308844 -0.006348603 0.053054243 -0.017906664
0000b0 59 7f a2 3d 37 fd d5 3d 75 8b 93 bd c7 79 82 bd
       0.07934446 0.104486875 -0.07204334 -0.063708834
0000c0 07 b0 63 bd 8c e0 53 3d a6 18 9f bd a1 92 28 3d
       -0.055587795 0.051727816 -0.07768373 0.04115546
0000d0 af cb 36 bd 79 2b bd bb 5b cf e3 ba c6 b2 06 3d
       -0.04462784 -0.0057730046 -0.0017380522 0.032885335
0000e0 38 4f 5a bc 35 9e 80 bc d1 5f fb bc 4d 01 46 bb
       -0.013324551 -0.015700439 -0.030685337 -0.0030213178
0000f0 4a f7 43 bd db 0c 62 3c 52 67 76 bd 5f af d8 3d
       -0.047843255 0.01379701 -0.060157128 0.105803244
000100 82 6b a8 bd d4 7a b4 3d 1c 2e 50 3d 26 15 9b bd
       -0.082236305 0.0881249 0.050825223 -0.07572393
000110 16 5e ed 3b 57 74 60 3c f9 bb cc bc 5d de c2 bc
       0.007243882 0.013699613 -0.024991976 -0.023787672
000120 09 9a c6 bd 49 ff 8e bd ce f0 35 bd 19 96 b6 bd
       -0.096973486 -0.069822855 -0.044419102 -0.089153476
000130 d5 10 b7 3d 65 6e 46 bd ea 25 78 3d 9b fd 35 bd
       0.08938757 -0.048445124 0.060583033 -0.04443131
000140 0e 41 a6 bc 4e 4d ca 3d 60 b4 8b bd d5 39 63 bd
       -0.020294692 0.09878026 -0.06821513 -0.055475075
000150 c0 0b 99 bd 82 4b 9f 3d 7e 68 cb bc 44 dc 36 bd
       -0.07472944 0.07778074 -0.0248301 -0.044643655
000160 da fd 21 bd 8f b4 e6 bd 4b 89 9f bc 51 36 10 bd
       -0.039548732 -0.112649076 -0.019474646 -0.03520805
000170 17 ef 0b bc 2c da 71 bd 1d b2 bc 3d 57 1a 04 3d
       -0.00854089 -0.059045956 0.0921366 0.032251682
000180 0f 66 c5 ba df c7 c0 3b 4d 1e 2a 3d b8 91 7e 3d
       -0.0015060323 0.0058832015 0.041532803 0.062150687
000190 a0 d2 46 3d 82 e7 d4 bc aa 33 28 bd da 94 8f bb
       0.04854071 -0.025989298 -0.041064896 -0.004381758
0001a0 26 0d 4f bd 2c f6 3c bd ed ea 7a bd de 9c 46 3c
       -0.05054965 -0.046133205 -0.0612592 0.012122361
0001b0 24 86 f6 3d c2 92 cd bc 5d a4 97 bd 85 45 8a bc
       0.12037304 -0.025094394 -0.07404397 -0.016878853
0001c0 45 21 74 bc 57 f4 bd 3d a2 04 f9 bc d9 83 cc bd
       -0.01490051 0.0927512 -0.030397717 -0.099860854
0001d0 76 7c a0 bc 68 5a a6 3d dc 75 4b 3c f1 12 8d bd
       -0.019590598 0.081227124 0.012418237 -0.068883784
0001e0 2a 55 e6 3c f2 48 48 3d 31 a3 ae 3c bc 18 a9 bc
       0.028116781 0.04889769 0.02131805 -0.020641677
0001f0 86 8f 8e bd d9 7e 2f bd 51 3c 43 bb 66 93 9f 3c
       -0.06960969 -0.04284558 -0.002979059 0.019479465
000200 54 b6 48 bc c8 2c 51 bd 47 a2 94 3d fa d1 27 bc
       -0.012250502 -0.051068097 0.072575144 -0.010242933
000210 9e f2 88 bd e0 a0 62 3d ec ad 78 3d 31 43 cc 3b
       -0.066869006 0.055329204 0.06071274 0.006233596
000220 21 78 aa bd 15 74 45 3d e4 62 99 bd 5a 2e bd bd
       -0.08323694 0.048206408 -0.07489565 -0.092373565
000230 a0 80 32 3d b2 b0 13 3d f6 5a d6 bc 03 f4 74 3d
       0.043579698 0.03605718 -0.02616642 0.05980302
000240 9a 1e 19 bd b2 d5 8e 3d f9 e7 c7 3b 34 a2 b0 3d
       -0.0373827 0.06974353 0.0061006513 0.08624688
000250 e0 44 73 bd b8 e6 b4 3d 07 e5 82 3d 87 ef 8f bd
       -0.059391856 0.088330686 0.0639134 -0.07028108
000260 e0 07 a7 bd 42 b4 c1 3d 97 ea f3 3b 9c ca a1 3d
       -0.08155799 0.094582096 0.007443737 0.07899973
000270 c3 30 a1 3d 22 fa a9 3d 9f c3 cd bc 46 17 2a bc
       0.07870629 0.08299662 -0.025117693 -0.010381525
000280 d9 33 01 bd 56 c4 49 3c eb ce 37 3d 77 e2 bf 3c
       -0.031543586 0.012314877 0.044875067 0.023423417
000290 2d 9b 58 bd 34 95 ee 3c b1 d5 98 bd 81 db 16 bd
       -0.052882362 0.02912388 -0.074626334 -0.03683043
0002a0 20 ba 0a 3d 34 b5 55 3a d2 81 39 3c 20 df 91 3d
       0.03386891 0.00081523065 0.0113224555 0.07122636
0002b0 b2 92 20 bd b3 3e 36 3c b5 b8 43 bd 0b 94 63 bd
       -0.0392024 0.011123347 -0.047783572 -0.055561107
0002c0 af f0 86 3d 99 39 7b 3d f5 7a 12 bd 07 49 83 bd
       0.065888755 0.061334226 -0.035761792 -0.06410413
0002d0 ef 39 9f bd 9d 01 3b bd 6c c5 ad 3d be c2 51 bd
       -0.07774722 -0.045655835 0.08484921 -0.05121111
0002e0 59 23 de 3c 32 46 80 3d 16 f4 b2 3d c4 a3 81 3d
       0.027116464 0.06263389 0.08737962 0.06330064
0002f0 3f 94 a6 bc 85 fc 52 bd ab 41 27 bd 18 25 71 bd
       -0.020334361 -0.051510353 -0.04083411 -0.058873266
000300 8c 76 1e 3d 5a 34 4d bd b3 ee c1 3c fd aa 8b 3d
       0.038687274 -0.050098754 0.023673391 0.06819723
000310 53 37 a9 3c e6 76 b9 bd 8c 5c bf 3c 06 ae 87 bd
       0.020656263 -0.09055881 0.02335956 -0.06624989
000320 db f6 66 3d 43 48 06 3c 9e 2f c2 bb e1 3c 4b 3d
       0.056387763 0.0081959395 -0.0059260866 0.049618606
000330 c0 7c 42 bd 46 fa 95 3d 8e 8d b1 3d ac 91 99 3d
       -0.047482252 0.073231265 0.086695775 0.07498488
000340 53 76 c7 bc a2 34 8a 3d f0 45 65 bc 84 00 f5 bc
       -0.024348414 0.0674832 -0.013993725 -0.029907472
000350 7f 46 dc 3d 7a 33 a9 bd 87 40 9d 3d 55 2a 05 bd
       0.107556336 -0.082617715 0.07678323 -0.032511074
000360 2c e1 1b bd 8f 12 95 3c 1c 58 c7 bd 9f 85 95 3d
       -0.038056538 0.018197326 -0.097336024 0.07300877
000370 f9 7a f5 3c 87 42 b9 bd 11 76 78 3c b1 6a d0 3d
       0.029965864 -0.09045892 0.015164868 0.101766
000380 5c 10 8f 3d 1e 19 2a bd bb 59 37 3c 4b ff 8b bd
       0.06985542 -0.04152786 0.011190827 -0.06835803
000390 69 b0 34 3d 90 cb b1 bb 7c 5c b3 bc 2d 2d 62 bd
       0.04411355 -0.005425878 -0.021894686 -0.055218864
0003a0 c7 08 b3 bd 3e f7 61 bd 9f 4e 74 bd 0c 66 9d bd
       -0.087419085 -0.05516743 -0.05964529 -0.076854795
0003b0 38 a3 73 bd 0e d4 77 bd 8b cc 8a bd 9c 5e a7 bd
       -0.05948183 -0.060504965 -0.06777295 -0.08172342
0003c0 bf 4e 8c ba 1e d7 e6 bc d1 33 10 bd 6e 75 99 bc
       -0.001070462 -0.028178748 -0.035205666 -0.018732753
0003d0 85 74 03 3c b4 ed ac bd fd ab dc bc 5e b5 0d bd
       0.008023386 -0.08443776 -0.02693748 -0.034596793
0003e0 f9 dc de 3a 69 3f 68 3d 15 78 26 3d 6a d7 a8 bd
       0.0017003111 0.056701098 0.040641863 -0.08244212
0003f0 3e 2e 64 bd 17 a0 bf 3d ef 75 91 bd f9 8b c9 3d
       -0.055708162 0.093567066 -0.07102572 0.09841151

rnn.bias_ih_l0 f4 [384]
000000 f8 0a 5b 3c 7e 1c 86 3d 7d 70 0b 3c 17 34 8b 3d
       0.013369314 0.06548403 0.008510706 0.06797045
000010 0c 2d ea bc 1d 6a f0 3d 75 96 ac 3c 0f 21 e5 bc
       -0.028585933 0.117389895 0.021067837 -0.027969865
000020 b7 bc 3a 3b 35 74 f6 3d de fc 94 3d fa d6 ee 3c
       0.002849383 0.120338835 0.07274793 0.029155243
000030 e2 0a 6b 3d ce 4b 94 bb d5 42 22 3c 5a f3 0d bd
       0.057383426 -0.004525638 0.009903629 -0.034655906
000040 de 76 ca bb 61 d2 7a 3d 2b b5 e9 3d 78 05 1d 3d
       -0.006178721 0.06123579 0.11411508 0.038335294
000050 67 d3 ca 3d c9 b7 56 3d cf ce c4 3d 53 69 7b 3d
       0.09903603 0.052421365 0.09609758 0.061379742
000060 86 ab e0 3a 31 f1 00 bd c8 b0 b4 bb 4e eb 6b bd
       0.0017140962 -0.031480018 -0.005514238 -0.05759745
000070 76 0b 42 3d fd f6 95 3d 8c 82 da bc 99 3a b2 bc
       0.04737421 0.073225 -0.026673578 -0.021756457
000080 73 ed 04 3e 77 3a 68 3d 89 82 1d 3e 04 56 51 3d
       0.12981205 0.05669638 0.15381826 0.05110742
000090 19 0c cc 3b c7 51 1d 3e 41 11 59 3c 42 1e 74 3d
       0.006227028 0.15363227 0.013248743 0.05959917
0000a0 26 2e e9 3c 52 e8 53 3d 06 08 36 3c be ca 46 bd
       0.028464388 0.05173523 0.011110311 -0.048533194
0000b0 c9 8c 6d 3d 69 ef 02 bd b8 0d 82 3c 68 d4 36 bd
       0.05799559 -0.0319666 0.015875682 -0.04463616
0000c0 a9 26 b1 3c 11 e3 e7 3b 44 40 4e 3c 91 85 88 3c
       0.02162488 0.007076629 0.012588564 0.016665252
0000d0 e9 42 20 bd 8e 3f 08 3e 9b 82 9d 3d 6f 46 a1 3d
       -0.03912631 0.13305494 0.07690927 0.07874762
0000e0 07 27 25 3d 29 7e 36 bc ec 31 aa 3d 51 ac 7b 3c
       0.040320423 -0.011138477 0.08310303 0.015360908
0000f0 e2 75 cf 3a 6a e7 70 3d af 4b 35 3c ca c5 ac 3d
       0.0015827978 0.058814444 0.011065408 0.08436163
000100 19 71 94 3d c5 36 06 bc f2 6e b9 3c a9 b5 1f 3d
       0.07248134 -0.008191769 0.02263591 0.038991604
000110 ff 68 c7 3c 01 d9 c3 bc d8 df 0a 3d 9d 2b 82 3d
       0.024342058 -0.023907186 0.03390488 0.06355975
000120 49 e5 71 3d 23 ab 1d bd 3a 44 23 3d 6c e2 a2 3d
       0.059056554 -0.038493287 0.039859988 0.07953343
000130 1b 13 72 bd ee d1 19 3e 89 a6 7d 3d d5 83 3f 3d
       -0.05910025 0.15021488 0.0619264 0.046756584
000140 e1 a4 1f bd e5 df ad 3d bd 05 48 bd b7 6d 57 3d
       -0.0389756 0.0848997 -0.048833597 0.052594867
000150 4c f8 a8 3d ae 20 a4 3d 6e 9b 92 3c 14 63 54 3d
       0.08250484 0.08014046 0.01789638 0.0518523
000160 3d 44 da 3c f7 1b 4b 3d a0 fb 7e 3d 6c 88 a1 3d
       0.026643867 0.049587216 0.062251687 0.078873485
000170 4b fd 8d 3d ef be 5a 3b bc 53 0d bd da 1b 32 3e
       0.069330774 0.0033377965 -0.034503683 0.17393437
000180 92 4d 09 3e 54 d8 00 3c fe d4 ce 3d c9 1b 7c 3d
       0.13408497 0.007864077 0.10099219 0.061549935
000190 ba 99 03 3e c6 5e 19 3e fb 88 d7 3c 46 6b f8 3b
       0.12851611 0.1497756 0.026310435 0.0075811474
0001a0 20 87 20 bc 1e 40 fd 3d 31 ef 83 3d c8 4b fd bb
       -0.009797841 0.12365745 0.064421065 -0.007729981
0001b0 4e 58 87 3c b2 01 51 bd 88 f2 d1 3d 7f 4f 49 bc
       0.0165216 -0.051027007 0.10251337 -0.01228702
0001c0 e2 ed 43 3d 78 4c ea 3d 82 a5 60 3c 5c 25 b0 3d
       0.047834285 0.114403665 0.013711335 0.08600876
0001d0 f3 d2 fb 3c 71 b5 52 3d 56 28 b1 3d 44 12 52 3d
       0.030740237 0.051442567 0.086502716 0.05128695
0001e0 04 89 e8 bb f8 da b8 3d ee 0e 91 3d b5 d3 41 3c
       -0.0070964117 0.0902614 0.07082926 0.01183026
0001f0 26 d4 0a bc a3 5e f0 3a 4c ef 46 3d bd f4 f7 bc
       -0.008473432 0.0018338751 0.048568055 -0.030268067
000200 a7 37 50 3e e7 d1 11 3d 74 97 a1 3e a0 9d 5e 3e
       0.2033373 0.03560057 0.31560862 0.21739817
000210 8b 96 28 3e cd 56 8c 3e 27 d8 55 3e 0a 98 aa 3d
       0.16463678 0.27409974 0.20883237 0.083297804
000220 a2 c5 77 3d e3 b0 91 3e c4 06 67 3e f7 84 5e 3e
       0.06049121 0.28455266 0.22561175 0.2173041
000230 25 32 83 3e f2 93 61 3e 56 a9 59 3e a3 16 8b 3e
       0.25624195 0.22029093 0.21256003 0.27165708
000240 83 fa fa 3d 52 f7 a4 3e 58 47 b8 3e 76 9d 59 3e
       0.122548126 0.3221994 0.3599193 0.21251473
000250 8f 53 92 3e 43 4f f3 3e 53 8a 46 3e 32 9e c8 3e
       0.28579375 0.4752141 0.19388704 0.39183193
000260 d8 9f e3 3e 12 f0 3e 3e 03 05 88 3e 9e 93 8f 3e
       0.4445789 0.18646267 0.26566324 0.2804231
000270 c8 40 30 3e 79 8c a7 3e ba 9e 21 3f 0e 2e 39 3e
       0.17212212 0.3272436 0.6313282 0.18083975
000280 74 b7 df 3e cb 0f 3f 3e 72 7f c5 3e 0c bf 96 3e
       0.4369465 0.18658368 0.38573796 0.29442632
000290 07 8e 90 3e e9 27 a5 3e 97 f8 d1 3d 99 69 b0 3e
       0.28233358 0.32257012 0.10252493 0.34455565
0002a0 fb d8 aa 3e 34 fb 7d 3e 3b 2f 75 3e bc 85 25 3e
       0.33368668 0.24802858 0.23943798 0.16164297
0002b0 53 5d 3c 3e 90 bd cf 3e 0c 5d 8f 3e 8b 33 95 3e
       0.18394975 0.40574312 0.28000677 0.29140887
0002c0 46 58 80 3e 8f 3b 91 3e f2 31 86 3e ed 44 97 3e
       0.25067347 0.28365752 0.2620998 0.29544774
0002d0 60 42 26 3e cd 52 e5 3e 2a 18 af 3e 91 84 a7 3e
       0.16236258 0.44789734 0.34198123 0.32718328
0002e0 94 21 40 3e 53 f5 83 3e 1d c9 90 3e 80 87 d0 3e
       0.18762809 0.25773105 0.28278437 0.40728378
0002f0 ea e7 1f 3e c9 e9 75 3e 20 0c 3d 3e fc e3 9f 3e
       0.15615812 0.24014963 0.18461657 0.31228626
000300 01 a9 0f 3e 6b 1f 76 3e c3 5b 67 3e 45 3a 8b 3e
       0.14029314 0.24035423 0.22593598 0.27192894
000310 0d 08 35 3e b8 46 90 3e 90 2a 3a 3e de 73 86 3e
       0.17678852 0.28178954 0.18180299 0.26260275
000320 fd 23 67 3e 29 6c 69 3e 46 1b ca 3e 37 b8 3c 3e
       0.22572322 0.22795166 0.39473933 0.18429647
000330 fe b8 cc 3e f9 f8 4c 3e b5 ee 2b 3e 30 ca 97 3d
       0.39984888 0.2001685 0.16790278 0.07411611
000340 f9 a0 3b 3e a9 59 0d 3f 77 3d 10 3e 35 df 49 3e
       0.18323125 0.55214936 0.14085947 0.19714053
000350 ef 20 5d 3e 51 ba b7 3e b8 db 2d 3e 0b a2 1e 3e
       0.21594594 0.35884336 0.16978347 0.15491502
000360 da a2 56 3e b3 76 37 3e 30 0d 17 3e 86 ea 72 3e
       0.2096056 0.17916374 0.14751124 0.23722276
000370 e0 df 5a 3e 6e be 2c 3e bb 3e 6e 3e b2 92 d6 3e
       0.21374464 0.16869518 0.23266117 0.41908795
000380 e9 9a 87 3d 29 a3 ca 3e 42 3c 90 3e 5c 07 d0 3e
       0.06621344 0.39577606 0.28170973 0.40630615
000390 30 44 3d 3e 97 15 3b 3e b0 cf 4b 3e 88 f0 8a 3e
       0.18483043 0.18269955 0.19903445 0.27136636
0003a0 b5 cd 86 3d c0 e0 5e 3e e4 13 33 3e f6 1c 97 3e
       0.06582204 0.21765423 0.17488056 0.29514283
0003b0 5f d3 cb 3e 34 e1 04 3e c7 ed 30 3e ff 56 12 3e
       0.398097 0.12976533 0.17278205 0.14290999
0003c0 ea a8 d9 3d e9 11 0c 3f c1 f6 1e 3e 0c 32 0e 3f
       0.10627921 0.5471483 0.15523817 0.55545115
0003d0 67 5f 85 3e 1d c1 a7 3e 38 d2 a1 3e c5 4a e7 3d
       0.2604935 0.3276452 0.31605697 0.11293558
0003e0 5f ac 6e 3e 92 9e ae 3e eb 8f 04 3f bf d0 b7 3e
       0.23307942 0.34105355 0.517821 0.35901448
0003f0 19 fe 15 3e 11 62 ba 3e aa da 9b 3e 14 e1 01 3e
       0.14647712 0.36402944 0.30440265 0.12683517

rnn.bias_hh_l0 f4 [384]
000000 60 8b 1e 3c 9d 15 c8 3d ef f0 c9 3c b1 4b 1d 3d
       0.009676784 0.097697474 0.024651019 0.038402263
000010 0a b2 c5 3d df cc 81 3d 29 06 b4 3c f4 fc 9a 3d
       0.09653099 0.06337904 0.021975594 0.07567778
000020 89 3b 96 3d 5f 66 e3 bc aa 0e 11 3e 00 2b 81 3d
       0.07335574 -0.027758775 0.1416575 0.0630703
000030 c0 bc f2 3d 85 58 86 3d 26 47 c1 bc 95 ef ba 3d
       0.118524075 0.065598525 -0.023593497 0.09127728
000040 cc f0 c1 b9 e9 08 65 3c 15 c6 bf 3d 0b 2e f4 3d
       -0.00036991236 0.013979175 0.09363953 0.119228445
000050 78 b7 21 3d 3e ce 3a 3c d8 d9 ff 3c 35 aa 0e 3d
       0.03948161 0.011401711 0.031231806 0.03483029
000060 73 a4 cf 3d bc 96 34 ba 43 ac c7 bc 13 3f 7a bc
       0.10138788 -0.0006888916 -0.024374133 -0.015273827
000070 30 ae 73 bd 5d 54 ee 3d ce ce 02 3d d0 b4 08 3d
       -0.05949229 0.11637185 0.031935506 0.03337556
000080 b2 cc 3b 3e 9a bc bf 3d 49 d7 06 3e 7c 03 e6 3d
       0.18339804 0.09362145 0.13168062 0.11231133
000090 dd 8a 77 bd de 6f e0 3d 31 63 bd 39 6a c2 a6 3d
       -0.060435165 0.10958837 0.00036122793 0.0814255
0000a0 32 22 d3 3d bd 87 d7 3d 73 e1 31 3d 50 00 10 3d
       0.103092566 0.10523937 0.043427896 0.035156548
0000b0 7d b0 0b 3d 21 42 d4 bc f5 92 db 3d 7a 6f 36 bd
       0.03410386 -0.025910439 0.10721389 -0.044539906
0000c0 a5 21 5c bb e9 7f 10 3d 78 da 11 bd c5 98 97 3d
       -0.003358939 0.035278235 -0.03560874 0.07402185
0000d0 cd b3 c1 3c c0 df 0e 3e f1 57 d1 3d 65 be a3 3c
       0.023645306 0.13952541 0.102218516 0.019988248
0000e0 f6 0c ba bc 85 28 b1 3d 2e 5c d5 3d df 60 66 3c
       -0.022711258 0.086503066 0.104179725 0.014061182
0000f0 ff e4 a2 3d 70 03 84 3d 8b bc bb bb d3 31 15 bd
       0.07953834 0.06445968 -0.005729263 -0.03642447
000100 29 2b 9c 3d 56 1c 4b 3b b2 25 aa 3d 8f cb 3e 3d
       0.0762542 0.0030992231 0.08307971 0.046580847
000110 59 c6 16 bd fd 99 91 3d ae 60 1b 3d 6b 22 8b bc
       -0.036810253 0.07109449 0.037933998 -0.016984185
000120 07 fc cf 3d f9 12 ab 3d da b4 92 3d 84 ea 12 3d
       0.10155492 0.08353228 0.07163401 0.035868183
000130 0f b9 79 3d 82 5c 32 3d e5 36 ce 3d cc 47 a3 3c
       0.0609675 0.043545254 0.10069064 0.019931696
000140 c1 0d 94 bd ad de 9f 3d c5 fa ac bd af e1 9f 3d
       -0.07229186 0.07806144 -0.08446268 0.078067176
000150 77 59 39 bd c5 77 16 3d 43 e5 25 3d 9c 40 d6 bc
       -0.045251336 0.036735315 0.040501844 -0.026153855
000160 dd 41 a1 3c 0a 1a a1 3d 00 b6 ba 3c 6a e4 b6 3d
       0.019684726 0.07866295 0.022791862 0.08930285
000170 44 51 d0 3c c2 45 17 3e f9 76 be 3d 20 72 73 3d
       0.025429375 0.14772704 0.09300036 0.05943501
000180 62 7d 33 3c eb 33 7d 3d d3 d8 2b 3d 49 3a 17 3e
       0.010955187 0.06181709 0.041954827 0.14768328
000190 9f 24 3d 3d 5d 01 66 3d dd 5a c3 3d cb 51 9f 3d
       0.046177503 0.056153644 0.09538815 0.07779273
0001a0 4a 0d 81 3d 99 1e 10 3e e6 d0 1f 3e 74 35 20 3e
       0.06301363 0.14074172 0.15607032 0.15645391
0001b0 6b 86 09 3d 64 19 5c bd 9f 92 6b 3c b0 a9 cb 3c
       0.033575457 -0.053735152 0.014378219 0.024861187
0001c0 9e f6 45 3c 3d 09 75 3d 86 f6 77 3c 4c fc bf 3d
       0.012082724 0.059823263 0.015134459 0.09374294
0001d0 06 ed 1b bd 97 3d 61 3d 31 cd 6f bc ce f1 23 3d
       -0.03806784 0.054990377 -0.014636324 0.040025525
0001e0 5d 27 02 bd 81 d6 f4 bc 08 0b c1 3c 4d 40 fd 3c
       -0.03177582 -0.02988744 0.02356483 0.03091445
0001f0 35 3a b4 3d a3 f8 b7 3d 38 89 c2 3d 55 81 d4 bc
       0.088001646 0.089829706 0.09498829 -0.025940577
000200 40 92 8d 3e c5 3c 0f 3e bc fd b4 3e 17 cd cd 3d
       0.27650642 0.13988025 0.35349834 0.100488834
000210 44 28 f9 3d 8f ea be 3e 74 16 b4 3e a5 9b 25 3e
       0.12165883 0.3728833 0.3517338 0.16172655
000220 da 59 ad 3d 4a 39 9e 3e 86 9e ab 3e c7 11 73 3e
       0.084644035 0.30903083 0.3351938 0.2373725
000230 5f 1d 97 3e 4c 04 44 3e 05 cf 91 3e 4f d2 be 3e
       0.29514596 0.19142264 0.28478256 0.37269828
000240 75 bc c8 3d a1 22 53 3e 8b ba da 3e 03 ba 45 3e
       0.0980157 0.20618679 0.42720446 0.19309239
000250 5f d6 e4 3e 06 43 be 3e 59 51 48 3e 4e 7c af 3e
       0.44694802 0.3716051 0.19562282 0.34274524
000260 04 c7 d3 3e 5e 92 82 3e 30 f6 56 3e b8 1f aa 3e
       0.41362774 0.25502294 0.2099235 0.33227324
000270 9c 87 04 3e 8a bb c5 3e 24 16 07 3f a7 83 aa 3d
       0.12942356 0.38619643 0.5276816 0.08325892
000280 0e 42 e5 3e dd 93 a8 3e 3c 24 c5 3e 0e 0c 96 3e
       0.44776958 0.3292531 0.38504207 0.29306072
000290 53 d3 d1 3e b7 06 96 3e c0 8d 27 3e a2 0c 51 3e
       0.4098154 0.29301998 0.16362667 0.20414975
0002a0 3d 99 46 3e c5 1a 85 3e 89 14 29 3e 7f 0a 68 3e
       0.19394393 0.25996986 0.1651174 0.22660254
0002b0 33 d1 4a 3e e0 49 c6 3e e1 9a 41 3e 12 98 9f 3e
       0.19806366 0.38728237 0.18906738 0.31170708
0002c0 bf da ab 3e 58 62 68 3e 26 ed 33 3e 8e 80 24 3e
       0.33565328 0.22693765 0.17570934 0.16064665
0002d0 ca ba 5f 3e 55 53 cd 3e 56 cb 86 3e 05 0b 96 3e
       0.21848598 0.4010264 0.26327008 0.29305282
0002e0 52 3b 51 3e 0a 49 d9 3d 58 17 55 3e f7 52 90 3e
       0.20432785 0.10609634 0.20809686 0.28188297
0002f0 c9 19 87 3e 73 8f 44 3e a9 f6 f0 3d 92 3b 9b 3e
       0.2638686 0.19195347 0.11765797 0.30318886
000300 a9 ae e5 3d a9 98 91 3e b2 eb 8e 3e 0b a7 65 3e
       0.112149544 0.28436783 0.27914196 0.22427003
000310 e3 e2 a2 3e fe 63 89 3e 9a df 29 3e 2e a3 64 3e
       0.31813726 0.268341 0.16589203 0.22327873
000320 f0 ca 3c 3e fd 85 9d 3e 88 06 a8 3e 54 a4 c8 3d
       0.1843679 0.30766287 0.32817483 0.09796968
000330 1c ba b9 3e 21 c3 60 3e 52 c4 93 3e 98 ea da 3c
       0.36274803 0.21949436 0.28860718 0.026723191
000340 16 d4 d7 3d 71 1e 17 3f 5d c5 0c 3e 25 57 82 3e
       0.10538499 0.59030825 0.13747163 0.2545711
000350 ad 45 20 3e 3b 0e 71 3e 47 7b a3 3e 49 85 1e 3e
       0.15651579 0.23540585 0.3192999 0.15480532
000360 b4 21 7a 3e a3 97 32 3e e9 3a 78 3e 4c 23 af 3e
       0.24426919 0.17440657 0.24241222 0.34206617
000370 0f 87 91 3e 52 1d 14 3e 48 5a 05 3e e6 8e df 3e
       0.28423354 0.1446431 0.13022721 0.4366371
000380 23 18 24 3e 53 ff a5 3e 52 21 b8 3e 22 f7 b9 3e
       0.16024832 0.3242136 0.3596292 0.3632136
000390 02 d9 8e 3e eb bf 70 3e db 63 f5 3d 19 7c 68 3e
       0.2789994 0.23510711 0.119819365 0.2270359
0003a0 49 7b 10 3e 7b c9 4c 3e 5e d1 53 3e 4c 15 57 3e
       0.1410953 0.19998734 0.20685336 0.21004218
0003b0 9c 49 80 3e 23 bf 34 3e 81 37 1b 3e fb d7 81 3e
       0.2505616 0.17651038 0.15157892 0.25360093
0003c0 d4 79 01 3e dd f5 11 3f 4d 9f 86 3e 51 e4 ec 3e
       0.1264413 0.5701578 0.26293412 0.46267942
0003d0 2a 7e 6c 3e 12 9a 76 3e 6a 58 af 3e ab aa 20 3e
       0.23095003 0.2408221 0.34247142 0.15690105
0003e0 7d b0 90 3e cd 5d 9b 3e 07 76 16 3f 9f f8 c7 3e
       0.2825965 0.30345002 0.58773845 0.3905687
0003f0 7d 78 6f 3e 81 49 b2 3e db 5d 72 3e 3e 32 13 3e
       0.23385806 0.34821704 0.23668616 0.14374635

rnn.weight_ih_l1 f4 [384, 128]
000000 1d 84 13 bd 40 5f 9a bd fc 9f 83 3d 22 da 04 bd
       -0.036014665 -0.07537699 0.06426999 -0.03243459
000010 4a 74 bf bc 27 73 e6 3c 4d 97 1f bd 5a 32 72 3c
       -0.02337088 0.02813108 -0.03896265 0.014782513
000020 7d b7 3c 3d 86 c2 cb bc b7 d3 9d bc 56 a8 ca 3d
       0.046073426 -0.02487303 -0.019265993 0.09895389
000030 4e 47 9c 3d 40 fa f0 bc d2 14 43 3d ca 41 9c bc
       0.07630788 -0.029416203 0.047627278 -0.01907434
000040 3c 79 54 3d e2 70 4f 3d 49 3a ea 3c 67 c6 1e 3d
       0.05187343 0.050644763 0.028592246 0.03876343
000050 4b c1 ba 3d 25 05 c9 bd 78 e3 12 3d 63 42 c9 bc
       0.09118899 -0.09815434 0.035861462 -0.024567788
000060 0a ce 8a bc 8c bb 96 bd 92 4f 3d 3c 41 a7 86 3d
       -0.01694395 -0.073599905 0.011554616 0.0657487
000070 62 8d 95 3d c9 08 be 3d db 97 85 3c 16 7f 03 3d
       0.07302357 0.092790194 0.016307762 0.03210362
000080 18 c5 c4 ba 65 e0 a7 3d 3d 42 4a bd 1d db 22 3b
       -0.0015012352 0.08197097 -0.049379576 0.002484984
000090 31 53 74 bd f5 5c a9 bc f5 c3 cf bc 1e 81 4f 3d
       -0.05964965 -0.020674208 -0.025361994 0.050660245
0000a0 b0 42 30 bc 5f f3 09 3d a0 7d fc bc 74 ae b1 bd
       -0.010758087 0.033679362 -0.030821621 -0.086758524
0000b0 88 80 c8 bc 8e 4a ab bd 16 d0 ef bc bb e4 0f bd
       -0.024475351 -0.083638296 -0.029274028 -0.035130244
0000c0 94 c9 0f bd c6 25 8f 3b e7 74 15 3d fb 50 43 bd
       -0.03510435 0.0043685166 0.03648844 -0.04768465
0000d0 ef f9 d5 3c b7 41 04 bd 10 a2 86 3d dc 1f 6c bd
       0.026120154 -0.032289233 0.0657388 -0.05764757
0000e0 8d c6 c4 3a 76 58 d7 3c 92 83 c5 3c 08 ed 90 bd
       0.0015012786 0.026287299 0.02411059 -0.0707646
0000f0 ea cd 34 bd 69 69 9b 3c 0d 53 86 bd b6 c8 4d 3d
       -0.044141687 0.018971162 -0.065588094 0.05024024
000100 3f 23 0a 3d 58 4d 36 3d 91 de 66 3c b0 af 20 bd
       0.03372502 0.044507354 0.01409115 -0.03923005
000110 e3 ef 64 bd 69 a3 5c 3d 07 6f f7 3c 68 da 90 bd
       -0.055892836 0.053866778 0.03020431 -0.07072908
000120 13 a5 5d 3d 52 ff a0 3d 7a c0 cd 3c c3 10 02 3d
       0.054112505 0.078611985 0.025116194 0.031754266
000130 01 89 86 bd ec 01 94 3d de 5e 8e 3d 73 5e 9e bd
       -0.065691 0.07226929 0.06951688 -0.077328585
000140 c8 56 15 bd d0 ad 5a 3d aa b0 92 3d 23 e1 0d bd
       -0.036459714 0.053388417 0.07162602 -0.034638535
000150 58 f7 19 3d 04 90 c9 bc 75 88 a4 3c 93 8d a5 3d
       0.0375894 -0.024604805 0.020084599 0.08083644
000160 52 9b 42 3d a6 55 45 bd 31 43 bd bc f6 16 ba bd
       0.047511406 -0.048177384 -0.023103328 -0.09086411
000170 18 50 75 bc d3 0a 9a bd 59 67 56 bd 01 6b 13 3d
       -0.014972709 -0.07521596 -0.052344654 0.03599072
000180 9c b3 82 3d 91 09 8e bd 05 58 2a bd 1e 59 74 3d
       0.06381914 -0.069354184 -0.04158785 0.0596553
000190 01 5b 4e 3d c8 5f f2 3c e1 25 14 bc a5 e8 a8 bd
       0.050379757 0.029586688 -0.009042234 -0.082474984
0001a0 63 cf 0a 3b f6 42 98 3d a2 20 b0 3d 52 a3 b7 3d
       0.002118074 0.07434647 0.08599974 0.08966698
0001b0 9e 84 20 3d e0 8d 37 bd 86 8c 9e 3d c6 8c 0d 3d
       0.039188974 -0.044813037 0.077416465 0.03455808
0001c0 0c bf 46 3d fa e7 0d 3d 8c 2e 88 3d cd 4d 1c 3d
       0.04852204 0.03464506 0.06649503 0.038160134
0001d0 8b 8d 96 3d 80 7f 8b 3d 21 ff 91 bc 66 74 80 bd
       0.07351216 0.06811428 -0.01782185 -0.06272201
0001e0 c3 6f 9f bc 03 5f ce 3c 44 c4 68 bd 21 cb ec bb
       -0.019462472 0.02519179 -0.0568278 -0.0072263633
0001f0 a5 2b 8d 3d 3f c1 4a 3c 1b 57 6f bc 0e 9d ae bd
       0.0689309 0.012375175 -0.01460817 -0.085260496
000200 0d da b9 bb 7c 34 5e 3d f8 7e 69 3d 35 ce a3 bd
       -0.0056717456 0.05424927 0.057005852 -0.07998315
000210 5a 31 b3 bc c0 b9 d5 bd 4d 7d 23 bd 69 6c a1 3d
       -0.021874119 -0.104358196 -0.039914418 0.07882006
000220 e5 a6 b2 3d 35 b9 64 3d a0 9a da bc dd 42 da bd
       0.08723239 0.05584069 -0.02668506 -0.106572844
000230 c6 fc f8 bb da 84 08 bd db bf 8f bd 3e 58 c0 bd
       -0.0075984923 -0.033329822 -0.070190154 -0.09391831
000240 0a 6c d9 bd 30 73 24 bd 6a 10 ab bd c4 9e 1a 3c
       -0.1061631 -0.040148914 -0.0835274 0.009437267
000250 24 b3 a4 bd 8a 5f d7 3c 46 6e 7e 3d c5 68 c9 3c
       -0.08041981 0.026290674 0.062116884 0.02458609
000260 d9 a5 17 3d d1 70 6e bd 86 7f c8 3d d4 a8 c8 bc
       0.0370234 -0.05821306 0.09789948 -0.024494566
000270 bf cb aa 3d 38 38 3d bd d6 8e 6a bd 13 5f 32 3c
       0.08339643 -0.046196193 -0.057265125 0.010886925
000280 71 78 81 bc b9 8b 23 bc c9 42 88 3d dc ab a9 bd
       -0.015804501 -0.009982043 0.06653363 -0.08284733
000290 db ab f0 bd b3 66 10 be 8c 1b e3 bd f7 41 82 3c
       -0.11751529 -0.14101677 -0.110892385 0.015900595
0002a0 60 76 e0 ba 7a 64 97 bd 34 15 1c 3d d6 88 0d 3d
       -0.0017125122 -0.07392211 0.03810616 0.034554325
0002b0 76 9e 0d 3d 3a a6 2c bd 5f ae c3 3d 2f 35 ff 3c
       0.03457495 -0.042150714 0.09554743 0.03115329
0002c0 a1 28 ab 3d f6 1a ef 3d a7 0f 3c 3d d6 c0 bb 3c
       0.08357359 0.11675064 0.045913365 0.0229191
0002d0 a6 e8 89 bd 91 9d 86 bd 83 1a bc 3d bd 50 8d 3c
       -0.06733827 -0.06573022 0.09184744 0.017250413
0002e0 96 d4 59 3d e0 9b bc 3d 72 2b 5d 3d 93 67 a4 bc
       0.053181253 0.09209418 0.05399651 -0.02006892
0002f0 f1 2f 78 bc 17 3b 14 3d 01 f6 b4 3c e5 ce 1f 3d
       -0.015148149 0.036189165 0.02208996 0.03901567
000300 01 0b f1 bb e6 c7 b7 bc dd 1b b4 3d d3 28 79 3d
       -0.007356048 -0.022434186 0.08794377 0.06082995
000310 a3 8e ac 3d fa 4e 8f 3c 11 44 89 bd d0 d6 80 3c
       0.08425643 0.017493714 -0.06702436 0.01572743
000320 d8 fe 9d 3d 3f 28 87 bd af 2f ac b9 31 1e 95 3c
       0.07714623 -0.06599473 -0.00032841924 0.018202873
000330 1f ae a3 bd 7e 2d 16 3d 80 9f d2 3c bb 2e 1e bd
       -0.07992195 0.03666448 0.025710821 -0.038618784
000340 f9 16 a0 bc 96 1e d0 3d 2c ec e0 bd 15 55 d6 3b
       -0.019542204 0.10162084 -0.10982546 0.0065409043
000350 0a c0 b2 3c 8f c3 39 bd f4 90 b2 3d f5 51 5d 3d
       0.021820087 -0.045352515 0.08719054 0.05403324
000360 b0 65 d6 bb f6 a6 27 3d 7b 3d ee 3c f0 03 7a bd
       -0.006542884 0.04093071 0.02908205 -0.06103891
000370 35 d7 a7 bd a7 32 06 be 70 e5 07 bc f9 60 1b bd
       -0.08195344 -0.1310526 -0.008294448 -0.037934277
000380 70 2a 56 bc 3c e8 08 ba 12 5a 84 bd 59 0e 5c 3d
       -0.013071641 -0.0005222594 -0.06462492 0.05372462
000390 cb ad 0b 3a 2a ab 29 3d 2b b7 88 bd 7d fd 5a bc
       0.00053283264 0.041423 -0.066755615 -0.0133661
0003a0 8c 38 dd 3c 39 eb 68 bd 4a ff ac 3d fa 2d 91 bd
       0.027004503 -0.05686495 0.0844713 -0.070888475
0003b0 23 5c a0 bd 66 7b b8 3d 40 16 0b 3c 19 49 b8 bd
       -0.07830074 0.090079114 0.0084891915 -0.08998317
0003c0 4c 73 21 3d ae ec d2 bc 63 3a c8 bc a9 82 b9 3d
       0.039416596 -0.025747623 -0.024441903 0.090581246
0003d0 eb af 7b 3c 06 b2 3d bd 9e 6c 07 3d bb fa b5 bc
       0.015361766 -0.046312355 0.03306257 -0.022214284
0003e0 bd ab 49 bd 49 13 b2 3c fb c4 10 bd d7 ab e0 bc
       -0.049236048 0.021737712 -0.035344105 -0.02742569
0003f0 37 d6 e1 bd 99 ae b7 39 82 8c b8 3d 7f d9 4a bd
       -0.11027186 0.00035034565 0.09011175 -0.049523827
