rnn_training/20260103_200228/best_model.pth (torch, 521205 bytes, 10 tensors)

initial_state_projection.weight f4 [128, 110]
000000 82 2c 4a bc f8 50 81 3c 52 27 ba 3d b0 e0 8c bd
       -0.012339713 0.01578568 0.09089531 -0.06878793
000010 35 9b 5b bc 58 8b 33 3d 88 bf 88 bc 88 b0 0b be
       -0.013403703 0.04383406 -0.016692892 -0.1364156
000020 19 72 6e 3d 67 9f 5e 3d 06 b3 dd 3d 44 da 86 bd
       0.05821428 0.054351237 0.10825162 -0.065845996
000030 b1 b5 07 3c 9e 67 cd 3d 5b c3 b7 bd 29 3d 00 be
       0.008283065 0.10029529 -0.08972808 -0.12523331
000040 7f 4d de bd b3 ac ef 3c f0 d5 7f 3d 1f ec e5 bd
       -0.10854625 0.029257154 0.062459886 -0.11226677
000050 69 28 3a bc e2 48 a7 bd a2 e1 90 3c 20 5f b5 bd
       -0.011362174 -0.08168198 0.017685715 -0.08856034
000060 5b 04 ba bb 86 d5 1d bd c9 b6 ba 3d 31 bc c1 3d
       -0.0056767887 -0.03853371 0.09116895 0.09459723
000070 45 84 2d bc e1 44 82 bd ed 0d 74 bd 3d e5 07 3c
       -0.010590618 -0.06360794 -0.059583593 0.008294401
000080 d3 96 a4 bd 2c fe 73 bd ec f1 17 3d d0 d2 17 3c
       -0.0803658 -0.05956857 0.03709595 0.00926657
000090 12 a1 d9 bd 7f 95 b0 bc 25 1c 92 3d c0 23 84 bd
       -0.10626425 -0.02155566 0.071342744 -0.06452131
0000a0 5d 35 a7 bd 6e ee a2 bd 11 e5 bc 3d 39 61 d1 ba
       -0.08164475 -0.07955633 0.092233784 -0.0015974409
0000b0 03 77 ad 3b 4d 6c 1c 3d 52 35 41 3d 0a a3 e2 bd
       0.0052937283 0.03818922 0.04716999 -0.110662535
0000c0 db c1 83 bd a1 40 5c 3d 79 2f e4 bd f5 48 81 bd
       -0.06433459 0.053772572 -0.11141867 -0.063127436
0000d0 8e 9c a4 bc 11 f4 b1 bd 66 9a ba bd 4d a3 3e bd
       -0.020094182 -0.0868913 -0.091114804 -0.046542455
0000e0 e7 78 05 bd 35 40 d3 3d e5 d3 94 3d f8 36 d1 bd
       -0.032586005 0.10314981 0.07266978 -0.102155626
0000f0 4e c4 7f 3d 20 4c 8d bd 6a 88 48 3d 63 b6 0c 3d
       0.06244307 -0.06899285 0.04895822 0.034353625
000100 a9 d1 c9 3d 0c fd 1e bd bf c0 99 bd 83 1f a6 bd
       0.098544426 -0.038815543 -0.075074665 -0.08111479
000110 c5 be f9 bd 18 55 2d 3d d2 75 fd bd 1a 88 9d bd
       -0.121945895 0.04231748 -0.12375988 -0.07691975
000120 b0 58 6d ba 27 ca cc 3d eb ed 48 3c d9 10 0e 3e
       -0.0009054048 0.09999495 0.012263755 0.13873614
000130 de 2c 92 3d 9a 92 ca 3d 3c 4f bd bd c8 4c a1 3d
       0.07137464 0.09891243 -0.092436284 0.07875973
000140 09 cf 12 bc 59 1e 10 bd 3d 2b 88 3d d0 42 e2 3c
       -0.008960494 -0.03518519 0.06648872 0.02761975
000150 d1 b7 08 bd b2 f0 cf 3c 33 64 13 3c ff b8 13 be
       -0.033378426 0.025383327 0.008996057 -0.14426039
000160 89 52 ab bd b6 bb ab bc 90 07 d0 3d f0 b9 c4 3d
       -0.08365352 -0.020963531 0.101576924 0.09605777
000170 53 35 c3 3a 45 7a 3c bd 28 13 6e 3d 55 22 b5 3d
       0.0014893211 -0.046015043 0.058123738 0.08844439
000180 bd ef dd 3d 4b 0f fc 3d 7a e3 33 bc 41 59 67 bd
       0.10836742 0.123076044 -0.010979528 -0.056481604
000190 20 5c b5 3d 71 63 7c bd 41 ce c6 bb 10 58 a5 3c
       0.08855462 -0.061618272 -0.006067068 0.020183593
0001a0 27 6a 2e bd 7e 1b d1 bd cd a5 8e bd 13 ea 61 3d
       -0.042581704 -0.10210322 -0.06965218 0.05515487
0001b0 90 67 18 3d 31 87 83 3d 1c 00 35 3e ad 11 a2 bd
       0.03720814 0.0642227 0.17675823 -0.07913528
0001c0 79 7b ba 3d b6 97 03 3e 84 3d 4c 3e f7 b2 90 3d
       0.09105582 0.12850842 0.19945341 0.07065385
0001d0 ae 56 af bd 71 a1 d7 bd 3a 7b be bc fd 94 d1 3d
       -0.08561455 -0.105288394 -0.023252118 0.102334954
0001e0 5c 96 9b bc 4b a3 64 3d 09 49 b3 bd fe cb e3 3d
       -0.018992595 0.05581979 -0.08754165 0.11122893
0001f0 bc 40 a5 bd 9c 9e 9f 3c 69 72 78 be 01 cb da bc
       -0.08068988 0.01948481 -0.24262394 -0.026708128
000200 6f 44 ff bd d9 99 3f bd bd 6e ab bd 5c 67 b5 bd
       -0.124642245 -0.04677758 -0.08370731 -0.08857605
000210 05 ee 0f 3c ef fe 69 bd 8f 27 b1 bd 4f 2b d1 bd
       0.008784776 -0.05712789 -0.08650123 -0.102133386
000220 5d 80 2e bc 10 fe 8f 3d 52 3f 52 3d 54 01 af 3c
       -0.010650721 0.070308805 0.05132992 0.021362938
000230 fb 9d fb 3c 75 4e d0 3d 41 a5 8f bd f1 da 9e bc
       0.03071498 0.101712145 -0.070139416 -0.019391509
000240 8f 7f c7 bd 71 ed 9c 3d 7d b7 45 bd 95 ac 10 bc
       -0.09741127 0.07662476 -0.04827069 -0.008830209
000250 ef d4 9b 3d b9 8d 5e 3d ee 18 91 3d 6e 39 a4 3d
       0.07608973 0.054334376 0.07084833 0.08018766
000260 1c e1 0f be 0a a7 1a 3e 50 37 d4 3d a4 0d 52 3e
       -0.14050716 0.15102783 0.103621125 0.20513016
000270 6d 68 7f bc d2 ba 97 3b 3e 35 dd bc ad c7 d9 bc
       -0.015588862 0.004630425 -0.027002927 -0.02658447
000280 ba c2 8f ba 48 7c 42 3e 7c 6f 3c 3b 3f 76 39 bb
       -0.0010968067 0.18992722 0.0028752973 -0.002829924
000290 d2 0e b8 bd 7a dd 8e 3c be 58 48 3d 9a 56 b2 bd
       -0.08987202 0.017439593 0.048912756 -0.08707924
0002a0 56 0e 0f be ad e2 91 3d bc 43 f2 3d e4 eb 9b bb
       -0.13970312 0.07123313 0.118293256 -0.004758345
0002b0 7a 89 13 3e ae e3 9a bd 16 a3 a9 3c ef da e7 bd
       0.14407912 -0.07562958 0.020707648 -0.11321055
0002c0 8a 0e 59 be 46 b8 18 3e d2 92 9c 3d 96 bd c0 3d
       -0.21196952 0.14914045 0.07645191 0.09411161
0002d0 ca 02 9f bd b0 19 dc bc 2f 20 5f bd 84 cb 0d be
       -0.07764204 -0.026867718 -0.054474052 -0.13847166
0002e0 97 04 f8 3d 09 3d 92 3d 63 b8 68 3e 6f 24 06 be
       0.121102504 0.07140548 0.22726588 -0.13099836
0002f0 d8 fa 05 3d 93 fc c3 3d e8 1f 71 3d 6c ac 5c bd
       0.032709926 0.09569659 0.05886832 -0.05387537
000300 9e 1f 25 bc ef 09 7e be 44 8f 04 3d 20 e2 8d bd
       -0.010078339 -0.24808477 0.03236319 -0.069278955
000310 37 36 90 3d 7e a2 f8 3c e6 c8 04 bd 79 5c 6c bd
       0.07041591 0.03035092 -0.032418154 -0.057705376
000320 33 e7 6f 3d 86 93 b3 bc c8 72 b2 3d e5 07 d0 3c
       0.058570098 -0.02192093 0.08713299 0.02539439
000330 38 a6 2d bd 98 92 b6 bd 65 76 87 bd 54 86 44 3e
       -0.042394847 -0.08914679 -0.06614379 0.19191867
000340 4d 84 8c 3d 36 80 6d 3d 11 1d 0a 3e a1 d5 a2 bb
       0.06861172 0.0579836 0.1348765 -0.004969314
000350 83 85 e7 bd fe e0 70 bc da 92 e9 bd b3 24 27 bc
       -0.11304762 -0.01470208 -0.11404963 -0.010201621
000360 b1 4e e6 3d de 6b 29 3e c4 d3 2e ba fc c4 43 3e
       0.11245478 0.16545054 -0.0006669129 0.19118112
000370 53 f1 c6 3d d6 83 df bb 19 95 4e 3d 98 4d 96 3d
       0.09713998 -0.006821136 0.05043516 0.073390186
000380 a2 88 39 3d a8 99 5a bd 68 3f 2a 3e cd 22 07 be
       0.04529632 -0.053369194 0.1662575 -0.13196869
000390 ac 14 3c bd 93 b7 ef 3c e8 66 e4 bd 45 73 25 3e
       -0.04591815 0.02926234 -0.1115244 0.16157253
0003a0 95 fa 83 3b 03 26 c5 bc 93 7d 8d bd 89 69 60 bd
       0.0040276744 -0.024065977 -0.06908717 -0.054788146
0003b0 56 6a a7 3c cf 6e a6 ba 6f bb 5c be 1f 2d 48 3d
       0.020436447 -0.0012697818 -0.21555875 0.048871156
0003c0 69 1b 8c bd 62 66 5e 3d a4 4d b0 3d 04 e5 3f 3c
       -0.068411656 0.05429686 0.08608559 0.011712316
0003d0 9e 65 a4 bd 7c dd 64 3d 68 90 1e be 4e 85 9d bd
       -0.080271944 0.055875286 -0.15484774 -0.076914415
0003e0 e7 c9 58 bd 58 11 f3 bd 14 66 ea bd 23 b1 56 3d
       -0.052926924 -0.118685424 -0.11445251 0.052415024
0003f0 59 a0 73 3d 29 7b a3 bd f7 fd b9 bd d7 24 87 3d
       0.05947909 -0.07982475 -0.09081643 0.065988235

initial_state_projection.bias f4 [128]
000000 f2 8c 16 be e0 b0 d1 3e 58 ab 5a 3e b6 e6 1c be
       -0.14702204 0.40955257 0.21354425 -0.15322384
000010 69 75 2d be 8e e1 9a 3e f3 83 23 3e ef cb b2 3e
       -0.1693932 0.3025021 0.15968303 0.34921214
000020 a3 e7 c0 bd 34 d4 98 be 48 97 e8 bd e3 99 84 be
       -0.09419181 -0.29849398 -0.113569796 -0.25898656
000030 88 e1 51 be 38 6a a8 3c 88 71 b3 3c 5b 87 90 be
       -0.2049619 0.020558462 0.021904722 -0.28228268
000040 57 dc 01 3e 5d 97 6f be f0 bf 03 be c4 81 9e bd
       0.12681709 -0.23397584 -0.12866187 -0.077395946
000050 13 84 85 3e fe f6 da bd 16 7a 21 3e d1 ba 5c be
       0.26077327 -0.10691641 0.15769228 -0.2155564
000060 6d d3 96 3e 0e b9 ed bd 22 17 50 be 7b a1 da be
       0.2945818 -0.11607562 -0.20321324 -0.42701325
000070 88 0a 5e 3d 3d 55 5c be 5a 52 35 3e 69 42 16 3e
       0.054209262 -0.21516891 0.17707196 0.14673771
000080 8a 27 d7 bd d8 ce d3 be fc 0b 2f be 64 26 38 3e
       -0.10505588 -0.41368747 -0.17094415 0.17983395
000090 cf 78 9f be db 5e 1e 3e 8d d2 d7 bd 06 2b a5 3e
       -0.31146857 0.15465872 -0.10538206 0.32259387
0000a0 38 87 ce bd f2 ec a3 bd 32 ee 21 3d 7c cd 66 be
       -0.10084385 -0.08004178 0.0395338 -0.22539324
0000b0 b2 da b0 be ec c8 17 3e 9f f9 8d be 89 ab 46 3e
       -0.3454185 0.1482274 -0.27729508 0.19401373
0000c0 e4 4a c6 bc d1 86 c3 3d ad 4e 2a be 5d 17 38 3e
       -0.024205633 0.095471986 -0.16631575 0.17977662
0000d0 27 fa d5 be 28 03 0b be f0 e8 8d bd 8f 9a e3 be
       -0.41792414 -0.13575423 -0.06929195 -0.44453856
0000e0 73 ce ac be c8 d3 84 be 7e c4 4f be 8b 69 2a 3e
       -0.33751258 -0.25942826 -0.202898 0.16641824
0000f0 c9 74 61 3e c1 d1 2c be f7 4c 0b 3e d0 c7 69 be
       0.22017206 -0.1687689 0.13603579 -0.22830129
000100 ff a9 25 be e1 3e a5 3c 96 c0 6d 3e 54 7d 85 3d
       -0.1617813 0.020171585 0.23217997 0.06518045
000110 d2 72 be 3c 4a 40 90 3e ef db 05 3e b7 91 13 3e
       0.02324811 0.2817405 0.1307218 0.14411055
000120 39 eb 96 3d b7 c1 3d 3e a0 0d 89 3e 93 4d 62 3e
       0.07369084 0.18530928 0.26768208 0.22099905
000130 bc cb b1 bd 65 d4 e6 bd 43 ea 0f be 5c d0 e2 bd
       -0.086814374 -0.1127098 -0.14054208 -0.11074898
000140 a9 71 87 bc d3 94 a5 3d 50 fd 22 3e 7f 83 8f 3d
       -0.01653369 0.080850266 0.15916944 0.07007503
000150 1c 58 8a be 7b 44 c0 3b 89 7c 4b be cb 98 80 3b
       -0.27020347 0.0058675385 -0.19871725 0.0039244643
000160 19 fb 3d bd 79 12 5a 3a ca ea bd 3c 94 2b 2a bd
       -0.046382044 0.00083187927 0.023183245 -0.041545466
000170 36 f3 61 be 3a 10 f6 3d 78 68 b4 3d 5a 88 35 be
       -0.22065434 0.12014814 0.08808988 -0.17727795
000180 d0 05 a4 be 50 6b 60 3e 6e 7d 14 3e b1 7b 9b be
       -0.32035685 0.21915936 0.14500973 -0.30367807
000190 18 d2 17 3e 7e 33 c2 be 01 cc 5e be d5 cf 4e bd
       0.14826238 -0.3792991 -0.21757509 -0.050491173
0001a0 41 e7 bb 3d ec f2 8d be 47 52 09 be f7 43 e6 be
       0.091749676 -0.27724397 -0.13410293 -0.44973728
0001b0 58 6b 6c be ed 11 00 3d ca 6f 1f be e2 4d 89 3c
       -0.23087823 0.031267095 -0.15569988 0.01676077
0001c0 70 48 39 be 76 16 3e 3e 27 ad 7a 3e 22 7f ef bd
       -0.18094039 0.18563256 0.24480115 -0.116941705
0001d0 e5 99 0e 3e 5e 15 3e 3e 12 a4 79 bd 66 86 24 be
       0.13925894 0.18562838 -0.060947485 -0.16066894
0001e0 e5 d1 31 3d e8 de c4 3e a5 a2 62 be 90 37 da 3d
       0.04341306 0.38451314 -0.22132356 0.10655129
0001f0 33 5d 53 3d 98 2d 26 be 83 1b 20 3e e5 67 ba 3b
       0.051602554 -0.1622833 0.15635495 0.0056886547

rnn.weight_ih_l0 f4 [384, 10]
000000 c4 e4 8f bd d8 12 ac bc f4 14 85 3d 94 4d 43 bd
       -0.070260555 -0.02100508 0.06498137 -0.047681406
000010 53 e6 91 bd ac b5 68 bd be 7d 0d 3c bf 05 40 bd
       -0.07124009 -0.05681388 0.008635936 -0.04688048
000020 f5 40 54 3d 31 2e 9f bd 38 12 a0 bd 5c 5b 00 3d
       0.05181976 -0.07772482 -0.07815975 0.031337127
000030 a2 4b d8 bc 03 2b 97 3c 6a 24 10 3d 34 05 c6 bc
       -0.026403252 0.018453127 0.035190977 -0.024172403
000040 b0 39 57 3d 82 fc af 3d a0 45 a0 bd c8 24 0f 3c
       0.05254525 0.08593084 -0.0782578 0.008736797
000050 71 79 3d bd 46 49 27 3d 3c 5d 98 bd ca 80 70 3d
       -0.046258394 0.040841363 -0.07439658 0.058716573
000060 27 e6 62 3d 1c c6 a6 bd 25 74 ba 3c da c6 70 3d
       0.05539527 -0.08143255 0.02276046 0.05878339
000070 43 4b 05 3c c6 2b a3 bc 62 b1 cd bc ba 24 71 3d
       0.00813562 -0.019918334 -0.025108997 0.058872916
000080 97 95 3f 3d 70 9a c4 3b d4 4b b1 3d ab 91 7d bc
       0.04677352 0.0059998557 0.08657041 -0.0154766245
000090 c7 8c b1 bd b0 d7 1a 3d 99 1a 33 3c 7c c9 5a 3d
       -0.08669429 0.037803352 0.010931634 0.053414807
0000a0 09 25 78 bd dc 22 a2 3c ff 72 e7 bc 1e 5a 30 bd
       -0.060582194 0.019792013 -0.028253077 -0.043054692
0000b0 1b 69 8f bd bb 8c 14 bd 81 26 7b 3d f7 18 ab bb
       -0.07002469 -0.036267024 0.061316017 -0.005221482
0000c0 86 39 c1 bd e1 17 f9 3c 78 3e 99 3d 7b 3f cb bc
       -0.094348 0.030406894 0.07482618 -0.024810543
0000d0 b8 29 d8 3c e9 48 42 3d 1a ed 35 bc 35 03 25 bd
       0.02638708 0.047432814 -0.011103893 -0.04028626
0000e0 37 34 47 3d 7c 6e 92 bd cf 07 c4 bd 3b ce 37 bc
       0.04863378 -0.071499795 -0.09571802 -0.011218603
0000f0 dc 83 b7 bd ec 9e f6 3c 0b 32 13 bd 17 6f 0d 3d
       -0.08960697 0.030105077 -0.035936397 0.03452977
000100 30 78 a1 3d 7f c1 2d bc 31 d9 2c bd 41 18 76 3d
       0.07884252 -0.010605215 -0.042199317 0.060081724
000110 11 0b a7 bd da 7b e1 3c 1b a7 97 3d a5 8b 1c 3d
       -0.081564076 0.027524877 0.0740492 0.038219113
000120 dc ba eb bc 8a 47 23 3d 64 b0 78 3d 7f 77 a6 3d
       -0.028775625 0.039863147 0.060715094 0.08128261
000130 7c 7e c3 bd b3 06 a0 bd 7a 18 3a bd 64 05 ff bc
       -0.09545609 -0.07813778 -0.0454335 -0.0311305
000140 a7 8c 83 bc e5 74 a0 3d 4a 1d 8b 3d 65 f9 7c 3c
       -0.01605828 0.07834796 0.06792696 0.01544032
000150 98 2f 72 3d 0c ef 32 bd 41 a3 ab 3c 65 ee 87 3b
       0.05912742 -0.043685004 0.020951869 0.004148292
000160 f4 5d 86 bd f9 dd 9c bc 43 f1 a1 bd 55 ae 6c 3d
       -0.06560889 -0.019148814 -0.07907345 0.057783443
000170 f3 83 a0 3c 64 1d 11 bd db 16 99 bc 8f c5 35 bd
       0.019594168 -0.03542842 -0.018687656 -0.04437786
000180 48 59 96 3d 8c 4b 99 bc c7 5f 26 bd 20 41 52 bb
       0.07341248 -0.018712781 -0.040618684 -0.0032082275
000190 6d f7 7f bd 0c 66 67 3d b8 3c 33 3d bd 4b 4a 3d
       -0.062491823 0.056493804 0.043759078 0.049388636
0001a0 0f 5c 6e bd b7 2e 7e 3c 93 85 43 3c 55 f0 60 3d
       -0.058193263 0.015514067 0.011933702 0.0549167
0001b0 35 35 9e 3d 8e ee ac bd af 07 77 bd 4e d9 8a bd
       0.07724992 -0.08443938 -0.060310062 -0.06779729
0001c0 b1 f5 3f 3d aa c9 9e 3d fc 97 a1 3d 2b e1 54 bd
       0.04686517 0.07753308 0.07890317 -0.05197255
0001d0 9e 8b 99 bd cf e9 76 3d 03 ea 94 3d 31 cb 01 bd
       -0.07497333 0.06028157 0.07271197 -0.03168792
0001e0 52 6e 0b 3d d8 75 fa bc b6 ee 62 3d af 96 51 bc
       0.034040757 -0.03057377 0.055403434 -0.012792273
0001f0 50 a6 4a 3d b5 70 17 3c 2f bd c8 3c b9 78 a1 3c
       0.049475014 0.00924318 0.024504272 0.019710885
000200 1a 1a 8f 3d 05 61 22 bc 07 40 9f bd 30 c2 10 3b
       0.069874 -0.009910827 -0.07775884 0.00220884
000210 93 e2 1d 3d d4 70 9a 3d c9 9a be 3b f8 3d a4 3d
       0.038546156 0.075410515 0.0058167917 0.08019632
000220 79 59 98 b9 a0 c1 a8 3b 45 d0 b2 3c c1 11 29 bb
       -0.00029058362 0.005150035 0.021827826 -0.0025797936
000230 da e4 0c 3a 9a d5 c7 bc 97 0b ab 3d 82 76 88 3d
       0.0005374678 -0.024393845 0.0835182 0.066632286
000240 7f 03 a7 3b 29 14 8e 3d 62 27 6f 3d 99 a4 5e bd
       0.0050968523 0.06937439 0.058387168 -0.05435619
000250 22 83 eb ba a4 e1 26 3d ab 07 8c 3d b1 f9 59 3d
       -0.0017968158 0.04074253 0.068374 0.05321664
000260 c1 77 83 3d ad 22 3d 3c a3 b5 4c 3d f6 16 52 bd
       0.064193256 0.011543912 0.04997791 -0.05129143
000270 e4 43 a5 bc 44 fe c8 bd 54 7d 57 bd 8c ae ab bd
       -0.020173974 -0.09814122 -0.052609757 -0.083829015
000280 88 92 61 3d 94 51 2b 3d 98 5e 5d 3d 8d 50 aa bd
       0.055071384 0.041825846 0.05404529 -0.08316145
000290 ac 86 a8 39 e4 87 35 bc 80 6f 8d bb 6c 4f c1 bd
       0.00032143795 -0.011079762 -0.0043162704 -0.09438977
0002a0 47 86 7a bd a5 6e 4c 3d a3 46 a7 bd 78 9a ba bd
       -0.061163213 0.049910206 -0.0816777 -0.09111494
0002b0 0f d5 9e bd 65 06 a5 3d ac 64 2b 3d 72 82 5a 3d
       -0.077554815 0.0805786 0.041844055 0.05334706
0002c0 f8 62 80 bd 0c 8d 70 3d 4d 4e 72 ba cb 12 b0 bc
       -0.06268877 0.058728263 -0.0009243235 -0.021493336
0002d0 16 ec 12 bd d0 9c bb bd 15 47 a6 3d f6 ea 16 bd
       -0.03586968 -0.09160769 0.081190266 -0.03684517
0002e0 5c ca 3a 3d bf 46 9e bd d6 65 56 3d 09 ae f4 bc
       0.04560314 -0.077283375 0.052343212 -0.029868143
0002f0 da cd 71 3d b0 8e 24 3d e7 88 9b 3d 9f 50 f0 bc
       0.059034206 0.04017514 0.075944714 -0.029335318
000300 df 21 11 bd d1 aa 75 bd da d9 30 bd 38 5d 9a 3d
       -0.035432693 -0.059977356 -0.04317651 0.07537311
000310 aa 19 39 bd c5 6a 4b bd 1a 94 a4 3d ce 57 ca 3b
       -0.04519049 -0.04966237 0.08036061 0.006175018
000320 9b 2c eb 3c 2f 80 33 3d b7 56 4b bc c5 f4 db 3c
       0.028707793 0.043823417 -0.012410811 0.026850114
000330 e0 86 82 3c 83 f5 8e bd 07 d5 7b bd a2 17 d5 bb
       0.015933454 -0.069804214 -0.061482456 -0.0065030614
000340 5c f0 2c bd 80 17 25 bc b5 36 6f 3c 20 b1 0a bd
       -0.042221412 -0.010076404 0.0146004455 -0.033860326
000350 da 83 b2 bc 8f 1d 93 bd 2d 65 d1 3d a6 9c 47 bb
       -0.021791387 -0.07183372 0.10224376 -0.003045836
000360 98 80 df 3b ec c1 90 3d dd e0 c3 bd 20 6d 59 3d
       0.0068207495 0.07068238 -0.09564374 0.053082585
000370 f9 4b 60 3d ab cd 39 bd c9 05 09 3d 07 8c 0f 3d
       0.054759953 -0.045362156 0.033452783 0.03504565
000380 bc d1 be 3d e7 29 b2 3c 78 a0 bd 3c 38 c0 60 bd
       0.093173474 0.021748496 0.023147807 -0.054870814
000390 a6 2b be 3c 6b 41 d9 bd 3f e1 c8 bd d1 1d 61 bd
       0.023214173 -0.106081806 -0.09808587 -0.054960076
0003a0 97 ca 13 3d b2 c3 8a bb de f5 29 bd 21 b3 1b 3d
       0.036081877 -0.0042347545 -0.041494243 0.038012628
0003b0 94 60 c6 bc 60 0e 6a 3d 85 42 8d 3d 20 c6 a9 3c
       -0.024215974 0.057142615 0.06897453 0.020724356
0003c0 63 07 07 3d 72 76 f7 3c 75 00 83 bd 3b bb fe 3c
       0.03296603 0.030207846 -0.063965715 0.031095138
0003d0 77 7a b7 3c 49 d5 c2 bc 4c cc 2e bb 07 2e bf 3b
       0.022397263 -0.023783343 -0.0026672063 0.0058343443
0003e0 e5 1c c9 bd 16 b2 b8 bc 05 b4 90 3d a0 8e b0 bd
       -0.09819964 -0.022545855 0.07065586 -0.086209536
0003f0 ba 2a 74 3d 4e 5b 90 3d dd 58 34 bd dd db 40 bd
       0.05961106 0.07048665 -0.04403006 -0.047084678

rnn.weight_hh_l0 f4 [384, 128]
000000 c4 65 00 bb 4a 9c fd 3a 04 06 73 bd cd 25 54 3d
       -0.0019591907 0.0019348946 -0.05933191 0.051793862
000010 60 76 22 3d 48 f8 17 3c bc 26 1a bd 72 9a cc 3d
       0.039663672 0.009275503 -0.037634596 0.099903956
000020 b2 19 a8 bd 1b 83 39 bd 6b 4a d6 3c f2 e8 5b 3d
       -0.08208026 -0.045291048 0.026158532 0.05368895
000030 5d 29 67 bd 49 25 a5 bd 60 08 88 bd b0 ae 9f bd
       -0.05643593 -0.08063752 -0.066422224 -0.07796991
000040 14 aa 11 bd 0a 3e 8b bd 5f 86 64 bd dd 91 86 bd
       -0.03556259 -0.067989424 -0.05579221 -0.0657079
000050 0c 29 89 bc 9d 17 b8 bd ff 98 55 bc ea 0f b3 bd
       -0.016743205 -0.08988879 -0.013036965 -0.0874327
000060 c9 fa 70 3d 0a 9f ca 3c 7d 4f 6a bd 11 f7 79 3c
       0.058832917 0.024734039 -0.057204712 0.015256659
000070 57 db a7 3d b2 33 86 bd 47 d4 27 bd 19 f6 08 3d
       0.08196133 -0.06552829 -0.040973928 0.033437822
000080 db 0b 35 3b 4c cc 95 bd 8f 67 1d bd 0a 1a 2a bd
       0.0027625475 -0.07314357 -0.03842884 -0.04152874
000090 9d dc a7 bc bd 4d 9f bd bc d1 5c 3d 5a 43 cc 3c
       -0.020490939 -0.07778499 0.053910956 0.02493446
0000a0 e0 da 5d bc 78 32 af bd 64 36 03 3c 42 9f f8 3c
       -0.013540953 -0.08554548 0.008008573 0.030349378
0000b0 26 36 c0 bc ce ae 9b 3c 93 59 63 3c 6f 64 d7 3c
       -0.02346332 0.019004252 0.013876337 0.026293008
0000c0 b0 57 9c 3d 77 d4 dd 3d ad f4 71 bd 6d fe c2 bc
       0.076339126 0.1083154 -0.05907123 -0.02380296
0000d0 56 16 43 3d 84 35 c6 bd 87 5c af 3d 64 67 2a 3d
       0.047628723 -0.09678176 0.0856257 0.041602507
0000e0 c0 71 89 3d b0 c2 a2 bc 2f ce 36 3d 12 39 a1 3d
       0.06711149 -0.019868225 0.044630226 0.078722134
0000f0 c7 87 bf 3d 06 8a dd bb b9 13 d2 bc 1d a2 2e bd
       0.09352069 -0.0067608384 -0.02564417 -0.042635072
000100 a8 d4 29 3d 0a 92 21 3d 85 42 f8 3c 51 bc 46 bd
       0.04146257 0.039445914 0.030305156 -0.048519436
000110 64 98 24 bd f9 66 22 bc 9c e8 3d bb a8 f1 b4 3c
       -0.040184394 -0.009912246 -0.0028977757 0.022087887
000120 3a 08 0c 3c ce 09 9f bc 7a d4 94 3c bb 6d 7d 3c
       0.008546883 -0.019413855 0.018167723 0.015468056
000130 cf 69 39 3d 6a 16 05 bd 40 f7 5f bb f8 de e1 bd
       0.045266923 -0.03249208 -0.0034174472 -0.11028856
000140 18 90 f9 bb f9 35 b1 3d a3 6f a7 bc 58 34 ed 3c
       -0.0076160543 0.086528726 -0.020438975 0.028955624
000150 28 e2 a9 bc f4 0d cf bb 21 9d 66 3d 73 df 87 3d
       -0.020737723 -0.006318802 0.056302194 0.066344164
000160 a4 db 78 bd 00 48 ba 3c ef e9 06 bd 0b cb 86 3d
       -0.06075634 0.02273941 -0.03293794 0.06581696
000170 01 4f 68 3b 81 1c 30 3d 5b af 87 bc f9 15 ab bd
       0.003544748 0.042995933 -0.016563108 -0.083538
000180 9c 60 0e 3d a7 c4 d9 3b c0 8b 24 bd 12 52 4c ba
       0.034760103 0.0066457572 -0.04017234 -0.0007794212
000190 84 0f 6e bb 58 1d 53 bd 10 30 94 bd 39 e1 8a bd
       -0.0036325166 -0.051541656 -0.0723573 -0.06781239
0001a0 75 31 69 bb b6 29 ae bc cf 34 a3 3d 28 1c 78 3d
       -0.0035582457 -0.021260124 0.07969057 0.060573727
0001b0 29 6d 04 3d 72 34 1f bd 81 9a 61 bd 06 b7 99 3d
       0.032330666 -0.038868375 -0.055078987 0.07505612
0001c0 ec de 98 bd d6 78 94 3d cc 39 ac 3d 65 13 19 3d
       -0.07464394 0.0724961 0.084094614 0.03737201
0001d0 1a d8 6a 3d f1 cf 06 bd a7 1e ff bc 5b 10 32 3d
       0.057334997 -0.032913152 -0.031142546 0.04347263
0001e0 bc 52 3e bc 93 c4 93 3d e9 df b4 bb a1 9d a1 bb
       -0.011616405 0.07215228 -0.0055198562 -0.004932121
0001f0 7f fe 9c 3b 0a 75 9a 3d fd be a2 bd d1 85 3b 3d
       0.0047910805 0.07541855 -0.079465844 0.045781914
000200 63 36 2b 3d 55 0f 09 3e a6 c1 97 3d 43 ec bc bd
       0.041799914 0.13384755 0.074099824 -0.09224751
000210 3f d0 c0 3c b0 51 01 3d ec d2 67 3d ae 0f 8c 3d
       0.0235368 0.031572044 0.056597635 0.06838928
000220 25 d0 8b bd f4 a3 9e bd 2e d1 a9 3d d8 60 4c bd
       -0.0682681 -0.07746115 0.08291851 -0.049897045
000230 31 fc 09 3b e8 94 b7 3d 74 cd 8a 3c 2d 6a 1c 3d
       0.0021054859 0.089639485 0.01694367 0.038187195
000240 f4 cf a8 3d bc 32 cc bb 21 56 60 bd 98 57 91 bd
       0.08242789 -0.006231634 -0.05476964 -0.07096785
000250 e0 7c 48 3d 86 f7 9c bc 7a b4 54 3d 34 45 32 bc
       0.048947215 -0.019160997 0.05192993 -0.010880757
000260 d8 4c 3c ba de 07 07 3d 13 27 70 bd 3a b6 5a bd
       -0.00071830815 0.032966487 -0.058631014 -0.05339644
000270 73 b6 95 bd e5 fa ea bc 6b 78 97 bd 3e 65 99 3d
       -0.0731019 -0.028684089 -0.07396015 0.074900135
000280 10 8e 89 bd 6c d7 f7 bc 70 a8 b5 3d bf 0a a4 bd
       -0.067165494 -0.030254088 0.088700175 -0.08009862
000290 20 0f a4 bd bf b1 58 bd 75 f7 73 bd c0 87 9d bd
       -0.08010697 -0.052903887 -0.059562165 -0.07691908
0002a0 0b 4b 9f 3d 34 ac 2a bd 75 b1 e4 3c 2b 98 3c bd
       0.07777985 -0.041668132 0.02791665 -0.046043556
0002b0 92 02 90 3d a6 55 92 3d ea 64 75 3c 54 39 6c 3d
       0.0703174 0.071452424 0.014977673 0.05767186
0002c0 15 9f 14 bc b0 67 f3 3b d4 d1 b7 bc 3f c8 88 bd
       -0.009071131 0.007428132 -0.022438921 -0.06678819
0002d0 71 16 c6 bd 05 d3 92 bd 35 8a 08 bd 49 82 97 bd
       -0.09672249 -0.07169155 -0.03333493 -0.07397897
0002e0 ff 41 53 3d 08 25 19 bd 59 1b ba 3c 4e 65 ac 3d
       0.05157661 -0.03738883 0.022718119 0.0841776
0002f0 88 a2 94 3d 17 38 0b bd 9a 61 d8 3d 38 7b 12 3d
       0.07257563 -0.03398904 0.10565491 0.03576204
000300 f2 70 56 bc d2 52 8a 3d 93 ab 08 bd ab 6e 8b 3d
       -0.013088452 0.06754078 -0.03336675 0.068082176
000310 fb d7 4e 3d c5 75 a9 bd 8e a6 b4 3d de 4d 88 3d
       0.050498944 -0.08274416 0.0882083 0.06655477
000320 1e 42 c4 3c 7c e4 a5 3d e6 c9 c2 bc f1 2f 0a bd
       0.023957308 0.081002206 -0.023777913 -0.033737127
000330 69 5c 2f bd 1e 42 0f 3d 76 bf 35 3d 04 a6 71 bb
       -0.04281274 0.034975164 0.044372045 -0.0036872635
000340 d8 50 62 bd d8 35 c0 bc 09 41 b3 3d 62 03 cb bd
       -0.05525288 -0.023463175 0.08752639 -0.099127546
000350 ae 7b 8a 3c 4f 0e b5 3d dc 55 f0 bc c1 3b 39 3d
       0.016904678 0.0884062 -0.029337816 0.045223
000360 88 62 c6 bd 3e 59 a0 3c 63 be 88 3c dd 8b b8 bc
       -0.09686762 0.019573804 0.016692346 -0.02252763
000370 77 b5 4e ba 31 8d b8 3d a5 23 c2 ba b5 37 9a bd
       -0.0007885317 0.09011305 -0.0014811648 -0.075301565
000380 e4 a8 27 bd 08 66 5e bd 62 26 67 bd 29 f1 25 3d
       -0.04093255 -0.054296523 -0.05643309 0.04051319
000390 2c 23 47 bd 0d c4 8e 3d 68 ac da 3c 97 bb 80 bd
       -0.048617527 0.069709875 0.026693538 -0.0628578
0003a0 c0 5b 96 3d 53 63 86 3d 7d 09 9c bd 5c bc 09 3c
       0.07341719 0.06561913 -0.07618997 0.008406725
0003b0 dc 22 22 3d d6 15 6b bd 6d d5 c0 bb 10 1d 44 bc
       0.039584026 -0.05739387 -0.0058848173 -0.01196982
0003c0 17 e2 48 bd 82 0f 8c bd 74 44 9b 3d 41 04 a6 3b
       -0.04904374 -0.068388954 0.07581416 0.005066425
0003d0 a7 45 88 3b 49 1c 60 bd 56 8f 14 3d 75 77 e5 3c
       0.004158694 -0.054714475 0.03626951 0.028011063
0003e0 1f 41 f9 bc f3 f0 a9 bb 0e af 0e bd 27 0c 1f bd
       -0.03042656 -0.005186194 -0.034834914 -0.03882995
0003f0 35 cf 83 3d 9b 99 94 bd 93 7a bd bb 55 62 89 bd
       0.06436006 -0.072558604 -0.0057824343 -0.067082085

rnn.bias_ih_l0 f4 [384]
000000 7c d5 89 bd f8 45 d8 3d 50 62 19 3d 61 04 f6 3d
       -0.06730172 0.105602205 0.037447274 0.12012554
000010 fe e1 da 3d e2 17 a9 bd 88 a0 8a 3c 66 6e 0e 3e
       0.10687636 -0.082565084 0.01692225 0.13909301
000020 66 a7 8f 3c 50 c0 ac 3c 6a 07 40 3e 82 54 21 3d
       0.017535876 0.021087795 0.18752828 0.039387234
000030 58 20 f8 3d ef ca a3 3d 15 d1 8b 3d d1 db cc bb
       0.12115544 0.07997691 0.068269886 -0.00625179
000040 4d 60 ef 3c c8 a3 f7 3c 13 ef 08 3e 80 30 93 3d
       0.029220724 0.030229464 0.1337245 0.07186985
000050 3d cd 39 3d 58 fa 30 bc f0 2f 93 3d b8 75 04 3e
       0.045361746 -0.010801874 0.07186878 0.12935531
000060 7a ef 13 bc df 5e 95 3d ab 8b 1f 3e 9f 0d f8 3d
       -0.009029264 0.07293486 0.15580623 0.12111973
000070 05 bc 80 3d e5 f4 65 3d 77 53 0f 39 a3 38 f0 3d
       0.06285862 0.056141753 0.00013668636 0.117295526
000080 cb 42 1f bc da 34 44 3c 99 2c da bb 24 c2 1c 3d
       -0.0097205145 0.011975491 -0.0066581485 0.038271084
000090 29 25 86 3c cf fa 82 3d 92 77 e4 3d 00 f5 df bc
       0.016375141 0.06395494 0.11155619 -0.027338505
0000a0 28 47 32 bc 8d 85 2c bd d1 c3 d2 3c a0 56 6d bc
       -0.010881223 -0.04211955 0.025728138 -0.014485985
0000b0 73 e4 fb 3d 94 73 10 bc f7 ad 2e 3d e8 b3 d8 bc
       0.122994326 -0.0088166185 0.042646375 -0.026452973
0000c0 ce 13 00 3e c4 ca 5a 3c 4b 4e 22 3e 39 f7 ed 3d
       0.12507555 0.013354007 0.15850179 0.116194196
0000d0 c7 c1 df 3c 29 1a 5c bd 5b f0 38 3d c5 15 03 3e
       0.02731408 -0.053735886 0.045151096 0.12801273
0000e0 01 6f c6 3d 09 f2 76 3d 94 10 ad 3d c6 c7 71 3d
       0.09689141 0.060289416 0.08450428 0.05902841
0000f0 cf c8 e0 3d ad 82 a7 3d 4d 14 88 3d a4 f4 80 3c
       0.10975801 0.08179221 0.06644497 0.015741654
000100 84 f7 70 bc 79 8f d5 3a 41 1d 3e 3b dc 90 55 3d
       -0.01470745 0.0016293369 0.0029009136 0.0521401
000110 8c 86 1e bc 56 84 ce 3d 79 a4 33 bd e3 15 ea 3c
       -0.009675633 0.10083835 -0.043858025 0.02857489
000120 12 7e e9 3c 86 a0 15 bc a4 3c e3 3d 9a 68 36 3c
       0.028502498 -0.00913251 0.11095551 0.011133337
000130 05 3c 9e 3d d8 08 10 3e c6 4b dd 3c 60 6b 8f 3d
       0.077262916 0.14065874 0.02701367 0.07002902
000140 48 b9 61 3d bb e2 1f 3b 35 16 4f 3d b6 97 33 ba
       0.05510834 0.0024396616 0.050558288 -0.0006850915
000150 af 3a 79 3d 6a 37 9e 3d 83 ec 58 3d 78 8b f3 3d
       0.06084698 0.07725413 0.05295993 0.11891836
000160 ef 52 8e 3d eb 7b a0 bb e9 41 53 3d 26 0e 43 3e
       0.06949412 -0.0048975847 0.05157653 0.19048366
000170 17 fe 4b bc 85 99 4a bd 86 33 fb 3d 55 6e cc 3d
       -0.012450716 -0.049462814 0.12265687 0.09981982
000180 bf 78 11 bd 7f 25 5e bd 0b 8e 12 bd 39 23 ce 3a
       -0.035515543 -0.054234978 -0.035779994 0.001572705
000190 81 43 0e 3d 01 9c ea 3d 79 97 b0 3d 4f b7 93 3c
       0.034732345 0.11455537 0.08622641 0.018031744
0001a0 e6 b7 b1 3c 1c 15 fe 3b 17 df ca 3c b9 db 20 bd
       0.021694135 0.0077539813 0.02476458 -0.039272044
0001b0 86 a3 f9 3d a7 31 5f bc 1d 9d 82 3d 4c f3 b6 3d
       0.12189393 -0.013622678 0.06377623 0.08933124
0001c0 af 59 69 bc 60 74 35 bd 65 37 8b 3a fd ce dd bc
       -0.014242574 -0.044300437 0.0010621367 -0.027076239
0001d0 c2 f0 21 3c d7 ce e6 ba 59 63 66 3c cd 6b 04 bd
       0.009884061 -0.001760925 0.014061772 -0.03232937
0001e0 05 2a af 3d e7 50 bd bc e2 b4 be 3c 6c 29 78 3d
       0.085529365 -0.023109866 0.023279611 0.060586378
0001f0 7d f5 e1 bc 69 db 4c bc ff 53 50 3d 8f 66 fe 3c
       -0.027582878 -0.012503483 0.050861355 0.031054763
000200 07 35 01 3e 04 94 a3 3e ca e6 54 3e 8c a0 5c 3e
       0.12617885 0.31948864 0.20791164 0.21545619
000210 20 46 f7 3e c5 bc f1 3e b5 c8 9f 3e 3d 6b c4 3e
       0.4829569 0.47214332 0.31207815 0.38363066
000220 ef c0 95 3e f4 34 b4 3e d4 3f 41 3e c6 3b 6b 3e
       0.2924876 0.3519665 0.18872005 0.2297202
000230 86 db c0 3e 97 00 60 3e e3 04 c8 3e 4c fd 98 3e
       0.37667483 0.21875225 0.39066228 0.2988075
000240 b3 16 3b 3e 37 ef b2 3e a2 37 f3 3e 99 5c 9b 3e
       0.18270378 0.3494813 0.47503382 0.30344084
000250 8d 95 0a 3f 46 73 7a 3e 23 3a 40 3e 1d b5 c0 3d
       0.54134446 0.24458036 0.18772177 0.094095446
000260 a2 50 e9 3d db 9b 2f 3e 6d 89 06 3f 10 92 57 3d
       0.113923326 0.17149298 0.52553445 0.05262953
000270 b8 d6 e1 3e 88 20 48 3e ed b2 b8 3e 57 14 77 3e
       0.4410913 0.1954366 0.3607401 0.24128853
000280 32 78 f1 3e 86 44 bd 3e ad 04 dc 3e d9 d5 30 3d
       0.47162014 0.36966342 0.42972317 0.04317269
000290 bd 2b 96 3e 37 5d b7 3e f9 b8 a5 3e 22 98 a1 3e
       0.29330245 0.35813305 0.32367685 0.3156138
0002a0 d8 78 7a 3e b0 80 e4 3d f1 fb f3 3e 87 d6 42 3e
       0.2446016 0.11157358 0.47653154 0.19027148
0002b0 d5 ca 87 3e f6 c0 ce 3e 3d 52 a8 3e 36 6c f7 3e
       0.26521936 0.40381593 0.32875243 0.48324746
0002c0 b9 69 76 3e ec 5c b4 3e 06 77 ff 3e 65 ee 91 3e
       0.24063767 0.35227144 0.49895495 0.28502193
0002d0 d9 9d 96 3e 0c 9a d8 3e 82 28 02 3e af ca d2 3e
       0.29417303 0.42305028 0.12710765 0.4117026
0002e0 2c 9e 7f 3e 84 39 6c 3e 72 e4 b7 3e c8 aa 82 3e
       0.24962682 0.23068815 0.35916477 0.2552092
0002f0 b9 48 86 3e 83 b9 a8 3e e6 1f e3 3e d8 30 85 3e
       0.26227358 0.32954034 0.44360274 0.26013827
000300 d8 92 eb 3e f7 fc 3b 3e 93 f2 16 3d 1b d7 0c 3f
       0.4601047 0.18358217 0.03685243 0.55015725
000310 e3 a8 a7 3e f4 ed 10 3e 09 d4 d5 3e d3 af 44 3e
       0.32746038 0.14153272 0.41763332 0.19207697
000320 b0 91 51 3e 78 43 5c 3d 0b 4e 11 3e 6b 73 b8 3e
       0.20465732 0.05377528 0.14189927 0.36025557
000330 80 5d c7 3e b3 67 67 3e ed 0e 8d 3e 10 84 8c 3e
       0.38938522 0.22598152 0.2755045 0.27444506
000340 01 f3 8b 3e f6 d1 ca 3e 80 11 b0 3e 28 09 52 3e
       0.27333835 0.39613312 0.3438835 0.20511305
000350 52 cb a1 3e a5 7a 6b 3e ba 97 65 3e b7 bf c6 3e
       0.31600434 0.22996004 0.2242116 0.38818142
000360 fa 6a cc 3e d9 83 ea 3d d5 10 a4 3e 3b 90 8d 3d
       0.39925367 0.11450929 0.32044092 0.069122754
000370 90 b6 9e 3e 2e 8e 82 3e 90 59 d7 3e 6a 2f 2a 3e
       0.3099866 0.254991 0.42060518 0.1661965
000380 4e 4c 4f 3e 07 40 85 3e 3e 44 97 3e bb a7 bb 3e
       0.20243952 0.2602541 0.29544252 0.36651406
000390 9c b2 a2 3e 9a 89 8c 3e 0b d5 de 3e 68 ea 6f 3e
       0.31776893 0.27448732 0.43521914 0.23429263
0003a0 f8 de 56 3e c9 fe 7e 3e fe 47 35 3e 5d b6 3a 3e
       0.20983493 0.2490188 0.17703244 0.18233629
0003b0 b6 f4 6e 3e 64 91 aa 3e 36 88 09 3f 17 05 45 3e
       0.23335537 0.3331405 0.53723466 0.19240223
0003c0 32 f8 b8 3e d4 34 9b 3e 58 b5 ca 3e 5c bf 3e 3e
       0.36126858 0.30313742 0.3959148 0.18627685
0003d0 52 27 83 3e ab 82 05 3e 9a de 67 3e 8f 0a cf 3d
       0.25615937 0.13038127 0.2264351 0.10109436
0003e0 10 f6 be 3e 8c 28 a0 3e 77 54 fe 3d 77 02 07 3f
       0.37297106 0.31280935 0.12418454 0.52738136
0003f0 bb 88 86 3e 5c a2 88 3e ff ab 8d 3e 27 6c a7 3e
       0.26276192 0.2668637 0.27670285 0.326997

rnn.bias_hh_l0 f4 [384]
000000 fd 6c 6e bd 8d 00 02 3e 22 f8 86 3d e6 eb c7 bc
       -0.058209408 0.12695523 0.06590296 -0.024404477
000010 ac c6 b4 3d a0 36 7d 3d 1d 4a 22 3d 86 f5 12 3d
       0.08826956 0.061819673 0.03962146 0.03587868
000020 7b eb 84 3d 37 a8 68 bc 5c f9 2e 3e d0 0d 0e 3d
       0.06490227 -0.014200262 0.1708731 0.03468114
000030 34 4f 0b 3b d1 29 c9 3d 9b e7 1b 3e d6 14 4c 3b
       0.0021256926 0.09822429 0.15225069 0.003114035
000040 f2 6e 98 3d f8 fe 73 3d 25 ee c2 3d 64 ea c4 3d
       0.07443036 0.05956933 0.09518079 0.09615019
000050 55 2f ce bc 58 6a 49 3b 3e 1f 82 bd e5 41 c2 bb
       -0.025169054 0.0030733552 -0.06353615 -0.0059282654
000060 e5 55 9a bd 8f ac e4 3c c8 6c c1 3d 1f fd b3 3d
       -0.07535914 0.027914314 0.094445765 0.087885134
000070 6e db 57 3e e3 0c 87 bd c4 3f a8 3d ca 56 02 3e
       0.210798 -0.06594255 0.08215287 0.1272842
000080 b8 31 69 3d a8 a9 a5 bb 51 15 90 3c 8f e2 cb 3d
       0.05693218 -0.005055625 0.01758829 0.09955322
000090 42 44 2b 3d 51 dd 8e 3d be 2f a1 3d 2e 7a 42 3d
       0.041813143 0.069758065 0.07870434 0.0474798
0000a0 74 90 a6 bd 81 0c dc 3d 09 c6 fc 3d 26 91 c4 3d
       -0.08133021 0.107445724 0.1234246 0.09597997
0000b0 17 68 89 3c d4 00 b4 3d 1b 12 cd 3d 82 4a a8 3d
       0.016773267 0.087892205 0.10013219 0.08217336
0000c0 a9 67 19 3d 43 3d 04 3d 83 bc 4e 3e 63 23 c2 3d
       0.037452374 0.032284986 0.20189099 0.09479406
0000d0 95 17 e7 bc 87 6f 59 3d 2c ac 9b 3d e3 e4 a1 bc
       -0.028209487 0.053084876 0.076011986 -0.019762462
0000e0 d5 97 60 bd f0 32 b4 3c 75 1d 14 3e f5 a5 7d 3d
       -0.0548323 0.021996945 0.14464362 0.061925847
0000f0 9b e6 48 bc 3b 0b b3 3d 61 ba 77 3d d9 84 c7 3d
       -0.012262012 0.087423764 0.06048048 0.097421356
000100 59 98 d7 bc b5 8c a6 3d bd 99 65 3d 4b 40 f8 3d
       -0.026317762 0.081323065 0.05605482 0.12121638
000110 40 1a 9a 3d 24 fa 1c 3e 81 e1 52 3d 98 ca 58 3d
       0.07524538 0.15329796 0.05148459 0.052927583
000120 c1 cc f4 ba f4 c5 5b bd bc f8 ff 3b 91 26 22 3d
       -0.0018676744 -0.05365558 0.007811634 0.03958756
000130 4f bf c9 3d 7a cd a1 bc 7d 03 47 3d 7f dc 7e 3d
       0.09850942 -0.0197513 0.04858731 0.062222
000140 77 07 90 3c aa e7 91 bc c6 2e e7 bc 71 f0 cd 3a
       0.017581685 -0.017810661 -0.028220546 0.0015711916
000150 e0 e1 44 3c 71 d9 30 bd 27 df f4 3d 9e d1 cf 3d
       0.012016743 -0.04317612 0.119566254 0.10147403
000160 fd 44 4c 3e 96 21 89 bb 42 3e 4d 3e 64 a9 62 3d
       0.19948192 -0.004184912 0.2004328 0.055337325
000170 55 69 b9 3a 83 ab 52 3d ae 1a 9e bb cf 19 27 3d
       0.0014145771 0.051433098 -0.004824958 0.040796097
000180 ca b9 aa 3d 4d f9 a7 bb 67 f9 b8 3b a8 6c bc 3d
       0.08336218 -0.0051261545 0.0056449655 0.09200412
000190 dd f3 56 3d 90 70 84 3d bb 6e fa 3d 04 f3 d4 3b
       0.05247866 0.06466782 0.122281514 0.0064986963
0001a0 91 41 54 bc 2a e5 71 3d 79 c4 d4 3d a2 72 aa 3c
       -0.012955085 0.05905644 0.10389037 0.020806614
0001b0 2d ef 89 3c 8a 37 88 3b 95 eb 35 bb b2 c3 ae 3d
       0.01683768 0.0041570114 -0.0027758826 0.0853342
0001c0 cf 77 c9 bc 63 a6 ce bb 5b f5 1c 3d f4 6e 34 bc
       -0.024593262 -0.006306456 0.038319927 -0.011012781
0001d0 8a 66 b5 bb 4a 1d 02 3e 89 37 96 3d 7f 77 28 3d
       -0.0055359052 0.12706485 0.07334811 0.041129585
0001e0 6d d8 b3 bc 83 40 30 3d 7c 68 b2 3c 40 2d 19 3b
       -0.021953786 0.043030273 0.021778338 0.0023372918
0001f0 de 22 8a bd 6b df 12 bd 41 cc 52 3d 88 a6 01 3d
       -0.06744932 -0.0358576 0.051464323 0.031652957
000200 5f 6c 91 3d 0a d1 b5 3e 90 16 33 3e 6a 64 a7 3e
       0.07100748 0.35511047 0.17489076 0.32693797
000210 4e b2 bd 3e d5 cf e8 3e 7f 8e 80 3e 3d 3e 92 3e
       0.37050098 0.45471063 0.25108716 0.2856311
000220 31 9a ba 3e d2 bb c9 3e 8c 1d 5e 3e c6 3d 60 3e
       0.36445764 0.39401108 0.21690959 0.21898565
000230 b0 8b ec 3e 62 ce 8b 3e 30 15 bd 3e 55 a4 5b 3e
       0.46200323 0.27305895 0.36930227 0.21449406
000240 67 36 3a 3e f1 fe 36 3e 84 df 16 3f 35 ae bc 3e
       0.18184815 0.1787069 0.5893481 0.3685166
000250 97 8b 00 3f b5 f6 be 3d 2b 8a bc 3d 72 61 65 3e
       0.50213 0.093243994 0.09206041 0.22400454
000260 4e 8a 26 3e 30 27 f5 3d fb 37 1b 3f b3 4e 82 3d
       0.16263697 0.11970365 0.60632294 0.06362667
000270 98 ac e8 3e 21 26 85 3e b6 7d 41 3e a0 fb f2 3d
       0.4544418 0.26005653 0.18895611 0.118644
000280 98 7d 01 3f d9 59 05 3f 58 2f fc 3e 5b dd 9e 3d
       0.50582266 0.5209022 0.4925487 0.07757064
000290 ed 01 c1 3e e7 2b 8c 3e ca 69 f5 3e 3e 1b a5 3e
       0.37696782 0.27377245 0.47932273 0.32247347
0002a0 c6 c8 f7 3d 44 01 43 3e de d1 ff 3e 97 76 a5 3e
       0.12098841 0.19043452 0.49964803 0.3231704
0002b0 e2 bf c9 3e 2a 88 e1 3e fe ce b0 3e be 1d 10 3f
       0.39404207 0.44049197 0.34532923 0.5629538
0002c0 c9 2e 6b 3e d3 62 5d 3e d4 fc fe 3e e7 cd cc 3e
       0.22967066 0.2161973 0.49802268 0.4000084
0002d0 f2 62 b5 3e 85 b2 03 3f 3d 23 0e 3e 5b 4b b3 3e
       0.35427052 0.51444274 0.1388063 0.3501843
0002e0 07 58 d0 3e 5c 04 9b 3e 71 4b c9 3e 51 2a aa 3e
       0.4069216 0.30276763 0.3931537 0.3323541
0002f0 02 17 82 3e 18 94 c8 3e 40 e6 ab 3e 6d e5 43 3e
       0.2540818 0.39175487 0.33574104 0.19130488
000300 74 f2 e1 3e d7 4d f6 3d dd 5c 45 3e b5 b3 10 3f
       0.4413029 0.120265655 0.19273706 0.5652421
000310 06 b5 ac 3e ab 0d 95 3e 79 95 8d 3e f9 97 ee 3d
       0.3373186 0.2911199 0.276531 0.1165008
000320 da fe 44 3e 5d 53 fb 3d a6 74 27 3e b0 c2 84 3e
       0.19237843 0.1227176 0.16353092 0.25929785
000330 e1 5a ba 3e a4 5d 11 3e c3 00 0b 3e fb 34 c8 3e
       0.3639746 0.14195877 0.1357451 0.3910292
000340 0f f2 4f 3e e3 c8 c4 3e f0 e5 d4 3e 0c 4c 3d 3e
       0.20307182 0.38434514 0.41581678 0.18486041
000350 36 ed b9 3e 67 ed e5 3d 80 73 b7 3e 84 89 b6 3e
       0.3631379 0.112269215 0.35830307 0.3565179
000360 17 15 b2 3e 27 cd 90 3d 90 40 bc 3e e9 25 de 3d
       0.34781715 0.0707038 0.36768007 0.108470745
000370 29 bb d9 3e 4a 9c 39 3e ff e6 99 3e 64 2a 17 3e
       0.42525604 0.18126026 0.3005905 0.14762264
000380 16 27 33 3e 3f e1 22 3e f5 51 8c 3e d9 06 a6 3e
       0.17495379 0.15906237 0.27406278 0.324271
000390 bd cd bc 3e 14 75 ba 3e 41 bf ee 3e e6 b1 e3 3d
       0.36875716 0.3641745 0.4663029 0.11117916
0003a0 b0 5d 6d 3e 02 a1 33 3e d2 66 13 3e 67 0f 88 3e
       0.2318027 0.17541888 0.14394692 0.2657425
0003b0 fb 4a 65 3e fc b9 95 3e 3f 2a e6 3e e4 b9 69 3d
       0.22391884 0.29243457 0.44954106 0.057062045
0003c0 22 1c bd 3e ca 4b cc 3e 8e 4a f2 3e 8e 4a 9b 3e
       0.36935526 0.39901572 0.47322506 0.30330318
0003d0 b5 76 51 3e 91 27 01 3e 24 56 42 3e 31 12 67 3d
       0.2045544 0.1261275 0.18978173 0.056413833
0003e0 c0 bb 89 3e 64 f5 b7 3e 7d 61 0f 3e 03 77 fa 3e
       0.26901054 0.35929406 0.14002033 0.48918924
0003f0 4e 0c 63 3e f4 89 2e 3e be f2 93 3e 46 2f e9 3e
       0.22172663 0.17044812 0.28896135 0.4554388

dense.0.weight f4 [256, 128]
000000 28 a5 62 bd 83 a7 22 3c 71 6c 8e bd 5e 02 b5 bd
       -0.055333287 0.009927633 -0.06954277 -0.08838342
000010 85 80 e7 bc 8b 95 c6 bd 75 03 0a be 82 63 5f bc
       -0.028259525 -0.09696492 -0.13477881 -0.013634564
000020 67 8f a1 3d ae f0 96 bd b7 6b f0 bc 07 e8 3d bd
       0.0788868 -0.07370125 -0.029348237 -0.046363857
000030 36 a5 89 3d 65 a7 97 3d 32 2c 3a bc d1 b4 05 be
       0.067209646 0.07404975 -0.011363076 -0.13057257
000040 8f 2f 9c 3d 75 f6 12 3e 4d aa 11 3d cb 4f 33 3c
       0.076262586 0.14351828 0.035562802 0.010944317
000050 0c be aa bd ab 34 3f 3d 85 59 11 3d 30 a6 d9 3d
       -0.0833703 0.046681087 0.035485763 0.10627401
000060 47 05 a1 3c a3 7f 89 3c c7 12 a4 3d fb 4e a4 bc
       0.019655837 0.016784495 0.08011394 -0.020057192
000070 22 8a e1 3d 87 69 21 bc d4 51 48 3d d1 94 34 bd
       0.11012675 -0.00985182 0.048906162 -0.044087235
000080 e0 37 94 bd 53 f1 dc bc 17 93 a9 3d f6 28 f2 39
       -0.0723722 -0.026970541 0.08280008 0.00046188355
000090 b5 d6 c4 3d a8 04 8f 3d 86 35 8d 3c 83 d7 87 bb
       0.096112646 0.0698331 0.017237436 -0.004145564
0000a0 b8 b0 11 bd 99 39 4d 3d 1a e1 a9 3c 31 7f 7c bb
       -0.035568923 0.050103758 0.02073722 -0.003852796
0000b0 4d ca 51 3d 8a 2a c6 bd 03 c6 86 3d bc b6 88 be
       0.05121832 -0.096760824 0.065807365 -0.26701915
0000c0 c3 b0 05 3e 2a 3e 8c bd 25 12 a2 3d be a1 60 3d
       0.1305571 -0.06847794 0.07913617 0.05484175
0000d0 9d f3 36 bd 55 00 03 be 87 3a 01 bd 4c 44 ca 3d
       -0.04466592 -0.12793095 -0.031549957 0.09876308
0000e0 c1 ca d6 bd 78 59 cf bd 7d 20 a0 3d 06 a7 f2 bd
       -0.10487891 -0.10124487 0.07818697 -0.118482634
0000f0 b3 b3 b9 bd ac fb b7 3d 0f 18 02 3e 5d e3 a3 bd
       -0.09067478 0.089835495 0.1270449 -0.080023505
000100 99 40 8a bc 50 5e 90 bd 0c 4c 00 bd c1 f5 8a 3d
       -0.016876506 -0.07049239 -0.031322524 0.06785155
000110 5a f5 03 3e 08 2d 1c 3c b1 57 5f bd 52 09 85 bd
       0.12886563 0.009532221 -0.05452699 -0.06495918
000120 4a 30 b3 bd b4 0a fc bb d8 60 98 bd 79 aa b7 bd
       -0.08749445 -0.0076917056 -0.074403465 -0.08968062
000130 4c 5c 0f 3e 29 b2 ba bc d1 a4 64 bc fb 7f 52 3d
       0.14000052 -0.022790032 -0.013955311 0.051391583
000140 68 9d db 3d 97 70 00 3e b4 d7 11 3b 25 68 e2 bb
       0.10723382 0.1254295 0.0022253813 -0.0069093877
000150 bd 94 d2 3c dd 97 7b bc 09 32 c5 3c 11 ab 0f 3c
       0.02570569 -0.015356031 0.02407171 0.008768813
000160 23 91 32 3e be 63 7e bd 5e f5 38 bd e5 80 fd bd
       0.17438178 -0.06210684 -0.045155875 -0.123781
000170 c2 75 d4 3d 17 bc 75 3d 61 78 33 bd 5a 99 a6 bd
       0.10374023 0.05999383 -0.043815974 -0.08134718
000180 c2 5c ac bd cd e2 4c bd a6 be 73 bd c0 06 f7 bc
       -0.0841613 -0.05002098 -0.05950799 -0.030154586
000190 e2 5c 19 3d 44 15 90 bd 16 98 91 3b 32 06 e5 bd
       0.037442096 -0.07035306 0.004443179 -0.11182822
0001a0 e6 86 7a bd 2c bd 18 3d d2 c2 94 3d 9f bc 19 3d
       -0.061163805 0.037289783 0.072637215 0.0375334
0001b0 0f c3 ab bd b5 e4 1a 3d 47 60 a1 bd b8 2f 5a bc
       -0.08386814 0.03781577 -0.078796916 -0.013317041
0001c0 82 c5 8a bd 44 c2 30 3d cc 01 71 3d 70 b9 e0 3d
       -0.06775953 0.043154016 0.058839604 0.109728694
0001d0 cc 1c da 3d 17 7a e4 3a 89 ea 08 3d 20 aa 5c 3d
       0.10650024 0.0017431405 0.033426795 0.05387318
0001e0 cf a6 7c ba c5 5f 96 3d fc 54 82 bb 89 5a f5 3b
       -0.00096378935 0.07342485 -0.003977416 0.0074875993
0001f0 83 62 02 bd 3b b6 33 3d e1 37 83 3d 1d 18 83 bd
       -0.03183223 0.04387496 0.064071424 -0.064010836
000200 30 bf 0e 3d 72 49 9a bc 66 ad c8 3d c8 98 68 3d
       0.0348503 -0.01883385 0.09798698 0.05678633
000210 07 93 a2 bc bc dd 84 bd 5a 1e 8c 3c 55 cd e4 bc
       -0.019845499 -0.06487605 0.017104317 -0.027929941
000220 d0 20 22 bd 13 e9 a7 bd 12 14 95 3d 43 ee ee 3c
       -0.039582074 -0.08198752 0.07279219 0.029166346
000230 24 70 ce bc 2b c4 13 3d d7 b2 8c 3d 18 63 27 3d
       -0.025199957 0.036075752 0.068700485 0.040865988
000240 fe 6d 85 3d 94 b0 c9 3d 89 d8 6d bc 2c e2 a2 3d
       0.0651512 0.09848133 -0.014516958 0.07953295
000250 ef 24 87 3d 46 5d 15 3d ec db 61 3b 21 18 7c 3d
       0.065988414 0.036465906 0.003446336 0.06154645
000260 4d ef 92 3c 91 98 92 3d 97 6a e0 3d e1 81 48 3d
       0.017936373 0.07158006 0.109578304 0.048951987
000270 66 5c d0 bc ce 8d a1 bd 17 c0 1b bd 71 7c e9 bc
       -0.025434684 -0.07888375 -0.038024988 -0.028501721
000280 ad 02 9d 3d 6b 8a 9b 3d 87 3e 8b bc 94 e6 fa 3d
       0.07666526 0.075947605 -0.016997589 0.122510105
000290 e1 3c cd 3d 34 43 d9 bd 55 7e 53 bd 7e 9f 82 3d
       0.10021377 -0.10608521 -0.05163415 0.06378077
0002a0 42 53 97 3d 90 c6 7a bd 27 0b f8 bd 4f 76 2c bd
       0.07388927 -0.06122452 -0.12111502 -0.042105015
0002b0 8e 35 f1 bd 80 d6 aa 3c 09 75 f2 bb 99 f9 c7 bd
       -0.11777793 0.020854235 -0.0073992056 -0.09764404
0002c0 d9 76 17 3d 26 b0 b8 3d f1 ec b5 3d b1 84 72 3d
       0.036978576 0.09017973 0.088830836 0.059208576
0002d0 45 a0 c9 bc 3a 55 80 bd 08 cd a4 3c 77 62 ca bc
       -0.024612555 -0.06266256 0.020117298 -0.024705155
0002e0 47 1d c0 bd 4b 8e 61 bd 0b 3f d6 3d 5d e8 48 bd
       -0.09380584 -0.05506734 0.10461243 -0.049049724
0002f0 1a d1 95 3d 91 c7 75 3b b9 5d a1 3d 5b 79 99 bd
       0.073152736 0.0037502984 0.07879204 -0.0749385
000300 7a a5 58 bd 7a 73 b0 3d 43 91 e6 bc fb 92 7b 3d
       -0.052892186 0.086157754 -0.028145438 0.06141947
000310 06 e6 a7 bd 80 c2 6a 3d 3a 40 b9 3d 0d ea 82 bb
       -0.0819817 0.057314396 0.09045453 -0.003995186
000320 71 3a e4 bd e6 38 0c ba 90 27 e0 3b 07 d6 ae bc
       -0.11143959 -0.00053490547 0.0068406537 -0.02134229
000330 6f 77 a8 3d f4 60 64 bd bb e1 13 bc 97 d7 03 3b
       0.08225905 -0.055756524 -0.009025986 0.0020117515
000340 0e 20 0a bd 0a f8 f9 bc 32 a8 30 3d 1e 07 bc 3d
       -0.033721976 -0.030513782 0.043129154 0.09181045
000350 8b 74 b1 3d e5 cc af bd 1e d2 81 bd d2 e2 e2 3d
       0.08664807 -0.085840024 -0.06338905 0.11078419
000360 e2 54 41 3c 5e 19 e3 bc 28 c3 3f bd 81 00 6c bb
       0.011800023 -0.027722057 -0.046816975 -0.0036011043
000370 ea e1 b1 3b 99 bc c6 3c 3a d6 d9 bd 89 61 e7 bc
       0.0054285424 0.024259852 -0.106365636 -0.02824475
000380 b3 d9 66 bd 23 88 33 bd 80 29 45 3d c6 61 98 bb
       -0.056359958 -0.043831002 0.04813528 -0.0046503274
000390 5a 86 1b bd 39 5c ac bd 40 5d be bd a1 b8 90 bd
       -0.037969925 -0.084160276 -0.0929513 -0.07066465
0003a0 06 4d 47 bd c0 93 c0 3c 00 53 65 3d b1 25 b3 3d
       -0.04865744 0.023507953 0.055987358 0.087474234
0003b0 2c 25 fb 3c ab 42 9b 3c e0 e3 4f 3d 32 69 a3 3d
       0.030657373 0.018952688 0.050754428 0.07979049
0003c0 bb 4a b8 bc f0 3e b7 3d ff 7e f0 3d ee 2e 3b 3b
       -0.022496572 0.08947551 0.117429726 0.0028561908
0003d0 ea 34 d6 bd 14 f2 25 bd 0d 82 04 be ed 2a bf bc
       -0.10459311 -0.040514067 -0.12940235 -0.023335898
0003e0 a2 8a ba bd 5c 11 85 3d de e3 a6 3a 4e b3 81 3d
       -0.09108473 0.06497452 0.0012732705 0.06333028
0003f0 e0 42 90 bd 13 2a ea 3c b4 b4 b5 3d 19 83 89 3d
       -0.070440054 0.028584516 0.08872357 0.06714458
