rnn_training/20260103_171658/best_model.pth (torch, 332215 bytes, 8 tensors)

initial_state_projection.weight f4 [128, 110]
000000 8f b9 8f 3e 2b 93 a0 bc 08 21 a6 bc 58 4e f8 3c
       0.28071257 -0.019601425 -0.020279422 0.030310795
000010 4d 9d 8c bc 78 dd d3 3d ca eb 2b 3e c6 cf 80 bd
       -0.01716485 0.10344976 0.16789165 -0.0628963
000020 e9 fc 33 3d d5 62 f0 bd 9c 8d 07 3c 66 b1 6c 3e
       0.043942366 -0.11737601 0.008273508 0.23114547
000030 ed 0e 98 be d9 56 7a bb 66 17 69 bc 6f 6b a4 bd
       -0.29698887 -0.0038198738 -0.01422677 -0.08028304
000040 1b 45 84 3d 4e a6 c8 3c 3a e8 c4 bd c3 d0 7e be
       0.06458493 0.024493363 -0.09614606 -0.24884324
000050 fc 66 47 3d 9c da e6 bd ac 27 00 3d 12 fe df bd
       0.048682198 -0.11272165 0.031287834 -0.10937132
000060 4c c7 91 3d b8 9c 94 3d f2 2e 65 be 86 2a 47 bd
       0.07118091 0.07256454 -0.2238119 -0.048624538
000070 9c b5 61 3c 72 ea 6a bb 35 dc be bd f6 7e 47 be
       0.013776209 -0.0035845307 -0.09319345 -0.19482026
000080 43 dd 3f 3b 13 85 80 3d 6a 77 0f be 8e bb 46 bd
       0.002927617 0.06275382 -0.14010397 -0.04851871
000090 48 40 1a 3e 16 f5 28 be 1d ea 91 3d e4 9f 3e 3d
       0.15063584 -0.16499743 0.07124732 0.046539202
0000a0 9c 70 c8 bd 3e 11 63 bd 33 20 f3 3d 86 5e 12 bd
       -0.097871035 -0.055436365 0.11871376 -0.035734676
0000b0 3f 31 17 be e1 23 77 be ca 47 81 3d e6 71 05 3d
       -0.1476488 -0.2413478 0.06312521 0.032579325
0000c0 7f ee e4 3d f5 64 3c bd 19 55 11 bd 3f cb b9 bc
       0.11178302 -0.045994718 -0.035481546 -0.022679923
0000d0 d7 6c 8c bc 84 ea a0 be e9 a2 b8 3d 54 d4 d6 bc
       -0.017141743 -0.3142892 0.09015448 -0.026224293
0000e0 7b 80 91 bb 72 8d 5f 3e 53 b9 87 bd bd 33 72 3d
       -0.004440365 0.21831301 -0.06627145 0.059131373
0000f0 c9 b1 3e bd df 35 94 3d cd 1f 71 3d 5c 2b 8d bd
       -0.046556268 0.072368376 0.05886822 -0.06893036
000100 10 a4 b9 3d 83 fb 11 3e 4b 5d 0f be ae 96 6a 3d
       0.090644956 0.142561 -0.14000432 0.057272606
000110 a4 b4 ae bd 4b 30 10 3d ec f3 16 bd 94 1f a0 bd
       -0.08530548 0.035202306 -0.036853716 -0.07818523
000120 95 8b 4e 3d ed 79 dd bc 0f 81 a8 be 0a ea f2 3d
       0.050426085 -0.027035678 -0.32910964 0.11861046
000130 71 b0 2b 3e 03 39 35 3d f3 c4 ae 3d 46 93 a4 bc
       0.16766526 0.044243824 0.08533659 -0.020089757
000140 67 2b 09 3e 5f ac db bc 7c 61 7c 3d 36 da e3 3d
       0.13395463 -0.026815591 0.061616406 0.11125605
000150 ad 8b 76 3c 36 7d 5c 3e 69 e4 95 bd a7 67 51 be
       0.01504795 0.21532139 -0.073189564 -0.20449696
000160 ac 49 dc 3b f4 e5 e5 bd 0f 34 1a 3e 73 6c 50 3d
       0.0067226496 -0.11225501 0.15058921 0.050884675
000170 00 72 92 3d 49 8e 06 3d 30 8d d9 3d 1c f4 c4 3c
       0.0715065 0.032850537 0.106226325 0.024042182
000180 92 65 05 bd 0b 79 0b 3e f7 a7 1b bd 60 cb 75 3e
       -0.032567568 0.13620393 -0.03800198 0.24003363
000190 d2 e6 2a be 99 bf 27 bd e1 a0 18 be ff e4 a8 3c
       -0.16689613 -0.040954206 -0.1490512 0.020617006
0001a0 c7 2d 2c 3e 6c d8 af bc 5e f5 99 bd 57 88 df bd
       0.16814338 -0.021465503 -0.07517503 -0.10914677
0001b0 35 94 16 3e 9f b1 4e bd b6 47 01 bd 6f 8c c6 bd
       0.14704974 -0.05046236 -0.03156253 -0.09694754
0001c0 41 af f6 bd 9d 77 e3 3c cc 6f 1d be 33 a7 8a bd
       -0.12045146 0.027766997 -0.15374678 -0.06770172
0001d0 99 48 94 bd e5 c2 93 bc 74 b9 83 3d b1 5e 3a bd
       -0.072404094 -0.018037269 0.06431857 -0.04550046
0001e0 62 bb da 3c 89 d4 b9 3b c2 8f d5 bd 9b 10 24 be
       0.02670068 0.005671088 -0.1042781 -0.1602196
0001f0 89 5a 6f 3d 56 7d d5 3c 6a 39 30 be 47 36 9e 3c
       0.05843595 0.026060741 -0.17209402 0.01931299
000200 25 77 76 bd 2f 8f 76 bd fa 79 c6 3d d6 72 82 bd
       -0.06017222 -0.060195144 0.09691234 -0.063695595
000210 7f 42 13 3c c3 ac 08 3e 6b 8d ff bd 99 0b 19 3d
       0.008988022 0.13347153 -0.12478145 0.037364576
000220 12 35 b5 bd 34 2a d6 3c 2a 32 42 3d 7b 41 c7 3d
       -0.08848013 0.02614317 0.04741112 0.09729286
000230 fe 9f 94 bc 8f f6 c1 bd 23 f7 00 be 7d b4 89 bd
       -0.018142696 -0.094708554 -0.12594275 -0.067238785
000240 98 0c 30 bd 41 15 a1 3d 47 b6 26 be 41 13 8c 3c
       -0.04298076 0.07865382 -0.16280471 0.017099025
000250 c4 7c 0a 3e d8 23 a8 bd 11 19 db bd 87 65 f2 bd
       0.13524157 -0.08209962 -0.106981404 -0.11835771
000260 f8 1d ae bd fe a3 09 bd 48 e4 03 3e 1f a5 7e be
       -0.0850181 -0.03360366 0.12880051 -0.24867676
000270 66 98 ff 3d ab fe 1f be 5f e9 06 3d 41 4a a4 3c
       0.124802396 -0.15624492 0.032937404 0.020054938
000280 24 f1 2d 3d b6 c7 3a 3e 4d b5 8c 3d 29 34 3c bd
       0.042466298 0.18240246 0.06870518 -0.04594818
000290 e9 72 0b be 8f b6 94 bd af e1 21 be 5e b6 fa 3d
       -0.13618053 -0.07261383 -0.15808748 0.12241815
0002a0 47 9e 5b bd 47 16 82 bd 36 91 97 bd e6 8d 3e be
       -0.053617742 -0.06351905 -0.07400744 -0.18608817
0002b0 8c 0c 2b 3d b0 92 20 bd 1a 1c 0b be d0 e4 11 3e
       0.041760013 -0.039202392 -0.13584939 0.14247441
0002c0 98 7d 7d 3c 2d ff a9 3c 93 52 98 bd ca 51 cb 3c
       0.015471838 0.02075156 -0.07437625 0.024819274
0002d0 ec ad 51 bc 0d 08 18 bd 3b 91 c6 3b 37 86 03 3d
       -0.012797814 -0.037117053 0.0060597933 0.03211042
0002e0 4f 89 9e bc 3e ee d7 3c 55 1c 1f be a0 bf 1e 3d
       -0.019352583 0.02635872 -0.15538152 0.038756967
0002f0 c7 d8 90 3d 78 f3 cb bd cf 81 c5 bd 7c d9 02 bb
       0.07072597 -0.09958547 -0.096439 -0.0019966057
000300 24 dd ad bd 34 27 13 bd 69 41 39 bd c3 fe 05 bd
       -0.08489445 -0.03592606 -0.045228396 -0.032713663
000310 3d c8 c6 3d 67 21 87 bd af fd 86 bd 5f 21 82 3d
       0.09706161 -0.06598168 -0.06591355 0.06354021
000320 96 a6 fe bc d8 72 08 3c 6c 79 fa bb 5b 84 f9 3d
       -0.031085294 0.008328162 -0.007643869 0.12183448
000330 b4 67 3f 3d 89 1e 5e bb 5e e8 9d 3b 76 c5 f2 bc
       0.04672976 -0.0033892712 0.00481896 -0.029635172
000340 10 f2 50 bd 27 1d a2 bd e0 ea 6b 3e de 75 e5 bc
       -0.0510121 -0.079157166 0.23038816 -0.028010305
000350 9d 23 b4 bc ac 55 22 3e 08 b2 ac 3d bd c1 9f 3d
       -0.021989638 0.15852994 0.08432394 0.078006245
000360 4c 70 08 3e 61 90 1a 3e ec 61 fe bd ec 23 df bd
       0.13324088 0.15094139 -0.12421021 -0.108955234
000370 64 a7 6a 3d c6 a6 ac 3c 2e 04 d1 3d 52 ef f8 3d
       0.057288542 0.021075618 0.10205875 0.12155022
000380 1f 64 78 bc 99 8f df bd 2b 8f cf 3d 85 fe 9b ba
       -0.0151605895 -0.10916061 0.10134729 -0.0011901414
000390 e8 05 cd bd 44 e8 40 3e f7 bf 9d 3d 79 6b 03 3e
       -0.10010892 0.18838602 0.0770263 0.12833966
0003a0 37 9c ab 3d a0 1a 89 ba 4f f8 8d bd 77 a2 a2 3d
       0.08379405 -0.0010460205 -0.06932127 0.07941144
0003b0 d8 b3 d5 bc 69 42 d7 bc d6 4a b6 bd 8a f0 4c bd
       -0.026086733 -0.026276784 -0.089009926 -0.050034083
0003c0 28 52 28 3c fc 1f 05 bd 5e 73 f8 bc 27 24 a4 3d
       0.010273494 -0.032501206 -0.030328449 0.08014708
0003d0 71 36 48 3e 0a 53 cc 3d 9b ec 99 bd 3d 8b 63 3d
       0.19552018 0.09976776 -0.07515832 0.05555271
0003e0 44 6c 12 3d 19 e2 45 3e 9d fa ce bd f3 8f ef 3d
       0.03574778 0.1932453 -0.101063944 0.11697378
0003f0 4a 47 05 be 86 b1 56 be b1 43 85 3d 8d 8a 4b 3d
       -0.13015476 -0.20966157 0.06507052 0.04969268

initial_state_projection.bias f4 [128]
000000 12 56 2b bd bc 83 79 be fd 44 85 3d 0d df 17 3c
       -0.04183013 -0.24366659 0.06507299 0.009269488
000010 50 c3 49 be 63 44 fb be 7e 3d 36 3e 3d 1f 6e be
       -0.19703412 -0.49075612 0.17796895 -0.23254104
000020 4f 8b 14 3e bc 72 65 3e e4 30 5a 3c c6 93 8f 3e
       0.14506267 0.22407049 0.0133173205 0.2804243
000030 a2 75 f7 3c 38 06 9d be 69 c3 61 be 20 71 06 3f
       0.030207459 -0.30668807 -0.220472 0.52516365
000040 e4 b5 ab 3c eb dc ab 3e 88 c2 84 bd 21 f3 7b 3c
       0.020960756 0.33566985 -0.064824164 0.015377791
000050 40 e6 77 be fe a5 85 be 14 24 c5 3d a4 55 37 3e
       -0.24208927 -0.26103204 0.09626022 0.17903763
000060 e1 57 da be e2 9f da 3c c0 d6 6f 3d d4 69 cf bd
       -0.4264517 0.026687566 0.05855441 -0.10127607
000070 43 ac 53 be 24 a0 0d 3e 5d 6b 27 be 29 c6 5e be
       -0.20671181 0.1383062 -0.1634955 -0.2175528
000080 fa 34 90 bd f4 71 28 3e 5b bb 18 bd d7 e0 e1 3d
       -0.070413545 0.1644972 -0.03728805 0.11029213
000090 c8 4c 3f be 3e 19 2b bc 6f ca 31 be 91 d4 f7 3c
       -0.18681633 -0.01044303 -0.17362379 0.030252727
0000a0 8e 0f 08 be 7d 63 ab bd 18 ae 75 3d f7 0e 5a 3e
       -0.13287184 -0.08368585 0.059980482 0.21294771
0000b0 f9 68 a7 3e 1a 92 9e be cc 85 32 bf fb fe a4 3d
       0.32697275 -0.30970842 -0.6973541 0.08056446
0000c0 f0 36 62 3d 0c 0d 98 3e 02 96 91 be 57 ee 2f be
       0.055228174 0.29697454 -0.2843476 -0.17180763
0000d0 ea 0d 86 be d9 57 79 bd 9d 65 05 3e 61 f3 44 bd
       -0.2618249 -0.060874794 0.13027044 -0.048083667
0000e0 9c e9 99 bd 6e f5 82 be 31 37 60 be 39 72 3c 3d
       -0.075152606 -0.25577873 -0.21896054 0.04600737
0000f0 56 3b 10 3e f5 31 a0 3d 55 87 6e be d1 8e d1 3d
       0.14085135 0.078220285 -0.23293813 0.10232318
000100 a9 4d be bd 93 05 37 3e 84 bb 0d 3f 3a fc 88 bc
       -0.09292156 0.1787322 0.5536425 -0.016721833
000110 c5 eb 9b be e8 00 20 be 55 bb 93 be 1f 79 23 bb
       -0.30453315 -0.15625346 -0.2885386 -0.002494402
000120 c1 45 ee be ee 75 84 3d 19 73 4c 3e 58 bd 3a 3c
       -0.46537593 0.06467806 0.19965781 0.011397682
000130 d8 1b 3e 3e 2d 09 d3 bc f6 3c 85 be a6 a9 8b be
       0.18565309 -0.025761211 -0.26023072 -0.2727787
000140 4c af 70 3e e8 7f f1 bd 23 e9 86 3c 97 ff 96 3d
       0.2350437 -0.11791974 0.01646859 0.07372969
000150 7d 83 31 3e e2 e5 03 bd 72 80 e4 bc 7d 80 18 bd
       0.17335315 -0.032201655 -0.027893279 -0.03723191
000160 a0 aa f5 3d df f2 1f be 63 03 b0 3d 58 72 02 be
       0.11995435 -0.15619992 0.08594396 -0.12738931
000170 c1 38 27 be 86 5a 32 3e b0 72 45 be 50 c9 1a 3e
       -0.16330244 0.17417344 -0.19282031 0.15115857
000180 74 88 44 3d 29 e5 b6 3d d1 e5 85 be 5b 5f 72 3d
       0.047981694 0.089304276 -0.26151899 0.05917297
000190 1c 1b 66 be 6d 99 26 3c 50 9a 6d 3e fc ba 3e bc
       -0.22471279 0.0101684155 0.23203397 -0.01164126
0001a0 72 6b 91 be 43 5e 0c be f4 29 46 3d 95 8a d0 bc
       -0.28402287 -0.13707833 0.048379853 -0.025456706
0001b0 fa 9a 48 3e 56 0c 15 be 7a 1d 01 be 38 f6 f3 3d
       0.19590369 -0.14555487 -0.126089 0.11912197
0001c0 d5 f2 5c 3b 5e d5 6b be d5 b9 be bd 38 f9 88 be
       0.0033714075 -0.23030612 -0.093127884 -0.2675264
0001d0 fc 02 fa 3d 8e 2f e3 bc d8 ca a7 bb f3 7f 43 3e
       0.122076005 -0.027732637 -0.0051206164 0.19091778
0001e0 b6 9b 51 bd a3 62 50 be e1 13 8d 3d 84 b4 4e 3d
       -0.05117389 -0.20350127 0.06888557 0.050465122
0001f0 13 c6 f0 3d 2e d7 0f be 5d f7 68 3e 3d b8 3b 3c
       0.1175653 -0.14046928 0.22750612 0.0114575

rnn.weight_ih_l0 f4 [384, 10]
000000 9c 5a 1b 3a fd ee 2c 3c a0 d7 b5 bd 21 e3 83 bd
       0.00059262826 0.010555026 -0.08879018 -0.06439806
000010 0c d9 13 3d 8a ac ee bc 11 a3 f2 3c 59 cd 42 3d
       0.036095664 -0.029135007 0.029618772 0.047559116
000020 d4 a7 3b bd 33 11 47 3d f3 b1 ed bc b2 54 9f 3d
       -0.04581435 0.048600387 -0.029015517 0.07779826
000030 94 02 48 bb 88 c5 9e 3d 42 a7 30 bd 59 c6 aa 3b
       -0.0030519115 0.0775252 -0.04312826 0.005211633
000040 2f f0 8e 3c 5b e1 74 3d 9c 5e 8a bd be 24 a9 bd
       0.017448513 0.05978523 -0.067563266 -0.08258961
000050 c2 fa ec 3c e4 82 1b bd 0a f0 e0 3c 22 03 b4 bd
       0.028928164 -0.037966624 0.02745821 -0.0878966
000060 91 c2 39 3d 21 35 04 be d3 56 8b 3d ed 84 11 bd
       0.04535157 -0.12910892 0.0680367 -0.03552716
000070 d1 d1 c7 bd 52 f3 dd 3c 5d 39 63 bd f8 ae 91 3d
       -0.09756816 0.027093563 -0.055474628 0.07113451
000080 57 95 84 bc 4e 58 f8 3c 6b 33 19 3c 3f 41 18 bd
       -0.016184492 0.030315544 0.009350638 -0.0371716
000090 f1 70 83 bd ea 30 87 bd 33 fd bd bc a2 6f ec bd
       -0.06418026 -0.066011265 -0.023192024 -0.1154473
0000a0 ff c2 8b bd 8f f6 33 3d 7c cf 60 bd 1d 92 41 bc
       -0.06824302 0.04393631 -0.054885373 -0.011814621
0000b0 7f 64 43 bd 24 74 70 3d c1 98 59 bd 03 41 80 bd
       -0.047703262 0.05870451 -0.053124193 -0.062624
0000c0 dc 85 05 bd 76 2b b2 3b c2 dc 6a bd f1 bf bd bd
       -0.03259836 0.00543731 -0.057339437 -0.092651255
0000d0 e0 e3 a2 bc b2 9f 48 3d 58 c8 66 3c 01 67 43 3d
       -0.01988405 0.048980422 0.014085852 0.047705654
0000e0 75 b0 36 bd 1e 0b 05 3d f2 71 8b bb cf d2 83 3d
       -0.044601876 0.032481305 -0.0042555267 0.06436693
0000f0 74 85 7c bd 5f ac 8a 3d 01 2f c2 3d 48 73 69 bb
       -0.06165071 0.067711584 0.094816215 -0.0035621691
000100 26 9d 7c bd 18 6a 9d bc 19 e3 58 bd 7b 6b 60 3d
       -0.061673306 -0.019215629 -0.052950952 0.05479
000110 16 99 b0 bc cf 69 36 bd 53 4c 32 bd 80 a1 9f bd
       -0.021557372 -0.0445345 -0.04352982 -0.077944756
000120 a7 37 37 bc ff 1b df bc 2f 45 79 bc ab 11 c0 3c
       -0.011182702 -0.02723503 -0.015214249 0.023445925
000130 10 69 a2 3c 10 c4 8d bd a6 71 62 bd 6b 08 47 3d
       0.019825488 -0.069221616 -0.055284165 0.048592012
000140 f9 81 85 3d a4 2f bb 3d 73 1f 8b bd e4 52 a2 bc
       0.06518931 0.09139946 -0.06793108 -0.019814916
000150 67 1f 3b 3d 80 88 b1 bb ae c9 03 3d 25 64 e9 bc
       0.045684244 -0.0054178834 0.03217476 -0.028490135
000160 93 63 50 bc cf 61 82 bd 17 55 3c bc 1d af 5d bb
       -0.012719053 -0.06366312 -0.011494896 -0.00338263
000170 d9 03 e1 bc bc e4 30 b9 bd 6e 89 3c 8b 85 14 3d
       -0.027467655 -0.00016869878 0.016776437 0.03626017
000180 eb 30 44 3d f8 dd 87 3d 9f 1d ad 3c bf 46 f2 3c
       0.047898214 0.06634134 0.021132289 0.02957475
000190 f5 f8 97 3d 70 3f 6b bd 45 4a b6 3c 75 67 3b 3c
       0.07420532 -0.057433546 0.022252211 0.01143824
0001a0 50 d7 9d bc 5d 6d 30 3d 4c ef a8 3d cf 3d 33 3d
       -0.019267708 0.043073047 0.08248767 0.043760117
0001b0 4f c4 33 bd 72 1d 91 3d 6d 73 61 bd ff 50 31 bd
       -0.043888386 0.070856944 -0.05504172 -0.043290135
0001c0 ca 15 e1 3b 29 ea d8 3c 43 29 40 bd ac 8c 0f bd
       0.0068690525 0.026478844 -0.04691435 -0.035046265
0001d0 78 bf a1 bd dd 92 f1 3c 9f 3a 3b bd 05 4a 04 bc
       -0.07897848 0.029488975 -0.045710202 -0.008074288
0001e0 6b 2c 38 bd 51 0a 11 bd 43 6d 9d bc 4e 03 7d bd
       -0.044964235 -0.03541023 -0.01921714 -0.06177073
0001f0 02 3b 37 3d f5 89 8a 3c 99 56 40 bd 1f 55 d2 bd
       0.04473401 0.016911486 -0.046957586 -0.10270142
000200 d1 85 65 bd 2c 30 b3 3b 00 94 9f 3d 83 5b 48 3d
       -0.05603582 0.005468389 0.07791901 0.048915397
000210 9f b2 a7 3d 66 b4 ac 3c 8d 04 b6 3c 00 d1 18 3d
       0.08188366 0.021082114 0.022218967 0.037308693
000220 d2 32 95 3d b9 0d 99 3d 88 f0 97 3d fa 97 8c bd
       0.07285084 0.074733205 0.074189246 -0.06864925
000230 d5 a8 35 3d d5 26 48 3b 0b 04 a8 3c 65 43 f9 bc
       0.044350464 0.0030540724 0.02050974 -0.030427644
000240 ad 1c 57 3d 11 4c 84 bd cf 51 59 bd 76 37 d9 bd
       0.05251758 -0.06459821 -0.053056534 -0.106062815
000250 6c f1 87 bd 2e c7 9b 3c c5 af a5 bd 9b 59 2d bc
       -0.066378444 0.019015875 -0.08090166 -0.010580446
000260 bb e5 20 3d 2f aa 20 bd 6a e8 74 bd c2 c3 9d bd
       0.039281588 -0.0392248 -0.05979196 -0.077033535
000270 15 52 81 3c 92 fc 95 3d e6 be 9c bd 7a cd af bd
       0.01578621 0.073235646 -0.076535985 -0.085841134
000280 b2 c4 03 bd d9 ec 28 bd 6a 97 9a 3d 9b 4e 77 bb
       -0.032170005 -0.0412415 0.07548411 -0.0037736061
000290 c1 dd ba 3d 14 6a 99 bd 03 e8 ca bc 3e 8d 55 bd
       0.091243275 -0.07490936 -0.024768835 -0.052136652
0002a0 68 15 2f bd a4 ae a3 3d 4f 9c a9 3c cf a1 9e 3d
       -0.042745024 0.079922944 0.020704417 0.07745706
0002b0 22 01 11 bd d9 40 ab bc 70 d0 56 bc 90 24 92 3d
       -0.03540147 -0.020904945 -0.013111219 0.0713588
0002c0 31 56 c9 bd b8 45 8a bd fe 41 0c bd 29 5e b5 3c
       -0.09830893 -0.06751579 -0.034242623 0.022139626
0002d0 76 b3 c7 39 64 bc a7 3d 22 ed 12 bc 72 7c 73 bc
       0.00038089947 0.081902295 -0.00896767 -0.014861213
0002e0 50 95 2e bd f2 c9 83 3d 9d 33 bf bd 52 d8 85 bc
       -0.042622864 0.064350024 -0.09336016 -0.016338501
0002f0 ea 2a 46 bb 41 6a 34 bd a6 e5 c3 bc ff a0 53 3d
       -0.003023798 -0.044046644 -0.023913216 0.05166721
000300 ea f6 bf 3d c6 46 92 bc c4 c7 54 bd d3 3b a1 3c
       0.09373267 -0.017856013 -0.051948324 0.019681847
000310 be c7 e1 bc 4d 0a dc bc 95 94 4f bc cf 56 5e bc
       -0.027561065 -0.02686038 -0.012669702 -0.0135705015
000320 99 98 2d 3c 93 36 61 bb aa 60 fa 3c 63 f0 67 bd
       0.010595464 -0.0034364804 0.030563671 -0.056625735
000330 a1 95 72 bc a5 7b b7 bd 2d f5 b0 3d 44 9d e6 3c
       -0.014806182 -0.0895913 0.086405136 0.028151162
000340 eb 71 02 3d 33 8b 91 3d 3b 6c 11 3d fa 14 40 3b
       0.031846922 0.07106628 0.035503607 0.0029309378
000350 75 29 a6 3d 5d ba 37 bd b2 d0 25 bd 37 9b 90 bd
       0.08113376 -0.044855464 -0.04048223 -0.07060855
000360 2a 1e 72 3d 0c 71 2c 3d 2a e8 06 bd 8c ee 89 3c
       0.059110798 0.042099997 -0.032936253 0.01683738
000370 a9 0f 04 be bd 8a 24 3b e5 e7 35 bd f4 f0 7c 3d
       -0.12896599 0.0025107109 -0.044410605 0.06175323
000380 69 fe 7c 3c 6d 70 08 3d f3 4f a1 3d 33 50 4a 3d
       0.0154415155 0.033310343 0.07876577 0.04939289
000390 aa f1 09 bd 5e 69 38 bc c6 77 2c 3c 87 fa 57 3c
       -0.033677734 -0.01125559 0.010526603 0.013182289
0003a0 10 76 96 bd 9e 8e 02 3d e0 a0 85 3c f8 ae 8a bd
       -0.073467374 0.03187429 0.016312063 -0.06771654
0003b0 1a 27 83 3d 14 dd 83 3d f1 6b be bd ac 2f 28 3d
       0.064039424 0.06438652 -0.09297932 0.04106109
0003c0 5d 1d 4e bd 57 ec 63 bd 3f 77 a6 3c 40 00 17 3d
       -0.05032097 -0.055645313 0.020320533 0.036865473
0003d0 06 2b 10 3d c2 e3 8f bd c3 91 50 3d 0a 43 95 bd
       0.03519728 -0.07025863 0.05092026 -0.07288177
0003e0 3b 00 19 3b 53 e2 98 bd 52 e9 10 3d e0 9f 22 3d
       0.0023346085 -0.07465043 0.03537876 0.03970325
0003f0 98 ea b1 3c 5b 87 66 bb 0c 78 8a 3d 2a b9 44 bd
       0.021718308 -0.0035175893 0.067611784 -0.04802815

rnn.weight_hh_l0 f4 [384, 128]
000000 2f 83 9b 3a 2d 0a 8e bd af a8 2a bd c4 4c 4e bd
       0.0011864657 -0.069355346 -0.041664775 -0.05036618
000010 fb 56 2f bd 66 1c 8a bd 9d a6 ac bd 03 a0 40 bd
       -0.04280756 -0.06743698 -0.084302165 -0.0470276
000020 0f 60 cf 3d ee 8e d9 bc 33 9a e5 3b f8 b4 a1 bd
       0.101257436 -0.026557412 0.0070069074 -0.07895845
000030 04 62 14 bd 19 bc 9c bc 3e 96 a0 3c bf e1 b1 bd
       -0.036226287 -0.01913266 0.019602891 -0.08685636
000040 d6 1f 9f bd 4a 37 0d 3e 99 fe 90 3d ff b2 55 bd
       -0.07769744 0.13790622 0.07079811 -0.052172657
000050 98 9c b7 bc 32 1d ad 3d de f2 11 3c e6 6b e3 3d
       -0.022413537 0.08452834 0.008908002 0.11104564
000060 a0 9a 40 3d 82 35 d1 3d de e3 10 3e ec f1 1c bd
       0.047022462 0.10215284 0.14149424 -0.038316652
000070 21 0e 2e 3c a1 c5 d2 3b a2 61 af bd 93 59 5a bd
       0.010623486 0.0064322506 -0.08563544 -0.05330808
000080 73 d3 1b bd ab 10 b3 bd 40 6f 72 3b 7f ae 99 bd
       -0.03804345 -0.087434135 0.003699258 -0.075039856
000090 de ec 02 be be c9 f2 bd ee d4 9e 3d cf b9 d7 3d
       -0.1278567 -0.118548855 0.07755457 0.10533487
0000a0 09 d4 d7 bc 7b b8 eb 3c b4 0e 4a 3c 89 91 76 bd
       -0.026346223 0.02877449 0.012332607 -0.060197387
0000b0 24 4f 79 bd d0 ec 17 3d 33 1c 58 3c 7d 17 30 ba
       -0.06086649 0.037091076 0.013190317 -0.0006717367
0000c0 d4 a7 00 be be 6d f5 3c 1c c1 48 bd 3e 7e 38 bd
       -0.12564021 0.029959556 -0.04901229 -0.04504227
0000d0 76 1c 1b 3d f9 75 93 3d 74 ec 4d bd b6 69 65 3d
       0.03786894 0.07200236 -0.050274327 0.056009017
0000e0 9a 41 9d bc b6 0f 52 3c e3 ec 3b 3b b3 98 85 39
       -0.01919632 0.012821129 0.002867513 0.00025481507
0000f0 c8 4f 63 3d db c2 05 be 4e 3c c4 bd d8 f9 0a bd
       0.055496007 -0.13062613 -0.09581815 -0.033929676
000100 f3 bb f5 3c ef ba d1 3d d7 a7 05 3e 5d 13 93 bd
       0.029996848 0.10240733 0.13052307 -0.07181428
000110 f1 e9 9b 3d d0 2b 1e bd d7 66 27 be c2 66 bf 3b
       0.0761298 -0.038616 -0.16347824 0.005841107
000120 59 a9 2d be 96 d0 35 be 1f 4e 85 3d 77 56 fb bc
       -0.16959132 -0.1775535 0.06509041 -0.030680878
000130 19 b8 b5 3d 89 63 8a bd e2 e0 70 bd 2e af fd 3d
       0.088730045 -0.06757266 -0.058808215 0.123869285
000140 18 76 7d 3d 14 ea ee bd 51 23 81 3d b4 7c 70 3d
       0.0618802 -0.116657406 0.06305564 0.058712676
000150 c5 a3 9a 3c 2c cd e4 bc c4 c4 e9 3b 96 09 8f 3d
       0.01887692 -0.027929865 0.007134052 0.0698425
000160 14 a2 b6 bd 63 2f 9f 3c 79 4c e3 bd 51 f6 37 3d
       -0.08917633 0.019431775 -0.110985704 0.04491264
000170 0c a9 c7 bd 60 07 02 bd 1e f1 47 bd 9d e2 bc 3c
       -0.0974904 -0.031745315 -0.04881393 0.023057276
000180 82 7d 32 bd b1 95 9a 3d 2b 9d 0b be df b0 20 bd
       -0.043576725 0.075480826 -0.13634174 -0.039231177
000190 0c 6f 5a bd a8 8e 86 3d 47 b2 ea 3d 90 88 46 3d
       -0.05332856 0.06570178 0.11459785 0.04847008
0001a0 43 06 29 bd b1 8d ce 3d b8 e3 a6 bd dd ab d8 bd
       -0.041265737 0.10085619 -0.08148903 -0.10579655
0001b0 1c cf c0 bd c9 6a 91 bd 51 55 6f 3d 9c 69 77 3d
       -0.09414503 -0.07100446 0.058430973 0.06040345
0001c0 dc af 25 3d c5 4b b9 bd 84 6a de 3c 4e 0e f8 bc
       0.040450916 -0.09047655 0.0271504 -0.030280259
0001d0 03 c6 d0 bd 43 04 12 bd 90 c9 92 3c ad 3b a1 bd
       -0.10194018 -0.035648596 0.017918378 -0.078727104
0001e0 35 58 90 bd d5 0b 23 3c e4 99 8e 3d 04 2b 23 3d
       -0.07048074 0.009951551 0.06962946 0.039835945
0001f0 59 6c 09 bd 76 71 81 bd b9 0e dc 3d cf 52 8f bd
       -0.033550594 -0.06320469 0.107449956 -0.06998216
000200 48 45 b7 bc 05 63 e3 bd de 2b 1d 3e a2 1c d3 3d
       -0.022371903 -0.11102871 0.15348765 0.10308196
000210 83 21 57 bc 5e a4 eb bd f8 ab 99 3c 6c 82 6a bd
       -0.013130548 -0.1150596 0.018758759 -0.057253286
000220 05 78 73 bc db f0 b8 bb fd 88 3b 3c 17 1a 68 3c
       -0.014860158 -0.0056439466 0.011446235 0.014166377
000230 d6 f9 f1 3d 3e 75 af 38 72 05 f4 bd f9 15 20 bd
       0.118152305 8.366488e-05 -0.11915101 -0.039083455
000240 7b 75 c1 3d 16 27 63 bd 14 28 00 3c 37 c3 a6 bd
       0.09446236 -0.055457197 0.007822055 -0.08142703
000250 e7 9b 89 bd e0 26 6c 3c e2 bd 76 3d f3 da 32 3d
       -0.06719189 0.014413565 0.06023968 0.043665837
000260 f6 72 9a bd 24 fa 49 3c aa 82 27 3d ac 0d ad bd
       -0.07541458 0.012327705 0.040896095 -0.08449873
000270 d4 57 9c bd be 21 82 bd e4 b9 25 be 19 aa 99 bb
       -0.076339394 -0.06354092 -0.16184193 -0.0046894667
000280 b7 c9 0a 3c 5f 10 b8 bd 2f 42 cf ba e6 5c 58 3d
       0.008470944 -0.089874975 -0.0015812571 0.05282297
000290 21 74 7e bd e1 42 06 be 5c 53 dc bd a3 eb f5 3d
       -0.062122468 -0.1311145 -0.10758087 0.12007835
0002a0 4d 3f 2c 3d 6d ab 1e be 4f 4f 2a 3e 75 16 9d bd
       0.042052556 -0.15495081 0.16631816 -0.07670299
0002b0 df a2 68 3d 32 1c 93 bd 76 42 98 bd c9 46 b6 3d
       0.05679595 -0.07183112 -0.074345514 0.0890022
0002c0 1f b6 92 3c ac 97 c9 3d 66 fd 31 bd d2 17 0c 3c
       0.017909108 0.09843382 -0.04345455 0.008550601
0002d0 6c 1e 85 bd 67 e3 06 3e 35 50 9e bd 41 dc 00 3e
       -0.06499943 0.13172685 -0.07730142 0.1258402
0002e0 ab 9b 32 bc 09 56 e6 bc 7e 14 83 bc 6c 7d 43 3c
       -0.010901372 -0.028117197 -0.016000982 0.011931758
0002f0 4b f6 0d bd 99 f5 57 3d dc c5 97 3d 59 dc 17 bd
       -0.03465871 0.052724455 0.074107856 -0.037075374
000300 cf 3a 07 3e ec fd da bc 7f 27 b2 3b 94 e0 cd bc
       0.13206027 -0.026732408 0.005436837 -0.025131501
000310 18 bb d5 bb 4c e4 5c bd e4 31 2a bc 02 7c b7 bc
       -0.0065225475 -0.05392866 -0.010387871 -0.022397999
000320 61 a5 fe bd da 80 a5 bc f1 5c 49 3d e7 c2 de 3b
       -0.12433887 -0.020203043 0.0491609 0.0067981365
000330 a2 df 88 3d 84 c4 d1 3d 58 d0 5d bd 50 4e 8e bb
       0.066832796 0.102425605 -0.05415377 -0.0043428317
000340 cd 79 5e 3d b6 75 d2 3d 37 c0 2c be d3 40 35 bd
       0.054315377 0.10276358 -0.16870199 -0.044251274
000350 c0 7f 38 bc 4d 38 b1 bc 6d 8b d3 3d e4 50 cd bb
       -0.011260927 -0.021633292 0.10329328 -0.0062657464
000360 2c 1d af 3c 8a 96 85 bc 72 c9 bb bd 79 a8 1c bc
       0.021376215 -0.016307134 -0.09169282 -0.009561651
000370 62 89 01 be 8c ab a6 3d 9f 2d f0 bb e3 62 87 bb
       -0.12650064 0.08138189 -0.007329657 -0.0041316613
000380 fc 5b d9 bc a9 f0 19 3d 1c bc 43 bd e2 5e 08 3d
       -0.02653312 0.037583027 -0.047786817 0.033293612
000390 73 77 8c bd 5a fc 4b bd 41 bf e0 3b 37 f5 53 3d
       -0.06858721 -0.049801208 0.0068587367 0.051747527
0003a0 9e a1 24 be 62 c6 98 3d f4 7d 8c 3d 72 c4 99 3d
       -0.16077277 0.074597135 0.06859961 0.07508172
0003b0 56 7c 34 3d 11 cb 45 bc 13 97 16 3b 56 73 73 bb
       0.04406389 -0.012072341 0.002297823 -0.0037147603
0003c0 6e 91 ad bd 21 01 72 bd f3 07 8d bd 3a 0a a4 3d
       -0.08475004 -0.059083108 -0.06886282 0.08009763
0003d0 1c a8 ac bd 87 81 91 bd 98 7f 16 bd 05 9e a9 bd
       -0.08430502 -0.071047835 -0.036742777 -0.08282093
0003e0 81 eb 04 be 54 bf 19 be cd f4 44 3d f4 2b 8d 3d
       -0.12980463 -0.15014392 0.048085023 0.06893149
0003f0 8c fb 50 3d 32 15 e5 bb 84 1e 61 3c 7b 96 39 be
       0.051021144 -0.006991052 0.013740186 -0.1812381

rnn.bias_ih_l0 f4 [384]
000000 0f 94 4c 3c b3 59 b6 bd 91 43 04 be fa 6c 8c 3c
       0.012486472 -0.089038275 -0.129164 0.017141808
000010 10 ff 0b 3e 87 1f 34 3d 75 8d 8f 3c 1e 3d fd 3c
       0.13671517 0.04397538 0.017523507 0.030912932
000020 20 4a db 3b 8a b7 99 3c e1 76 7b 3b 4d 60 e6 3b
       0.006692186 0.018764276 0.0038370418 0.007030523
000030 c5 e0 de 3d 76 c5 c4 3d ab 28 5c bd c5 3e 9a 3d
       0.10882715 0.09607975 -0.05374972 0.075315036
000040 7e 22 b5 3b bf 31 a5 3d 1d be 93 bc aa b5 47 3d
       0.0055277934 0.08066129 -0.018034989 0.048757233
000050 53 f6 17 bd 11 a0 ad 3c 74 f5 a2 bd 24 5a 9f bd
       -0.037100147 0.02119449 -0.07956973 -0.07780865
000060 b5 9d 7c bb 2b 74 b9 3d 97 54 27 3c 60 52 ea 3d
       -0.003854615 0.090553604 0.010213039 0.11441493
000070 93 59 4b bd e3 f1 be 3d ad b6 93 bd b7 a3 3e 3d
       -0.04964597 0.0932348 -0.07212577 0.04654285
000080 8d ae a4 3d 48 c6 25 3d 78 ab 06 bd 1a 0c c5 3d
       0.080411054 0.0404723 -0.03287837 0.09621449
000090 4c 26 da bb 05 19 9b bc 65 ac 31 bd fb e1 de 3d
       -0.0066573974 -0.018932829 -0.0433773 0.10882946
0000a0 01 48 0c 3e 61 c6 41 bd d8 c2 98 bd 0b 05 f7 3d
       0.13699342 -0.04730833 -0.074590385 0.12061509
0000b0 e1 22 88 bd 17 a8 1e bd fb b1 31 3d 7a bc a4 3d
       -0.066472776 -0.03873452 0.043382626 0.080437616
0000c0 ba ec 0e bd 11 9e 59 3d 80 0d e4 bb 4a 3a 13 3d
       -0.03489373 0.05312926 -0.006959617 0.03594426
0000d0 f2 84 52 3d e2 30 0e 3d ee 5b 59 bc 95 f6 61 bd
       0.051396318 0.034714587 -0.013266547 -0.0551668
0000e0 04 93 81 3c 87 95 ff 3c 39 7a 2a 3e 82 41 09 bd
       0.015817173 0.03119923 0.16648187 -0.03350974
0000f0 fb cd 6b 3d 7d 7a 40 3e b2 37 b4 3d cb f5 6c 3d
       0.057569485 0.18796726 0.087996855 0.057851594
000100 c6 d8 0d 3e 18 0d c2 3d 74 8f bf bc ce 06 cb 3b
       0.13852224 0.09475154 -0.023383833 0.0061958795
000110 af 66 db bd 5c 74 80 3d 8c fd c9 3d c8 70 a9 bd
       -0.10712945 0.06272194 0.09862813 -0.082734644
000120 65 9e 07 3e 05 ca 3b 3e a3 90 bd 3d ce eb d9 ba
       0.13244016 0.18338783 0.09256103 -0.0016626061
000130 52 bb 53 3d 68 ff 40 bb d2 06 29 bc a1 98 75 3d
       0.051692314 -0.002944911 -0.0103165675 0.05996001
000140 12 2d 02 bc 50 2b 9d 3d 7b fb 77 3d 62 1d cb 3d
       -0.007945316 0.07674277 0.060542565 0.09917714
000150 30 a5 1d be 7e ef 93 3d 4b af c2 3d 3d 34 97 3d
       -0.15395045 0.07223414 0.09506091 0.073830105
000160 b5 21 e5 3d 29 2e 1a 3d 27 e8 a8 3d 71 92 92 3d
       0.1118807 0.037641678 0.082474045 0.07156838
000170 c6 ab 95 bd 1a 46 40 bd fa 9e af 3d 88 ec 40 3d
       -0.07308154 -0.046941854 0.08575244 0.047100574
000180 31 06 7e 3d e8 d2 de 3d 83 ed ab 3d 2d fa 13 be
       0.062017623 0.10880071 0.08394911 -0.14450903
000190 60 f7 cd 3d 64 97 83 3d 70 c0 9d bc e7 1e 72 3d
       0.10056949 0.0642536 -0.0192568 0.059111502
0001a0 21 e8 45 3d d7 7c f6 bc c5 6d ba 3d d8 2a 9d bb
       0.04831708 -0.030088825 0.09102968 -0.004796367
0001b0 7d cb a4 bc 32 7c b7 bd 4f ef 48 3b cd 10 e1 3d
       -0.020116562 -0.08959235 0.0030660217 0.109895326
0001c0 c9 a7 09 3d 86 73 19 bd d1 2e a0 bd e3 4b 68 3d
       0.033607278 -0.037463687 -0.078214295 0.056712996
0001d0 6d 6d 14 bd 5c 99 4a 3d 64 fa 8a bb 4b 0f 08 3d
       -0.03623717 0.04946266 -0.0042412747 0.03321771
0001e0 b6 72 02 bd 0e 82 2f bb f0 30 df bb 96 77 1b 3e
       -0.031847678 -0.00267804 -0.0068112537 0.15182337
0001f0 85 fb 46 bd ee 94 1a bc 54 7d 7a 3d f2 48 5f 3d
       -0.04857971 -0.009434922 0.06115468 0.054512925
000200 91 e3 e2 3e 66 be 8b 3e db 25 d1 3e 1a bc ed 3e
       0.44314244 0.272937 0.40849194 0.46432573
000210 69 34 c9 3e ac 00 b6 3e 36 97 db 3e 75 40 0c 3f
       0.39297798 0.35547388 0.42888802 0.54785854
000220 3a b2 10 3f df 94 ea 3e 8d 0d b3 3e e1 05 08 3f
       0.5652195 0.45816705 0.34971276 0.5313397
000230 13 a9 03 3f 9f aa 15 3f 3c a3 17 3f 13 67 cc 3e
       0.5142986 0.5846347 0.5923345 0.3992239
000240 2a 88 d1 3e bc 6e 0a 3f 2a 82 e2 3e 57 11 e9 3e
       0.40924197 0.5407522 0.44239932 0.45521042
000250 4e c2 e9 3e 86 5a 27 3f 51 f6 08 3f e9 77 16 3f
       0.45656055 0.653725 0.5350085 0.5877672
000260 14 ad c8 3e ed c2 e9 3e 9c af 0c 3f 03 b9 e9 3e
       0.39194548 0.4565653 0.5495546 0.45648965
000270 32 10 be 3e 60 0b 15 3f 51 12 95 3e a1 bf b3 3e
       0.3712173 0.5822048 0.29115537 0.3510714
000280 fd 1e 1f 3f 86 bd 13 3f ae 0d 0c 3f 3a 3c 26 3f
       0.6215666 0.57711065 0.54708374 0.6493565
000290 9d 76 b3 3e da f0 31 3f 8b fe c2 3e 50 d6 01 3f
       0.35051432 0.69508135 0.38084826 0.5071764
0002a0 8e 31 30 3f 1a 79 d0 3e 0e 64 e2 3e 6f b2 d1 3e
       0.68825614 0.40717393 0.4421696 0.40956447
0002b0 e4 11 f7 3e f9 cd b2 3e 7e 47 b8 3e 77 ed 01 3f
       0.48255837 0.3492277 0.35992044 0.5075297
0002c0 0a b0 10 3f 63 fd b3 3e 8b d9 96 3e b2 80 bd 3e
       0.56518614 0.35154256 0.29462847 0.3701225
0002d0 be 9e d1 3e e9 52 f3 3e 63 a5 b8 3e 16 90 db 3e
       0.40941423 0.47524193 0.3606368 0.42883366
0002e0 40 ac e1 3e 66 ce 9f 3e 22 a4 f0 3e cc c0 fa 3e
       0.4407673 0.31212157 0.47000223 0.48975217
0002f0 fa 7f d1 3e 37 5a 0f 3f a2 ac 13 3f 3e ed 34 3f
       0.4091795 0.5599703 0.5768529 0.706745
000300 22 36 04 3f 75 3e f3 3e 81 84 9f 3e c5 35 f1 3e
       0.516451 0.47508588 0.3115578 0.47111335
000310 f8 e1 ee 3e 48 95 be 3e 21 8a f9 3e 07 3c ca 3e
       0.46656775 0.37223268 0.48738196 0.39498922
000320 48 68 0a 3f 7b f5 1d 3f ac b3 15 3f e5 08 19 3f
       0.5406537 0.617027 0.5847728 0.59779197
000330 90 b9 1c 3f ad c8 38 3f 51 fc d8 3e f5 c7 0b 3f
       0.61220646 0.72181207 0.42380002 0.54601985
000340 fd 74 dd 3e 7d b5 f2 3e a7 4c 10 3f b8 f2 2e 3f
       0.43253317 0.4740409 0.5636696 0.6833911
000350 1d 7e bf 3e 83 b0 f8 3e 5d d6 16 3f bb 4e 20 3f
       0.37400904 0.48572168 0.5892084 0.62620133
000360 1f e9 f7 3e 9e 76 04 3f 9f e1 bb 3e 2f 1d de 3e
       0.48420045 0.51743495 0.36695573 0.4338164
000370 93 37 dd 3e da e9 ee 3e 9d 13 f8 3e 16 40 0e 3f
       0.43206462 0.4666279 0.48452464 0.5556654
000380 a5 48 10 3f 2f 69 1b 3f cf 93 d4 3e ca 38 fd 3e
       0.56360847 0.6070737 0.4151902 0.4945739
000390 92 95 de 3e 55 93 c4 3e 9b 7c c7 3e d9 75 1c 3f
       0.43473488 0.38393655 0.38962254 0.6111732
0003a0 91 2e 7a 3e 47 8f d3 3e b3 e7 07 3f cb 23 ee 3e
       0.24431826 0.4132025 0.5308792 0.46511683
0003b0 a8 35 13 3f e0 12 00 3f df 6b 05 3f b1 76 de 3e
       0.5750375 0.500288 0.52117723 0.4344993
0003c0 f0 2b 13 3f 10 28 19 3f d6 0e ed 3e d1 03 32 3f
       0.5748892 0.59826756 0.4630038 0.69537073
0003d0 13 2f e8 3e 47 6c 12 3f 41 3d 8a 3e ef e3 1d 3f
       0.45348415 0.5719647 0.26999858 0.61675924
0003e0 66 aa b5 3e 6b 4f 56 3e eb 94 1a 3f fb 20 02 3f
       0.35481566 0.20928733 0.6038348 0.50831574
0003f0 52 1b 1a 3f 4a 4a e2 3e 49 6e d9 3e e8 5c 31 3f
       0.6019794 0.44197303 0.42466953 0.6928239

rnn.bias_hh_l0 f4 [384]
000000 c7 74 c8 3b 32 43 6a bd 73 be 03 be ca 2e ca bc
       0.0061174366 -0.05719299 -0.1286562 -0.024680514
000010 c4 e6 2e bc 53 ce ce 3c 7b 42 04 3d 0e a0 db 3c
       -0.010675136 0.025244867 0.032289963 0.026809718
000020 69 1c 39 3d ac ce 95 bd a0 a1 0d 3d 3c d3 43 bd
       0.04519311 -0.0731481 0.034577966 -0.04780887
000030 a7 2b c7 3d 1c 53 b4 3d f1 70 49 bd f5 85 df 3c
       0.09725123 0.08804914 -0.049179975 0.027285555
000040 28 4a 28 3d 33 1d ee 3c 6b 83 e3 3d 5f b9 bf 3d
       0.041086346 0.029066658 0.1110905 0.093615286
000050 33 e8 42 3d f8 c5 33 3d 82 ef 93 bd d1 90 37 bd
       0.047584724 0.04388997 -0.07223417 -0.044815842
000060 bf d4 bf 3d 81 a7 c9 bc 2e 7d 26 3e 2e 11 cc 3c
       0.0936675 -0.024616005 0.1625869 0.024910536
000070 71 69 a3 3d 6d 76 94 3d 4d d2 e2 bd 94 36 88 3d
       0.07979096 0.072491504 -0.11075268 0.06651035
000080 36 49 9b 3c b6 02 1b bd a0 bf 4f bd 72 3d 83 3d
       0.018955808 -0.037844382 -0.050719857 0.06408204
000090 35 63 bf bd 3b d7 b1 3b 55 ad 8d 3d 45 a2 eb 3d
       -0.09345094 0.005427269 0.06917826 0.1150556
0000a0 ef 3b f2 3d cf 70 6d bd c5 08 0d 3d a9 e0 32 3c
       0.11827838 -0.05796891 0.03443219 0.010917821
0000b0 6c 1e 8c bb da c9 ff 3c 44 3d 0e 3e 12 e6 82 3d
       -0.0042760875 0.03122418 0.13890558 0.06391539
0000c0 4c cb 2c 3d d7 49 7c 3d 66 49 e0 bc 05 14 d0 3d
       0.042186067 0.061593857 -0.02737875 0.101600684
0000d0 30 d0 11 3d 6e 83 4e 3d f8 b3 0c bd f8 9c 09 3c
       0.035598934 0.05041831 -0.03435132 0.008399241
0000e0 c7 af d9 3d fa 9e e9 3d a8 f3 e0 3d db 0c bf 3a
       0.1062923 0.114072755 0.10983974 0.0014575975
0000f0 6e 68 ea 3d 36 89 d8 3d 8a 91 19 3e 11 d0 d6 3b
       0.114457 0.10573046 0.14996925 0.006555565
000100 4f 85 44 3c e9 a3 c5 3b 5e 26 d3 3d 16 ad 26 3d
       0.011994674 0.0060315025 0.10310052 0.04069241
000110 87 d9 21 3d ed 85 01 bc 06 87 e6 3d d9 90 14 bc
       0.03951409 -0.007905466 0.112562224 -0.0090677375
000120 0b e3 1c 3e 1b c3 be 3d bd 66 88 3d 13 3a 74 bd
       0.15320985 0.09314557 0.06660221 -0.059625696
000130 bf 76 8d 3c c7 1a d6 3d 73 9d 90 bd c3 dd 1e 3d
       0.017268537 0.10454326 -0.07061281 0.038785707
000140 16 02 8d 3d a0 1f 94 3d 77 59 0d 3c e8 fa bc 3d
       0.068851635 0.072325945 0.008627287 0.09227544
000150 78 e3 27 be e7 59 d2 bc a3 e5 7c bd 57 88 12 3e
       -0.16395366 -0.025677634 -0.061742436 0.14309822
000160 b1 88 c8 3d 58 dc 9a bd c9 5f cc 3d bd 5f 09 bd
       0.09791697 -0.075615585 0.09979207 -0.03353857
000170 1c 23 23 bd 68 6b 55 3d b8 b1 ef 3c 91 c8 07 3e
       -0.039828405 0.052104384 0.029259548 0.13260104
000180 71 e3 7c bd 0a 9a d8 3d 70 3e 7a bd 0c 21 ff bd
       -0.061740343 0.105762556 -0.0610947 -0.12457475
000190 26 64 9d 3d bc bf 6f 3d ec b9 40 3d 72 4a 68 3e
       0.076851174 0.05853246 0.04705231 0.22684649
0001a0 6c de f4 3c f0 9b d4 3d ce 48 57 3d 87 61 34 bd
       0.029891215 0.10381305 0.052559666 -0.04403832
0001b0 90 8e 99 3a 5d 6c 38 bc 24 35 86 bd 28 45 38 3e
       0.001171546 -0.011256305 -0.065531045 0.17995131
0001c0 17 47 ba 3c 27 4c e7 bc 25 3b c7 3c ad 24 1c 3e
       0.022738976 -0.028234554 0.024320194 0.15248366
0001d0 15 ba d7 3d 29 3a e5 3d 87 54 80 3d 71 0d 70 bd
       0.10533539 0.11192734 0.06266122 -0.05860657
0001e0 19 64 b9 bd 10 2f fe bb b0 f3 94 3d f6 89 26 3e
       -0.09052295 -0.007757075 0.07273042 0.16263565
0001f0 38 8e 6a 3c b7 cd d4 3d 3a cd 7c 3d 20 67 dc 3d
       0.014316134 0.103907995 0.061719157 0.10761857
000200 ea 2d c9 3e b2 1b 94 3e 53 19 02 3f 3a 77 d0 3e
       0.39292842 0.2892738 0.5081989 0.40715963
000210 01 25 c5 3e 0a 8d e1 3e 5d 16 00 3f cd 15 fc 3e
       0.38504794 0.44052917 0.50034124 0.49235383
000220 f0 5f 18 3f 86 95 08 3f b4 4a 06 3f 3c 37 d2 3e
       0.5952139 0.53353155 0.5245774 0.41057765
000230 48 f1 02 3f 91 1e 1b 3f 2f 86 eb 3e e8 7e 00 3f
       0.51149416 0.60593516 0.4600081 0.50193644
000240 c6 dc de 3e 97 c6 01 3f fd 15 ef 3e 0f c4 d0 3e
       0.43527812 0.5069365 0.46696463 0.4077458
000250 86 c6 e8 3e c0 3e 19 3f 5c 1b 09 3f 92 69 18 3f
       0.4546396 0.59861374 0.5355737 0.5953609
000260 6a 4d e0 3e 79 b9 de 3e 91 66 22 3f c1 2f c9 3e
       0.43809062 0.4350088 0.63437754 0.39294246
000270 9e 01 9f 3e 1a 87 0a 3f 70 4d ae 3e 60 83 9f 3e
       0.3105592 0.541124 0.34043455 0.3115492
000280 7c 65 09 3f 6f fc 08 3f 96 7e ec 3e af b2 1d 3f
       0.5367048 0.53510183 0.46190327 0.61600775
000290 01 54 bf 3e 8c fd 33 3f 3c ce 04 3f f4 c2 02 3f
       0.37368777 0.70308757 0.5187719 0.51078725
0002a0 9c 4c 2e 3f 14 96 ad 3e 7d 4a c7 3e c3 07 bf 3e
       0.68085647 0.33903563 0.38924018 0.3731061
0002b0 f8 ab 14 3f 42 de 86 3e f6 4a 9b 3e 0a 1f 23 3f
       0.58074903 0.26341444 0.30330628 0.63719237
0002c0 79 ee 15 3f 70 fc 95 3e ee 21 7f 3e 9e b7 a0 3e
       0.58567005 0.29294157 0.24915287 0.3139009
0002d0 e6 e7 13 3f a7 09 f1 3e cd 41 de 3e 4a d8 e5 3e
       0.57775724 0.47077677 0.43409577 0.44891578
0002e0 18 77 0b 3f 7a 4b dc 3e c0 ad eb 3e a7 c2 12 3f
       0.544786 0.43026334 0.46030998 0.57328266
0002f0 f9 5d b8 3e 17 d6 22 3f cc ff 13 3f dd 00 13 3f
       0.36009195 0.63607925 0.5781219 0.5742319
000300 f0 67 1c 3f 20 f8 af 3e ce 0d 85 3e 77 c7 c9 3e
       0.61096096 0.34368992 0.25987095 0.39409992
000310 4a 3d e7 3e f4 99 d9 3e b7 bc 08 3f 57 81 00 3f
       0.45163947 0.4250027 0.53412956 0.50197357
000320 66 6f 19 3f 23 11 e7 3e 77 dd 30 3f 36 d4 00 3f
       0.59935606 0.45130262 0.6908793 0.5032381
000330 3a 03 0f 3f 76 54 28 3f a9 d7 d1 3e 0c 86 ef 3e
       0.558643 0.6575388 0.40984848 0.46781957
000340 29 69 c9 3e b6 7e 0e 3f cf 52 1f 3f 12 b6 14 3f
       0.39338043 0.55662096 0.6223573 0.5809032
000350 3f 49 b4 3e c5 d6 eb 3e df a2 fa 3e 5d 26 14 3f
       0.35212132 0.46062294 0.48952386 0.5787104
000360 9a 64 27 3f 93 0d d5 3e 04 18 c1 3e b5 fa ae 3e
       0.6538788 0.4161192 0.37713635 0.3417565
000370 bb 1f d5 3e 9c b7 f9 3e 36 b2 01 3f 2c 31 2d 3f
       0.4162577 0.48772895 0.50662553 0.67653155
000380 6f 42 1f 3f e0 6b 11 3f 94 87 a3 3e b6 d4 eb 3e
       0.62210745 0.5680523 0.31939375 0.46060723
000390 78 f3 e5 3e 5f f2 f4 3e 74 fc a6 3e 71 af 1f 3f
       0.44912314 0.47841164 0.3261448 0.6237708
0003a0 ff d3 42 3e 91 64 cc 3e e2 1d 0b 3f a1 38 10 3f
       0.19026183 0.39920476 0.5434247 0.5633641
0003b0 d4 6d 00 3f fb dc b9 3e fc c9 f9 3e 2f 87 f6 3e
       0.50167584 0.36301407 0.48786914 0.48150012
0003c0 05 11 e5 3e b1 18 10 3f 15 84 0b 3f 52 87 18 3f
       0.44739547 0.56287676 0.54498416 0.5958148
0003d0 2c 2f 07 3f 56 7c 06 3f 97 49 80 3e 74 d6 08 3f
       0.52806354 0.5253347 0.25056145 0.5345223
0003e0 40 4c 85 3e 85 f6 5d 3e 8d cb e4 3e 11 08 2a 3f
       0.26034737 0.21676071 0.44686547 0.6641856
0003f0 35 a3 17 3f 08 3b f2 3e ec 5c e8 3e 76 97 17 3f
       0.5923341 0.47310662 0.45383394 0.59215486

dense.weight f4 [110, 128]
000000 90 be 53 3e e4 24 21 bd b5 b5 79 3c 5d 87 fd 3d
       0.20678163 -0.039341822 0.015241076 0.12379334
000010 8c e1 69 3d d6 58 a8 bc a6 74 c1 bc 7f 39 42 3d
       0.057099864 -0.020550173 -0.023615193 0.047418114
000020 46 dc 8b 3d 58 c9 8a bd 01 bc dc bd 6f 19 9a 3d
       0.06829123 -0.067766845 -0.107780464 0.07524382
000030 15 e2 11 bd 69 4b 8d 3c fd 0d eb 3c 0f 51 26 3c
       -0.035616 0.017247872 0.028693194 0.010151162
000040 aa 62 00 be 1e 78 9a bc 89 9a 09 3d 3f 7d a8 bd
       -0.12537637 -0.018856104 0.03359464 -0.08227014
000050 5c 8c b2 3d fc c9 1f 3e 0f 07 d4 3d ea fe 47 3d
       0.08718178 0.15604395 0.10352909 0.04882709
000060 00 21 4e bd 80 6a f4 3c 72 fb 04 be b6 f7 46 3d
       -0.05032444 0.02983594 -0.12986544 0.04857608
000070 6f ef 38 bd ae be 8a 3d fd 59 39 bd 2a 97 72 bc
       -0.045150217 0.067746505 -0.045251835 -0.014806548
000080 be d5 ed bd de 52 c8 bc dc 95 cf 3c 86 06 9e 3d
       -0.11613034 -0.024453577 0.025340013 0.07716088
000090 c5 ec 53 be 28 2c 5c 3e ae ae 9a bd e8 3e c3 3c
       -0.20695789 0.2150122 -0.07552849 0.023833707
0000a0 3f ed 5d bd be e0 9c 3d 1d 60 3b 3d bb 2e 65 3b
       -0.054181334 0.07660054 0.045745958 0.003497048
0000b0 82 55 98 3a 8c 1a 2c 3e 3f b6 b4 bd 10 89 5d 3c
       0.0011622163 0.16807002 -0.08823823 0.013521448
0000c0 65 b7 c2 bc 2f 39 c4 3c 8d 55 1e bd aa 37 00 3e
       -0.02376909 0.023953049 -0.038655806 0.12521234
0000d0 98 ef 01 be d7 ec 1a 3c 57 80 23 be 57 f4 ad 3d
       -0.12689054 0.009455881 -0.15966927 0.0849387
0000e0 0d e3 b1 39 97 ce 31 3b bf 70 8c bc b6 2d ad bd
       0.00033929237 0.0027131194 -0.017143605 -0.08455984
0000f0 a5 20 97 3d 7c 5d 50 bd 05 0a 67 bd 76 b4 2c bd
       0.07379273 -0.050870404 -0.05640604 -0.04216429
000100 ee 9e 60 3c c4 c5 dd 3d a2 2d 89 bd e0 41 e8 bb
       0.013709767 0.108287364 -0.06698157 -0.007087931
000110 85 fd cb bc 48 e6 95 3d 96 00 1f 3b 3f f9 bd bd
       -0.024901161 0.07319313 0.0024261824 -0.092760555
000120 0f 11 21 3e 7e 3e 2b bd cc f0 6d bd 45 77 37 bd
       0.15729164 -0.041807644 -0.05809097 -0.04479148
000130 f8 da b0 3d 48 f3 ae 3d 8f 66 3d bd 08 1d 5a bc
       0.08635515 0.08542496 -0.046240386 -0.013312586
000140 f2 18 0b 3e 73 2d ea bc cc 3c 54 3d 15 64 2a 3d
       0.13583735 -0.028586125 0.051815793 0.041599352
000150 85 55 52 3c ed f9 a7 bd 1e d4 89 bc af 6a d0 bd
       0.012837772 -0.082019664 -0.016824778 -0.10176598
000160 88 41 c6 bd 47 58 84 3d bd 51 05 bd 6e 83 44 3d
       -0.09680468 0.0646215 -0.032548655 0.047976904
000170 b9 4c ed bd 7f 57 6b bd 39 4a 85 3d be 60 ba 3c
       -0.11586899 -0.05745649 0.065082975 0.022751208
000180 73 94 ba 3c 6c fc 0b bd a4 78 db 3c 51 db 4f 3c
       0.022775864 -0.034176275 0.026790924 0.012686566
000190 82 fd 10 3d 47 4a b7 bd 3d b6 0a 3d ad 88 7f 3d
       0.035398014 -0.08949714 0.033865202 0.062386204
0001a0 bd dd 05 be 32 34 a7 bd 47 37 2b 3e 65 ab 61 be
       -0.13072868 -0.08164252 0.16720305 -0.22038038
0001b0 27 e9 bf 3b 48 64 7d bc 24 e7 12 3d 86 8c e0 bd
       0.0058566513 -0.015465803 0.035864964 -0.10964303
0001c0 79 ee 42 bc 8a 66 b8 3d 67 af 7f 3d 34 29 af bd
       -0.011897677 0.09003933 0.062423136 -0.08552781
0001d0 3e d8 2a 3e d3 69 90 3d 87 fd 88 3d f8 3c d5 bc
       0.16684052 0.07051434 0.066889815 -0.026030049
0001e0 c6 72 72 bd 43 dd e4 3a d0 d5 01 bd e0 9e a7 bd
       -0.059191488 0.0017460961 -0.031698048 -0.081846
0001f0 00 8d 8d bd 48 a7 25 3d 49 39 94 3d fa c8 b2 3d
       -0.06911659 0.040442735 0.07237489 0.087297395
000200 50 39 8f 3c f6 24 c1 bd 7c 33 e1 3c 6c 43 4a be
       0.017483383 -0.09430878 0.02749037 -0.19752282
000210 0a da 4a bd 5f 5d 04 3e a7 33 80 bd ec c8 4e 3c
       -0.049524345 0.12926243 -0.06259852 0.012621146
000220 be 3e dd 3b 55 7b e6 3d 59 4d d0 3c 9a 6e 83 bc
       0.006751864 0.112539925 0.025427507 -0.01604395
000230 0a d6 b5 3c c4 bf 09 3d 24 96 3e 3c 5a 5e 8a 3d
       0.022196788 0.033630148 0.011632476 0.067562774
000240 6c a0 34 3d 61 64 10 bb 78 89 c5 3c 6a 3c 37 bd
       0.044098303 -0.0022032487 0.024113402 -0.04473535
000250 7a 33 85 bc ba 5d c3 bd cf fd dd 3c 37 b6 66 3c
       -0.016259898 -0.09539361 0.027098564 0.014081529
000260 2b 14 4e bd 13 e9 a6 3d 00 78 e1 bb 16 74 9e bd
       -0.050312202 0.08149924 -0.00688076 -0.077369854
000270 a7 8f 4e 3d 7c ae 97 ba d2 75 e4 3d a6 1c ea 3d
       0.050429966 -0.0011572386 0.11155285 0.114312455
000280 37 d4 ff bb 87 2f 43 3d 40 6d ab 3c b2 19 23 bd
       -0.0078072804 0.047652747 0.020926118 -0.039819427
000290 ef 2f 36 bb f6 f9 6d bd 5b 59 3f 3c f0 21 51 bd
       -0.0027799567 -0.05809971 0.011679019 -0.051057756
0002a0 6c 38 8f 3c 07 1a 37 be cf 2b 8f 3c 57 e1 0a 3d
       0.017482959 -0.17881022 0.017476944 0.033906307
0002b0 c5 ef 50 bd fc 9f c9 3d 0c 1a 52 bd a7 eb 29 bd
       -0.051009912 0.09844968 -0.05129437 -0.0414845
0002c0 21 68 c9 3d ca 14 1a 3d 7b 5d bc 3d b5 dc ef 3d
       0.09834314 0.037617482 0.091975175 0.117120184
0002d0 10 35 7e bb a5 85 e6 3c 81 d6 7e 3d cd 70 3f 3c
       -0.0038788952 0.028139899 0.062216286 0.011684609
0002e0 53 e4 6a 3d e7 20 d9 bd 56 aa 9a 3d 4d 0c 7b bd
       0.057346653 -0.10601979 0.0755202 -0.061291028
0002f0 a1 e4 90 bd cf 74 15 3e af 6a 04 be 12 e2 8f bc
       -0.070748575 0.1459534 -0.12931322 -0.017563853
000300 79 71 42 bd a7 18 30 bd 01 87 10 3c 0d 3b de bc
       -0.047471497 -0.04299226 0.00882125 -0.027127767
000310 b1 7a 35 3d 2e b0 f3 bd a6 13 19 3d cd 15 46 3d
       0.04430646 -0.11898838 0.037372254 0.048360635
000320 e4 34 50 bd 64 60 dd bc 7a ea 9b bd 6d d1 94 bd
       -0.05083169 -0.027023502 -0.07613082 -0.07266507
000330 25 4b 85 bd be fb 5e bd 18 bc 0c 3d 38 65 2b bd
       -0.06508473 -0.0544393 0.034359068 -0.041844577
000340 14 5c 35 3e 18 5d 72 bc 26 17 b0 3d d4 a2 86 3d
       0.17710906 -0.014792703 0.08598165 0.06574026
000350 f7 db 10 bd 0b 78 5d bc 3a 7b a0 bd f4 08 59 3d
       -0.035366025 -0.01351739 -0.078360036 0.052987054
000360 ca 78 41 bd aa 26 57 3d a8 7e e6 bd 5d 64 5a bd
       -0.047234334 0.052527107 -0.112546265 -0.05331837
000370 2a 52 5c 3d fb 40 82 bb 78 5a 6c bd 92 f5 f2 3c
       0.053789295 -0.0039750314 -0.057703465 0.029658113
000380 9b 9c 96 3d 83 3f b5 3c 7b db 2c 3c 04 31 36 bc
       0.07354089 0.022125011 0.010550375 -0.011120085
000390 a6 45 d3 bd 8d 8c 9a 3d 32 b9 0a 3e 91 80 55 3c
       -0.10316019 0.07546339 0.13547209 0.013031141
0003a0 7b ee 09 3c 78 6a 60 3d 70 0f 0a 3e 1e 24 a4 3d
       0.008418675 0.054789037 0.13482451 0.08014701
0003b0 6a d9 12 3e 3f 0f b9 bd e2 05 cb bd 44 33 c1 bd
       0.1434075 -0.09036111 -0.099132314 -0.09433606
0003c0 75 b0 ef bc b7 b7 57 bd 25 70 75 bd 78 a1 9a 3d
       -0.029258946 -0.05266544 -0.059921402 0.07550329
0003d0 66 69 61 3d 19 25 e1 bc 87 90 aa 3d 10 37 3d 3d
       0.055032156 -0.02748351 0.08328348 0.04619509
0003e0 14 16 68 3c 07 2a 28 3d df ed dc bd 09 fc 8b 3d
       0.01416542 0.041055705 -0.10787558 0.06835181
0003f0 ad 6e 2a 3d 65 c2 de 3d 2e e0 c2 bd f6 37 33 3d
       0.041609455 0.108769216 -0.09515415 0.04375454

dense.bias f4 [110]
000000 f9 b5 78 bd 46 98 ea bd 09 65 15 3d 64 e8 1e bd
       -0.060720418 -0.11454825 0.036473308 -0.038795844
000010 69 0d 81 bd 74 4a e6 bd 6f 16 81 3d d2 7c 86 bd
       -0.06301386 -0.112446696 0.06303107 -0.06566776
000020 22 fd b2 3d 35 86 6c 3c 67 62 0c 3e e4 5f a4 bd
       0.087396875 0.014436294 0.13709413 -0.08026102
000030 41 c5 c0 3d 1e 1d e4 3d 02 95 97 bd 3e ae 69 3c
       0.09412623 0.11138366 -0.07401468 0.014262734
000040 34 73 f3 3d f9 0b e8 bd 70 f6 33 3d 43 55 1a bd
       0.118872076 -0.113304086 0.043936193 -0.03767897
000050 ec d6 94 bd bb eb 45 3d 82 e0 27 bc 20 a0 67 bb
       -0.072675556 0.048320513 -0.010246398 -0.0035343245
000060 12 7f 5e bd 51 6c 9b bd 7e f9 f4 3d a6 2a e6 bd
       -0.054320402 -0.07589019 0.11961649 -0.11238603
000070 df 52 8e bc bf 4a c9 bd b2 64 fc bd ba dc 0f be
       -0.0173735 -0.0982871 -0.123238936 -0.14049044
000080 21 59 f9 bd ba f2 03 be 58 ba fa bc ca 9b 3b 3d
       -0.12175203 -0.12885562 -0.030606434 0.04580287
000090 53 f0 67 3d 95 a1 e4 bc 54 98 77 3d 78 8e 66 bd
       0.056625675 -0.02790908 0.060448006 -0.056288213
0000a0 b3 14 f7 bc bf 98 b7 3d 72 c0 b8 3d 2e c1 54 bd
       -0.030161237 0.08964681 0.09021081 -0.051942043
0000b0 d6 79 14 3d ef bf 97 bd 47 93 cc bd 68 f0 00 3d
       0.036249004 -0.07409655 -0.099890284 0.03147927
0000c0 a0 bb 5d bd 5c 30 13 3e d8 45 3e 3c d4 27 d8 bd
       -0.05413401 0.14373916 0.011613332 -0.105544716
0000d0 91 21 03 3c 1b e6 ed bc 66 c9 9f 3d e0 da 87 bc
       0.008003608 -0.029040387 0.078020856 -0.01658386
0000e0 3e 28 c7 bd 5f c8 ab bd fb 19 2a bd 4e 0c a9 3c
       -0.097244725 -0.08387827 -0.041528683 0.02063575
0000f0 e3 88 05 bd 87 21 58 3c 64 29 01 be 27 8f ee bc
       -0.03260125 0.013191587 -0.12613446 -0.029120995
000100 73 e4 7c bb b8 c9 9d 3c 3a 66 90 3c 29 39 77 3d
       -0.0038588315 0.019261226 0.01762687 0.060357247
000110 e5 b1 bd bd ce 01 a7 3d cf 2a 24 bd 96 45 d0 bd
       -0.09262446 0.08154641 -0.040079888 -0.101695225
000120 be 37 dc bc a5 e8 33 be 07 55 90 bd 3d 48 9c bd
       -0.026882049 -0.17569216 -0.07047468 -0.07630966
000130 76 75 45 bb 00 fa 80 bd 35 e4 48 3d 6b b7 82 bd
       -0.0030129827 -0.06297684 0.04904576 -0.063826405
000140 94 70 a9 3d f4 64 f3 bd 3c 57 ca bb e9 23 b2 bd
       0.08273426 -0.1188449 -0.00617495 -0.086982556
000150 83 a1 97 bc 37 4e 60 bc 89 31 4c bd 77 44 0c be
       -0.018509632 -0.013690523 -0.049851928 -0.13697992
000160 22 99 b8 bd 8a 1e ff bd 41 8c 92 3d 04 27 c3 3c
       -0.09013583 -0.12456997 0.071556576 0.023822315
000170 50 84 96 bc f0 e7 85 bd 23 6a 89 bd 0a 2a db bd
       -0.018373638 -0.06538379 -0.06709697 -0.10701378
000180 41 76 43 bd 5a 7c 94 3d 58 b4 af bc df 4b 8e 3d
       -0.047720198 0.07250281 -0.0214483 0.06948065
000190 42 94 43 bd 29 ca 81 3b 40 cc b9 bd 64 ca 2d 3d
       -0.04774881 0.003960867 -0.09072161 0.042429343
0001a0 7a db b4 bd 27 bc 92 3d 3e 3c 03 3c 19 83 8f bc
       -0.08830924 0.071647935 0.008009968 -0.017518567
0001b0 9d a6 81 3d 2c da cc 3d
       0.06330607 0.100025505
