rnn_training/20260104_214052/best_model.pth (torch, 521205 bytes, 10 tensors)

initial_state_projection.weight f4 [128, 110]
0	0x3d9adb60	0.07561374
1	0xbcb7abf7	-0.022420866
2	0x3bbd1666	0.0057704924
3	0xbd80f50e	-0.062967405
4	0x3d67af5f	0.05656373
5	0xbd81bc82	-0.06334783
6	0xbd2ea8c4	-0.042641416
7	0xbe1c737e	-0.15278432
8	0xbe0f218f	-0.13977645
9	0x3dc1ccc2	0.094628826
10	0xbd12d0e4	-0.035843745
11	0x3d9b59b7	0.07585471
12	0xbda699a7	-0.081347756
13	0x3e05ed48	0.13078797
14	0x3d1418c8	0.036156446
15	0x3d9f9ecf	0.07793962
16	0xbe1641ab	-0.14673488
17	0x3db2cfbe	0.0873103
18	0x3dc6e8a2	0.0971234
19	0x3e3befa0	0.18353128
20	0x3db5cd6a	0.0887707
21	0x3df66b08	0.12032133
22	0x3d713e7a	0.058897473
23	0x3d3b6f3b	0.045760375
24	0x3e08710e	0.13324377
25	0x3b2ca83d	0.0026345395
26	0x3d2a6ad8	0.0416058
27	0xbe5bc525	-0.21461923
28	0x3cd5eec1	0.026114823
29	0xbdaf7da2	-0.085688844
30	0xbc9373d5	-0.017999569
31	0x3c0e6aa6	0.008692419
32	0x3d16eda9	0.036847744
33	0x3d62c4fe	0.055363648
34	0x3d21110d	0.0393229
35	0xbe2009da	-0.15628758
36	0xbe39a206	-0.18128213
37	0xbd72d186	-0.05928185
38	0xbe053d61	-0.13011695
39	0xbe30568e	-0.17220518
40	0xbe761ee5	-0.24035223
41	0xbdac4b6b	-0.08412822
42	0x3d907996	0.07054441
43	0xbd96b05a	-0.07357855
44	0x3d379e11	0.04482848
45	0xbe3b5e98	-0.18297803
46	0xbc6ff452	-0.014645653
47	0xbd1a5ed8	-0.037688106
48	0xbb97065f	-0.004608914
49	0xbda0d1a5	-0.078524865
50	0x3db94e5c	0.09048149
51	0x3e7d6b7d	0.24748035
52	0x3d518237	0.051149573
53	0xbaf6c7df	-0.0018827877
54	0x3d7fa01e	0.06240856
55	0x3d9df815	0.077133335
56	0x3e535ca2	0.20640805
57	0xbd79174a	-0.060813226
58	0x3d71571f	0.058920976
59	0xbcb46ac1	-0.02202356
60	0x3dcea4b2	0.10090007
61	0x3dba7df8	0.09106058
62	0xbe43dc23	-0.19126944
63	0x3dc4fbb2	0.096183196
64	0x3d135ff8	0.035980195
65	0xbdf92faf	-0.12167298
66	0x3ddb23e6	0.107002065
67	0xbb7cfe75	-0.0038603817
68	0xbcf0adaa	-0.029379684
69	0xbb78f259	-0.0037986247
70	0xbd9bde50	-0.07610762
71	0x3d888835	0.066666044
72	0x3de1e264	0.11029509
73	0x3d6a3001	0.057174686
74	0xbe8fb6b8	-0.2806909
75	0x3d7dd2cc	0.06196861
76	0xbd70f2d2	-0.05882532
77	0x3e70e225	0.23523767
78	0xbd163d62	-0.036679633
79	0xbc064a5e	-0.008196441
80	0x3dfc8787	0.12330537
81	0xbd937f61	-0.0720203
82	0x3d7fe5bb	0.062474947
83	0x3dab41b2	0.0836214
84	0xbd1dfe69	-0.038572703
85	0xbd19fb77	-0.03759333
86	0x3d399c8c	0.04531531
87	0xbd7bfcc3	-0.06152035
88	0xbc7a65d3	-0.015283066
89	0x3d41b00a	0.047287025
90	0xbde2c9bf	-0.11073636
91	0x3d94b2dd	0.07260678
92	0x3df2cc09	0.11855323
93	0xbc2ab154	-0.010418255
94	0x3e8bca75	0.273029
95	0xbd8bfd95	-0.06835476
96	0xbdd5d33b	-0.1044068
97	0x3c051add	0.0081240805
98	0xbc727da6	-0.014800465
99	0xbe3b4e02	-0.18291476
100	0xbebecc44	-0.37265217
101	0x3d9e7637	0.077373914
102	0x3e229879	0.15878476
103	0xbda12d48	-0.07869965
104	0x3d066ef9	0.032820676
105	0xbd8de07c	-0.069275826
106	0xbdaec732	-0.08534087
107	0xbdc22bf2	-0.09481038
108	0xbdb17cbd	-0.0866637
109	0x3e535920	0.20639467
110	0x3d035b5f	0.03206956
111	0x3d62ce30	0.055372417
112	0x3dc4d4e9	0.09610922
113	0xbbaa0da7	-0.005189616
114	0x3ddce4ef	0.10785853
115	0x3d5beed4	0.05369456
116	0xbd495de4	-0.049161807
117	0x3e2c21ba	0.1680974
118	0x3d01e7d0	0.031715214
119	0x3d3dcffd	0.04634093
120	0xbdbc9396	-0.09207837
121	0xbcd8c050	-0.02645889
122	0xbc71f77d	-0.014768478
123	0x3cbb07c3	0.02283085
124	0x3d66ffed	0.056396414
125	0x3d849a51	0.06474746
126	0xbd5ab88b	-0.05339865
127	0x3dab859a	0.08375092
128	0xbe47fa11	-0.19528987
129	0x3d4b0c42	0.049572237
130	0xbd2a5c6a	-0.04159204
131	0xbdb8108c	-0.08987531
132	0xbbd61ad6	-0.006533961
133	0x3d4f813d	0.05066036
134	0xbc3f7fba	-0.011688167
135	0x3d6200cc	0.05517654
136	0xbdf22112	-0.11822714
137	0xbd4ce58d	-0.050023604
138	0xbae3b314	-0.0017372095
139	0x3cf970f1	0.030449362
140	0x3ce9178e	0.028453615
141	0x3d39f156	0.04539617
142	0x3c4e5a5c	0.012594786
143	0x3e4797b6	0.19491467
144	0xbdb87c65	-0.090081014
145	0xbd86cf16	-0.06582467
146	0xbe199022	-0.14996389
147	0xbdd13647	-0.10215431
148	0xbd6902f9	-0.0568876
149	0x3df0b873	0.11753931
150	0x3cf6a716	0.03010897
151	0x3da4d605	0.080486335
152	0xbd84e889	-0.06489665
153	0x3d9a0e73	0.07522287
154	0xbe0fdcc3	-0.14049058
155	0xbc950664	-0.018191524
156	0x3d20da2c	0.039270565
157	0xbdb03edf	-0.08605742
158	0xbc945f93	-0.01811198
159	0xbda6ec7a	-0.08150573
160	0xbcdfbd42	-0.027311925
161	0xbda1a7d3	-0.07893338
162	0xbdd7b023	-0.10531642
163	0x3d6bace4	0.05753793
164	0xba1f74ac	-0.0006082754
165	0xbdc7ec3f	-0.09761857
166	0xbd81da90	-0.063405156
167	0xbe28afd3	-0.16473322
168	0xbce404f8	-0.0278344
169	0x3ccba2f9	0.024857985
170	0x3dcfc204	0.101444274
171	0xbcf81200	-0.03028202
172	0xbd926d22	-0.07149722
173	0x3d64172b	0.055686157
174	0x3dfefddf	0.12450766
175	0xbd4eab0a	-0.050456084
176	0xbbcd20fb	-0.006260035
177	0xbc01b485	-0.007916574
178	0x3cd61b60	0.0261361
179	0x3c49d0d2	0.012317853
180	0x3e2bf338	0.16792
181	0xbd8d2b44	-0.06893018
182	0xbccb864d	-0.024844313
183	0xbd6281dc	-0.055299625
184	0x3da2b874	0.07945338
185	0xbc33612e	-0.010948462
186	0xbd47305a	-0.048630096
187	0x3dc2de0a	0.09515007
188	0x3d2b8beb	0.041881483
189	0x3d4adcea	0.049527086
190	0x3e2ad009	0.16680922
191	0x3d8e2721	0.06941057
192	0x3d857130	0.065157294
193	0xbd897b74	-0.06713
194	0xbe01b762	-0.12667611
195	0x3dc6e1e4	0.09711054
196	0xbd9cfc4e	-0.07665311
197	0xbd90adaa	-0.07064374
198	0x3cd798d2	0.026317988
199	0x3d83796f	0.06419646
200	0x3cbe507e	0.023231741
201	0xbe11f15b	-0.14252226
202	0xbcd4af46	-0.025962483
203	0x3e2214a6	0.15828189
204	0x3d9b930b	0.075964056
205	0x3c38d066	0.011280155
206	0x3cf91662	0.03040618
207	0xbd24e27d	-0.04025506
208	0xbd19ad82	-0.037518986
209	0x3dd5053c	0.10401389
210	0x3be814ad	0.007082543
211	0x3c92cd52	0.01792017
212	0xbd56d116	-0.052445494
213	0x3da5c728	0.08094627
214	0xbdb53e91	-0.08849824
215	0x3dbd9ee6	0.09258823
216	0xbcdca0e0	-0.02693218
217	0xbe138933	-0.14407806
218	0x3c9c0947	0.019047393
219	0xbdb44e41	-0.08803988
220	0xbdb65994	-0.089038044
221	0xbd70bb72	-0.05877251
222	0x3d668b75	0.05628534
223	0xbb947828	-0.0045309253
224	0x3db64d47	0.08901458
225	0x3d17a2a1	0.03702033
226	0xbce9dd4d	-0.028547907
227	0x3d18364d	0.03716116
228	0xbdccf4e0	-0.10007644
229	0x3cbd1f64	0.023086257
230	0xbe2b2220	-0.16712236
231	0xbbab147c	-0.005220948
232	0xbd4cb270	-0.04997486
233	0xbd5963ca	-0.053073682
234	0x3c9e9930	0.019360155
235	0xbd78a38b	-0.06070284
236	0xbc5ce401	-0.013482095
237	0x3c84a9d2	0.016194258
238	0x3d235db0	0.03988427
239	0xbe4609d0	-0.1933968
240	0xbdd2107c	-0.102570504
241	0xbdd47600	-0.10374069
242	0xbd29da27	-0.041467812
243	0xbd003adb	-0.03130613
244	0x3d2888bb	0.04114602
245	0xba4b4a18	-0.0007754876
246	0xbdf65aef	-0.12029063
247	0xbd722e6c	-0.059126303
248	0x3da35e92	0.07977022
249	0xbc867109	-0.016411321
250	0xbc74c94f	-0.014940574
251	0xbebfa2e9	-0.37428978
252	0x3c8052b3	0.015664434
253	0x3da59f29	0.08086998
254	0x3ceb3976	0.028713923
255	0x3e0f0792	0.13967732

initial_state_projection.bias f4 [128]
0	0xbdd41781	-0.103560455
1	0x3e97179f	0.2951021
2	0xbe9a187b	-0.30096802
3	0x3ebe7ee1	0.37206176
4	0x3d30eb55	0.04319318
5	0x3e8d72c5	0.27626625
6	0xbd362968	-0.04447308
7	0x3e11fc69	0.14256443
8	0xbe855295	-0.26039568
9	0x3ecc6156	0.3991801
10	0x3ea2dae4	0.31807625
11	0x3dfc0d53	0.12307229
12	0x3dd562bd	0.104192235
13	0xbdadb4c3	-0.08481743
14	0xbeb678ae	-0.35638946
15	0xbed94ec9	-0.4244292
16	0x3e5ac408	0.21363842
17	0x3e8de78a	0.27715713
18	0x3ef901cd	0.48634186
19	0xbd28b949	-0.041192327
20	0xbdb62092	-0.08892931
21	0x3e7236a3	0.23653655
22	0xbd80b94b	-0.06285342
23	0x3e15dc1c	0.14634746
24	0xbe3e54ba	-0.18587008
25	0x3de8d7fa	0.11369319
26	0x3e5424b6	0.20717129
27	0xbe0ec51b	-0.13942377
28	0xbea10fcf	-0.31457373
29	0x3d1c6ecb	0.038191598
30	0x3e61fa0f	0.22068046
31	0x3d1f5c4a	0.038906373
32	0x3e5876a4	0.21139008
33	0x3e345a34	0.17612535
34	0xbe4eb360	-0.20185614
35	0xbc50497c	-0.012712833
36	0x3eb5993b	0.35468468
37	0xbd838197	-0.06421202
38	0xbdb9994b	-0.090624414
39	0x3bdb459b	0.006691647
40	0x3ebc6d88	0.36802316
41	0x3e2dee7d	0.16985507
42	0xbd256b02	-0.040385254
43	0xbe514131	-0.20435025
44	0x3dc6fa10	0.097156644
45	0xbe3ab137	-0.18231665
46	0x3d86a42a	0.065742806
47	0xbe0390f2	-0.12848261
48	0xbe7afd99	-0.24510802
49	0x3c39a00c	0.011329662
50	0xbe362ee4	-0.17791325
51	0xbe8d0543	-0.27543077
52	0x3d89aca3	0.06722381
53	0x3f19cbba	0.6007649
54	0x3dd8583c	0.10563704
55	0x3ed5e2d0	0.41774607
56	0x3df66642	0.12031223
57	0x3eb1a046	0.3469259
58	0x3d239c44	0.03994395
59	0x3e2ba96c	0.16763848
60	0x3e72fa14	0.2372821
61	0x3ebc0e51	0.36729673
62	0xbcfad608	-0.030619636
63	0x3e7d5bc8	0.24742043
64	0x3e2ce935	0.16885836
65	0xbe93db8f	-0.28878447
66	0xbd76a494	-0.060215548
67	0x3e37938a	0.17927375
68	0x3e1dd983	0.15415005
69	0x3e105cd3	0.1409791
70	0x3e5c99c3	0.2154303
71	0xbdd82a92	-0.10554995
72	0x3df338f9	0.11876101
73	0xbe0d853c	-0.13820356
74	0xbe84fc60	-0.25973797
75	0xbe618bdf	-0.22026013
76	0xbe822a93	-0.25423107
77	0x3e39d230	0.18146586
78	0x3de55852	0.111984864
79	0xbe92ab20	-0.28646183
80	0xbd1bdf6b	-0.038054865
81	0x3e36d2de	0.17853877
82	0xbefa620b	-0.48902926
83	0xbea22b58	-0.31673694
84	0x3da9eab9	0.08296723
85	0xbe250576	-0.16115364
86	0xbc504aef	-0.012713178
87	0xbed3318f	-0.41248748
88	0xbd211322	-0.039324887
89	0xbe8747e9	-0.2642205
90	0x3e35b834	0.17746049
91	0xbdf5d26a	-0.12003024
92	0xbd63d1db	-0.055620056
93	0x3ea450dd	0.32092944
94	0x3e1d81f9	0.15381612
95	0xbbd493d1	-0.0064873477
96	0xbba6da4f	-0.0050919424
97	0x3e8c87e5	0.2744743
98	0xbea781d0	-0.32716227
99	0x3d9a64e8	0.075387776
100	0xbeba54aa	-0.3639272
101	0xbb028da2	-0.0019920846
102	0x3c9c8f5f	0.019111333
103	0x3e11b5a6	0.1422945
104	0xbe52e057	-0.20593391
105	0xbd64f617	-0.055898752
106	0x3d9b94d5	0.07596747
107	0xbececf68	-0.40392613
108	0x3ef0e696	0.47050923
109	0xbdd38ace	-0.10329209
110	0x3b10c6bf	0.0022091118
111	0x3e55247a	0.20814696
112	0xbeb17f0d	-0.34667245
113	0x3e30ae25	0.17253931
114	0x3e0bac47	0.13639937
115	0xbeaf2cd2	-0.34213883
116	0xbeeb1268	-0.4591248
117	0x3e2ef9cb	0.17087476
118	0x3e4727b0	0.19448733
119	0x3eb2e782	0.3494225
120	0xbeb8fb27	-0.36129114
121	0x3e0bbff2	0.1364744
122	0x3e6d0541	0.23146535
123	0x3ed863b3	0.42263564
124	0x3ee78d02	0.45224768
125	0xbe321957	-0.17392479
126	0x3e0e578b	0.13900582
127	0xbe5b246d	-0.21400614

rnn.weight_ih_l0 f4 [384, 10]
0	0x3d9dac3b	0.07698866
1	0x3da28ac4	0.07936624
2	0xbc38d115	-0.011280318
3	0x3c9850aa	0.018593151
4	0xbc85e9a2	-0.016346756
5	0xbd43aacf	-0.047770318
6	0x3d6a6a78	0.057230443
7	0x3db3f8c1	0.087876804
8	0x3cb8d8cd	0.022564316
9	0x3d1d898f	0.038461264
10	0x3d2754fa	0.040852524
11	0x3cc3d36e	0.023904528
12	0xbd82a237	-0.06378596
13	0xbbf3e9d3	-0.0074436455
14	0xbd60e916	-0.054909788
15	0xbc80c553	-0.015719092
16	0xbd4621e0	-0.04837215
17	0xbd50b2f5	-0.050951917
18	0x3be58080	0.007003844
19	0xbdab9c5e	-0.08379434
20	0xbcec1aba	-0.028821338
21	0x3d99e76f	0.075148456
22	0xbcb9de8a	-0.022689123
23	0x3d24054f	0.040044125
24	0xbe04383f	-0.12912081
25	0x3da21702	0.07914545
26	0x3c9b01ee	0.018921819
27	0x3d4ce1ce	0.05002003
28	0x3d884ed4	0.0665566
29	0x3cc17042	0.023613099
30	0xbb8ab36b	-0.004232814
31	0x3d665234	0.05623074
32	0x3d85a880	0.065262794
33	0x3d8e6f71	0.069548495
34	0x3daca6b7	0.08430236
35	0x3bf27370	0.007399015
36	0xbd83bf9f	-0.06433033
37	0x3d54906b	0.05189554
38	0x3d851cbf	0.064996235
39	0x3d699325	0.057025094
40	0x3cbc14f4	0.02295921
41	0x3d9df9c9	0.07713658
42	0x3cb7cca6	0.022436451
43	0xbda2a92f	-0.079424255
44	0x3db5adc1	0.088710316
45	0xbc9b69a4	-0.018971272
46	0x3daefefb	0.085447274
47	0x3b835870	0.0040083453
48	0xbd82adfd	-0.06380842
49	0xbce3eea3	-0.027823752
50	0x3d5f1992	0.054467745
51	0xbb98dc53	-0.0046649366
52	0xbd94c9b0	-0.07265031
53	0xbcbd5e6f	-0.023116319
54	0x3c37cfa0	0.011218935
55	0xbc068ef3	-0.008212793
56	0x3cd3de23	0.025862759
57	0x3d05b0f5	0.032639463
58	0x3da30db9	0.07961602
59	0xba8bbc0e	-0.0010660903
60	0x3d4c4dfd	0.049879063
61	0x3d6fe744	0.05857016
62	0x3ceb834d	0.028749133
63	0xbd819c05	-0.063285865
64	0x3d81c8f5	0.06337158
65	0xbd8fcf46	-0.07021956
66	0xbced3741	-0.028957011
67	0x3cfc4994	0.030796804
68	0x3dbe03ac	0.09278044
69	0x3d2d582f	0.042320427
70	0xbd41ec82	-0.047344692
71	0x3d8c9e43	0.068661235
72	0x3cfbb2cb	0.030724904
73	0xbdaa2fdc	-0.0830991
74	0xbd961717	-0.07328623
75	0x3b00a1d7	0.0019627714
76	0xbd10cd0e	-0.035351805
77	0xbd86556b	-0.06559261
78	0x3cf84fef	0.030311553
79	0x3d2d1b05	0.042262096
80	0xbdb8b36c	-0.09018597
81	0x3d5acabb	0.053415995
82	0x3d4ba450	0.049717247
83	0x3d874698	0.066052616
84	0x3d7d212f	0.061799224
85	0xbd9eb992	-0.077502385
86	0x3d998b8c	0.074973196
87	0xbdbdd52b	-0.09269174
88	0xbd17cec9	-0.03706244
89	0x3d2b0bd5	0.04175933
90	0x3cf9385c	0.030422382
91	0x3cd38cba	0.02582394
92	0xbcd74452	-0.026277695
93	0xbd118b37	-0.035533156
94	0xbd832686	-0.06403832
95	0xbdabb4ee	-0.08384119
96	0xbd52cd12	-0.0514651
97	0xbc8d7616	-0.017268222
98	0xbd375881	-0.04476214
99	0xbdad63ab	-0.08466276
100	0x3d4ca436	0.04996129
101	0x3d3d6418	0.046238035
102	0xbd60a828	-0.054847866
103	0xbd84feaf	-0.064938895
104	0x3d0e0216	0.034669958
105	0x3c3d614f	0.011558845
106	0x3d35409b	0.044251066
107	0x38d3a4f2	0.000100919875
108	0xb87e7284	-6.066497e-05
109	0xbc84ec1f	-0.016225873
110	0x3dbab840	0.09117174
111	0xbd406c40	-0.046978235
112	0x3c8233e3	0.015893882
113	0x3d86af10	0.06576359
114	0xbaca7d24	-0.0015448672
115	0x3cb03d3f	0.02151358
116	0x3d339193	0.043840002
117	0x3da22460	0.07917094
118	0x3d6ff088	0.058578998
119	0xbd6a3e54	-0.057188347
120	0x3d502052	0.050812073
121	0x3be8c689	0.0071037454
122	0xbd342275	-0.043978173
123	0x3d6e63d3	0.05820067
124	0xbd1941d8	-0.03741631
125	0x3dbd1e32	0.09234275
126	0x3d5d2554	0.053990677
127	0xbd90d20c	-0.07071313
128	0x3d5c0bb8	0.053722113
129	0xbd5069e8	-0.05088225
130	0x3d46f752	0.048575707
131	0xbd827381	-0.06369687
132	0xbd84d69d	-0.06486247
133	0x3c4893d5	0.012242277
134	0x3d9b96f9	0.07597155
135	0xbdb3a2d3	-0.08771291
136	0xbd39e869	-0.04538766
137	0xbc85a394	-0.016313352
138	0x3d18b7de	0.037284724
139	0x3d71aa4b	0.059000295
140	0xbdb96d55	-0.090540566
141	0xbd4ecd73	-0.0504889
142	0x3bdd465a	0.0067527713
143	0x3dae2762	0.085036054
144	0x3cb5c12e	0.022186842
145	0x3ccd1c36	0.025037866
146	0x3d460204	0.048341766
147	0x3caeee72	0.021353934
148	0x3d71ce93	0.059034895
149	0xbd34a1f9	-0.04409978
150	0xbd80a0bb	-0.06280657
151	0xbd6ff3af	-0.058582004
152	0xbd9e7ca3	-0.07738616
153	0xbc4eca39	-0.012621456
154	0x3d4b8c36	0.049694262
155	0x3da0ba27	0.07848006
156	0xbd27e1a0	-0.040986657
157	0xbd36f58a	-0.044667758
158	0xbd1f8c0d	-0.038951922
159	0xbcfc6956	-0.030811947
160	0x3c7f493d	0.015581426
161	0xbdac9ce5	-0.08428363
162	0x3db232a1	0.08701063
163	0x3d0db043	0.034591924
164	0x3d8ad3d7	0.067786865
165	0xbc9b24a6	-0.018938374
166	0xbca8afdc	-0.020591669
167	0xbd26e87f	-0.04074907
168	0x3cf78fd8	0.030219957
169	0x3d87fca2	0.06639983
170	0xbd3c2cc8	-0.045941144
171	0x3d5d9392	0.054095812
172	0xbd347c89	-0.04406408
173	0xbd2d5fc2	-0.04232765
174	0x3b96a61f	0.00459744
175	0xbd718884	-0.058968082
176	0x3d710084	0.058838382
177	0xbccbbbf7	-0.024869902
178	0x3dadec19	0.08492298
179	0xbc3e49be	-0.011614261
180	0xbca920fb	-0.02064561
181	0xba301252	-0.0006716597
182	0x3d0a52b7	0.03377029
183	0xbdb240fb	-0.087038
184	0xbd84a272	-0.064762965
185	0x3d144402	0.03619767
186	0x3d3b4b7d	0.045726288
187	0x3da80917	0.08204859
188	0x3d606463	0.054783236
189	0x3d8c8d75	0.06862918
190	0x3d9ecbca	0.077537134
191	0xbd2d48f8	-0.042305917
192	0xbd8bd4fc	-0.06827733
193	0x3d95fccc	0.07323608
194	0xbd7a9d32	-0.06118507
195	0x3d9d823d	0.076908566
196	0xbc4fa96f	-0.012674673
197	0x3da0485d	0.07826302
198	0x3c197750	0.009366825
199	0x3a1b6fdd	0.00059294497
200	0xbdad9fe5	-0.08477763
201	0x3db6866e	0.08912359
202	0xbc3e8cdf	-0.011630266
203	0x3dace9e3	0.08443048
204	0x3db9fcc4	0.09081414
205	0xbc2ac093	-0.01042189
206	0x3dd7d4cd	0.105386354
207	0x3d7549f0	0.059884965
208	0xbcdb9a2b	-0.026806911
209	0x3b9baa2a	0.0047505097
210	0xbd862d73	-0.065516375
211	0x3d7179c5	0.05895402
212	0x3c841493	0.016123092
213	0x3cd91df1	0.026503535
214	0xbb022bb1	-0.0019862468
215	0xbc9a3e85	-0.01882864
216	0x3caaf51c	0.02086883
217	0x3d8614f7	0.065469675
218	0x3d9fd691	0.07804597
219	0xbd926764	-0.071486264
220	0x3d616431	0.05502719
221	0xbd444009	-0.04791263
222	0xbd61e374	-0.055148557
223	0x3d973eb9	0.0738501
224	0x3caf1420	0.021371901
225	0xbb60b0d7	-0.0034285092
226	0xbd90bc11	-0.07067121
227	0xbd9597f5	-0.07304374
228	0x3da5c9f4	0.0809516
229	0x3c95032c	0.018189989
230	0x3daa3d39	0.083124585
231	0x3b76a3ad	0.003763418
232	0xbcc4ffea	-0.02404781
233	0x3bdcb0d1	0.0067349453
234	0xbd7bcfa9	-0.061477337
235	0x3d8980b3	0.067140006
236	0x3dbfff44	0.0937486
237	0x3da3a1e3	0.07989862
238	0x3c3ee534	0.011651326
239	0xbcee1cbb	-0.029066434
240	0x3cf3785d	0.02972048
241	0xbd439ce4	-0.047757044
242	0x3d0adcf9	0.033902142
243	0xbcc74301	-0.024323942
244	0x3b9b6e26	0.0047433553
245	0xbce258a6	-0.027630161
246	0x3da869e9	0.08223326
247	0x3cdfd209	0.027321832
248	0x3d8f6fe2	0.07003762
249	0xbd6e8735	-0.058234412
250	0x3d62e89d	0.05539762
251	0xbd91e434	-0.071236044
252	0x3d2a94c9	0.0416458
253	0x3dc70675	0.097180285
254	0x3c64ba60	0.013960451
255	0x3d0f0a5f	0.034922

rnn.weight_hh_l0 f4 [384, 128]
0	0x3da0ba06	0.07847981
1	0xbcd7ced9	-0.02634375
2	0xbc470087	-0.012146122
3	0x3bf018fb	0.0073271967
4	0x3bf6fc22	0.007537381
5	0xbd851d19	-0.064996906
6	0x3c02fde5	0.0079951035
7	0x3da5beeb	0.08093055
8	0xbd1dcf83	-0.038527977
9	0xbc6e3484	-0.014538888
10	0x3daa64ba	0.08319993
11	0xbbcdc6ac	-0.006279787
12	0xbcbc5b6a	-0.022992808
13	0x3c62403b	0.013809259
14	0x3d436888	0.04770711
15	0x3ca41eba	0.020034183
16	0x3d680f94	0.05665548
17	0xbd665a76	-0.056238614
18	0x3cfa7eec	0.0305781
19	0x3d570954	0.05249913
20	0xbdb383f7	-0.08765405
21	0xbd3bcca6	-0.045849465
22	0xbd113f5b	-0.03546081
23	0x3c6dd694	0.014516491
24	0x3cd6b8ba	0.026211131
25	0x3ce6f47a	0.028192747
26	0x3d9350c2	0.07193138
27	0x3c9bb3d2	0.019006643
28	0xbd1639de	-0.03667628
29	0xbd2eb0d5	-0.04264911
30	0x3d8e1fe1	0.06939674
31	0x3da6767d	0.081280686
32	0xbcb0f1b2	-0.021599624
33	0xbd84f9fc	-0.06492993
34	0xbd1b93ce	-0.037982754
35	0x3ca94f81	0.020667793
36	0x3cce1766	0.025157642
37	0x3cb5e48c	0.022203706
38	0xbc89de53	-0.016829645
39	0x3da78950	0.08180487
40	0xbd4a1ef7	-0.049345937
41	0xbdb5e400	-0.08881378
42	0xbcaddbba	-0.021222938
43	0xbda26c37	-0.079307966
44	0x3d7ef3c2	0.062244184
45	0x3d804998	0.06264037
46	0x3cd899f1	0.026440592
47	0xbc95086a	-0.018192489
48	0xbd0e99ab	-0.034814518
49	0x3d8df66a	0.069317654
50	0x3bd1b617	0.0063998806
51	0xbdb58832	-0.08863868
52	0x3d9e3f3f	0.07726907
53	0x3afba524	0.0019198996
54	0xbd52e7da	-0.051490642
55	0x3dd50c23	0.104027055
56	0x3daa3489	0.083108015
57	0x3db9229f	0.090398066
58	0xbcd7578b	-0.02628686
59	0x3cf74fde	0.03018945
60	0x3db3c760	0.08778262
61	0x3bef6208	0.0073053874
62	0xbda7d370	-0.081946254
63	0x3d15dca2	0.036587365
64	0x3d3869fa	0.045022942
65	0x3d051f81	0.032500748
66	0x3c0da427	0.008645094
67	0xbd63d3d7	-0.055621948
68	0x3ca13e07	0.019682897
69	0x3be22eb2	0.006902539
70	0x3d9dfd71	0.07714356
71	0x3d5a5395	0.053302366
72	0xbbf8af9c	-0.0075892936
73	0xbc90827b	-0.017640343
74	0x3d98b101	0.07455636
75	0x3cd848f7	0.02640198
76	0x3d687244	0.056749597
77	0x3dcd120a	0.10013206
78	0xbbefdfd8	-0.0073203854
79	0xbcea3917	-0.028591676
80	0x3d25e7d8	0.040504307
81	0xbb0f736b	-0.0021888863
82	0x3cfc94c4	0.030832656
83	0xbdb95877	-0.090500765
84	0x3d5cdbf9	0.05392072
85	0x3d97e452	0.074165955
86	0x3d3eb827	0.04656234
87	0x3d19c3fd	0.037540425
88	0x3d838753	0.064222954
89	0xbda8d9db	-0.08244678
90	0xbd765e97	-0.0601488
91	0x3d0c20aa	0.03421084
92	0x3d65fbcc	0.056148335
93	0xbc6ee6f4	-0.014581431
94	0xbb6285bc	-0.0034564575
95	0x3d80b77b	0.06284996
96	0xbdb8feb5	-0.090329565
97	0xbd6a0ee3	-0.057143103
98	0x3d88647b	0.0665979
99	0x3d323a69	0.043512736
100	0x3cfeaa7f	0.031087158
101	0xbd084f83	-0.033278953
102	0x3d1e1d76	0.038602315
103	0xbd2ea17e	-0.04263448
104	0xbd1ceb8f	-0.038310584
105	0xbc0395f1	-0.008031354
106	0x3b3111b3	0.0027018606
107	0xbdc75b17	-0.09734171
108	0x3d441677	0.047872987
109	0x3d9a8053	0.07544007
110	0x3d60edaf	0.054914173
111	0x3a5ca7a5	0.0008417315
112	0x3d7fb83c	0.06243156
113	0xbcd6714e	-0.026177075
114	0x3a082114	0.00051929173
115	0x3d88bcb4	0.06676617
116	0xbcc60fe6	-0.024177503
117	0x3da76213	0.08173003
118	0x3d93424b	0.07190379
119	0xbd631783	-0.055442344
120	0x3d22c611	0.039739672
121	0xbd3048e3	-0.04303826
122	0xbcc9abec	-0.024618112
123	0x3daaa0f6	0.08331482
124	0xbcfeaa61	-0.031087102
125	0xbd1dfb82	-0.038569935
126	0xbd9e98e4	-0.07744005
127	0xbbe0ced0	-0.0068605915
128	0xbd0926fe	-0.03348445
129	0x3da6d2ee	0.081457004
130	0xbd1de64d	-0.03854971
131	0xbd6e8ec9	-0.05824164
132	0x3d6c4308	0.057681113
133	0xbdcbd249	-0.09952218
134	0x3d7e79f9	0.06212804
135	0xbd3d356e	-0.046193533
136	0xbd1f4b9c	-0.038890466
137	0x3ce3b68c	0.027797006
138	0x3d231790	0.039817393
139	0x3b2b3dc8	0.0026129354
140	0xbd7f92ba	-0.06239579
141	0x3d920568	0.071299374
142	0x3b9b89f3	0.0047466694
143	0x3d8707bc	0.06593272
144	0xbc800d69	-0.015631394
145	0x3d3cbd2a	0.04607884
146	0x3c68bf56	0.014205774
147	0xbc3bc7f4	-0.011461247
148	0xbc6c8fc5	-0.014438574
149	0xbd314768	-0.04328099
150	0x3cb769d4	0.02238933
151	0xbcfe6701	-0.031054975
152	0xbe004111	-0.12524821
153	0x3e036206	0.12830362
154	0x3d0832a3	0.033251416
155	0xbb8475d5	-0.004042367
156	0x3cd592ad	0.026070917
157	0xbdad674d	-0.08466969
158	0xbcc526cd	-0.024066353
159	0xbc2f02fa	-0.010681862
160	0x3cd8a034	0.026443578
161	0x3ca044a2	0.019563977
162	0xbdac30ce	-0.08407746
163	0xbac0c485	-0.0014707005
164	0xbd1c04dd	-0.038090575
165	0xbcfdfec1	-0.031005265
166	0xbda6e4fa	-0.081491426
167	0xbdc0486c	-0.093888134
168	0xbd5d3fa4	-0.05401577
169	0xbd61caff	-0.055125233
170	0x3d8b88d9	0.06813211
171	0xbcae5915	-0.021282712
172	0x3c8ee6f3	0.01744411
173	0xbd8831dc	-0.06650135
174	0x3c320afb	0.010866876
175	0xbd30356f	-0.04301971
176	0x3be06f1e	0.0068491837
177	0xbd8edfbf	-0.0697627
178	0x3d301521	0.0429889
179	0xbd68169f	-0.0566622
180	0xb97ad83c	-0.00023922411
181	0x3da81374	0.082068354
182	0xbd96b3f2	-0.073585406
183	0x3c5692f9	0.013096564
184	0xbb536ae2	-0.0032259752
185	0x3d4cad3e	0.049969904
186	0xbd0ae59e	-0.033910386
187	0x3dad3104	0.084566146
188	0xbc3dc8c3	-0.01158351
189	0xbd1d3664	-0.03838195
190	0x3ca71a54	0.020398296
191	0x3d6ff976	0.058587514
192	0x3d8163aa	0.063178375
193	0xbdaaff67	-0.083494954
194	0xbd435478	-0.047687978
195	0xbd0ba1fc	-0.034090027
196	0x3d090646	0.03345325
197	0xbd5c3460	-0.053760886
198	0xbd3df82f	-0.046379264
199	0x3d472e24	0.048627988
200	0xbd938824	-0.07203701
201	0x3ae4675e	0.0017425825
202	0x3d3ae7de	0.045631282
203	0xbd934dab	-0.07192548
204	0x3d68bae5	0.05681886
205	0x3d86f176	0.06589024
206	0x3d407259	0.04698405
207	0x3d3c6f73	0.046004724
208	0x3d91728b	0.071019255
209	0xbb335237	-0.0027362236
210	0x3ce16099	0.027511882
211	0xbda9b2cc	-0.08286056
212	0xbdc92296	-0.0982105
213	0x3d1b8f4d	0.03797846
214	0x3d010cc2	0.031506307
215	0xbceef76e	-0.029170718
216	0xbd85e297	-0.06537359
217	0xbd5bbfb4	-0.05364962
218	0x39a5a336	0.00031592854
219	0xbda440b1	-0.080201514
220	0x3da93e2c	0.082638115
221	0x3cd2b7d1	0.025722416
222	0x3d74f4fb	0.059803944
223	0x3c14d954	0.009085018
224	0x3c2c0f04	0.010501627
225	0x3dccb8bd	0.099961735
226	0x3d2d8cd3	0.04237063
227	0xbb77b114	-0.0037794756
228	0xbd703524	-0.05864443
229	0xbd9ad66c	-0.07560429
230	0x3bac61ff	0.0052607055
231	0x3d3219c8	0.04348162
232	0xbd8e76c8	-0.069562495
233	0xbd68218f	-0.05667263
234	0x3d9c63f8	0.07636255
235	0x3cdf7b78	0.027280554
236	0x3db959f3	0.090503596
237	0xbd41055a	-0.047124244
238	0xbc9cf3c8	-0.019159213
239	0xbda4d214	-0.08047882
240	0xbd90a26f	-0.07062232
241	0xbd8ea18f	-0.069644086
242	0x3cc1eb7f	0.023671864
243	0x3d1978a5	0.03746857
244	0xb866bb62	-5.5010787e-05
245	0x3d7347c3	0.05939461
246	0x3d9d6d1f	0.07686829
247	0xbd707258	-0.058702797
248	0xbb4a3656	-0.003085514
249	0x3cb88dee	0.022528615
250	0x3c84a6a8	0.01619275
251	0x3da12a11	0.07869352
252	0x3d22077c	0.03955792
253	0xbbbcf766	-0.005766797
254	0xbd261ca5	-0.04055466
255	0x3dc25618	0.09489077

rnn.bias_ih_l0 f4 [384]
0	0x3e20636c	0.15662926
1	0x3db14c44	0.08657125
2	0x3dacfca0	0.08446622
3	0x3d2ecb25	0.042674202
4	0xbd241124	-0.04005541
5	0x3cdb27ea	0.026752431
6	0x3da1d4e4	0.07901934
7	0x3dd04178	0.10168737
8	0x3db70043	0.08935597
9	0xbd99f404	-0.075172454
10	0x3d109ab4	0.035303786
11	0x3dec1514	0.11527458
12	0x3e0cdb2f	0.13755487
13	0x3dd6d56d	0.104899265
14	0xbc02e847	-0.00798995
15	0x3dc81293	0.09769168
16	0x3d1a0175	0.037599046
17	0x3db7bf4c	0.08972034
18	0x3defaae7	0.11702519
19	0x3deabb50	0.11461508
20	0x3dbbaed3	0.091642044
21	0x3d06c9f1	0.03290743
22	0x3e190b40	0.14945698
23	0x3a8f5c59	0.0010937556
24	0xbc932a5b	-0.017964533
25	0x3d9eaef5	0.07748214
26	0xbd5abd12	-0.053402968
27	0x3d927fa4	0.07153252
28	0x3d515d50	0.05111438
29	0x3d0c82f6	0.03430458
30	0x3cffee17	0.03124146
31	0x3e1d6b73	0.1537302
32	0xbdae1d58	-0.085016906
33	0x3cbdb56f	0.023157803
34	0x3dc8d2e3	0.098058484
35	0x3dcacdf3	0.09902563
36	0xbccb3a62	-0.024808113
37	0x3d9b852d	0.07593761
38	0x3c9095cf	0.01764956
39	0x3d18cde1	0.037305716
40	0x3d0dbfeb	0.034606855
41	0x3e0916ae	0.13387558
42	0x3e0b2af9	0.13590612
43	0x3e10dcce	0.1414673
44	0x3d59a4cd	0.053135682
45	0x3dedc79e	0.116103396
46	0x3de15785	0.11003021
47	0x3d3b668e	0.0457521
48	0x3e2b8c8a	0.1675283
49	0xbc15ba82	-0.009138705
50	0x3d8cfe86	0.06884484
51	0x3dc2cfea	0.09512313
52	0xbcaa6eb6	-0.020804744
53	0xbc78e4c9	-0.015191265
54	0x3d081f25	0.033232827
55	0xbc743756	-0.014905771
56	0x3e02ac00	0.12760925
57	0x3d07c44e	0.033146195
58	0x3da27734	0.079328924
59	0xbb34fc07	-0.002761604
60	0xbda0eae1	-0.078572996
61	0x3d63717e	0.055528156
62	0xbccac829	-0.024753647
63	0x3d3062ce	0.043062977
64	0x3e252228	0.16126311
65	0x3dd05da8	0.101741135
66	0x3d48d451	0.049030606
67	0xbd6f9a9f	-0.058497068
68	0xbcce8fb1	-0.025215002
69	0x3d7383f7	0.059452023
70	0xbd91881c	-0.07106039
71	0x3df0cf6a	0.11758311
72	0x3dd8038c	0.105475515
73	0x3db65550	0.08902991
74	0x3d2b1688	0.041769534
75	0xbd97daf5	-0.074148096
76	0xbc57de79	-0.0131756
77	0x3c560a99	0.01306405
78	0x3d92ac80	0.07161808
79	0x3da6f345	0.08151869
80	0xbc7b72fa	-0.015347237
81	0x3d8a62df	0.067571394
82	0x3d35eab6	0.04441329
83	0x3dd93d27	0.10607367
84	0xbb85289f	-0.0040636803
85	0x3c705097	0.014667652
86	0x3e16580a	0.14682022
87	0xbce12486	-0.027483236
88	0x3da531ac	0.08066115
89	0x3c94f5f7	0.018183691
90	0x3dbbec4d	0.0917593
91	0x3de72f7f	0.11288356
92	0x3d7fbc3c	0.062435374
93	0x3d21764f	0.03941947
94	0x3df6b28b	0.12045773
95	0x3dbc42be	0.091924176
96	0xbcde5742	-0.027141217
97	0x3deabb21	0.11461473
98	0x3d75dae2	0.060023196
99	0x3d509a5c	0.05092846
100	0xbd2d1822	-0.042259343
101	0x3df59856	0.119919464
102	0x3db4c736	0.08827059
103	0x3df50b27	0.11965018
104	0x3daba9fc	0.08382031
105	0x3c83c55a	0.016085315
106	0x3d425ca2	0.047451623
107	0x3dab5273	0.08365335
108	0xbc03a590	-0.008035079
109	0x3da24938	0.079241216
110	0x3d65f498	0.056141466
111	0xbd3374a4	-0.04381241
112	0xbb689082	-0.0035486524
113	0x3df3adb4	0.118983656
114	0x3dc49b4b	0.09599932
115	0x3c78bf64	0.01518235
116	0x3def468a	0.11683376
117	0x3e3864d0	0.18007207
118	0x3d4ee12d	0.050507713
119	0xbbafa86c	-0.0053606536
120	0x3e14d48e	0.14534208
121	0x3dccbcf8	0.099969804
122	0x3dc8b578	0.098002374
123	0xbd2ec508	-0.042668372
124	0x3e096a4e	0.13419458
125	0x3d2e6d8c	0.04258494
126	0x3dac11b8	0.08401817
127	0x3df53682	0.11973287
128	0x3ef055b7	0.46940395
129	0x3ea12d95	0.3148009
130	0x3ed58619	0.4170387
131	0x3ec7f58f	0.39054534
132	0x3e7dadb7	0.24773298
133	0x3e72be4c	0.23705405
134	0x3d60abc9	0.054851327
135	0x3ebacff7	0.3648679
136	0x3e0ccd8a	0.13750282
137	0x3e661b5a	0.22471371
138	0x3e977ce6	0.29587477
139	0x3e468cca	0.19389644
140	0x3e851cb6	0.25998467
141	0x3f0e8163	0.5566618
142	0x3e69cdb3	0.22832374
143	0x3e98adc8	0.29820085
144	0x3e9ced7a	0.3064993
145	0x3e5b2961	0.21402504
146	0x3e81360d	0.2523655
147	0x3ebab134	0.3646332
148	0x3eb1e3c6	0.3474409
149	0x3ebfe083	0.37475976
150	0x3e11d1d7	0.14240204
151	0x3e140818	0.14456213
152	0x3ed360ea	0.41284877
153	0x3e5a0876	0.2129229
154	0x3e1dc604	0.15407568
155	0x3e8e36e9	0.27776268
156	0x3e907cc9	0.28220204
157	0x3e98200d	0.29711953
158	0x3e7cb327	0.24677716
159	0x3ec6574a	0.3873847
160	0x3ec16647	0.37773344
161	0x3e4ce6f0	0.2000997
162	0x3e047b92	0.12937763
163	0x3e2ff216	0.17182192
164	0x3ee6074b	0.4492744
165	0x3e21b83e	0.15792939
166	0x3ecfd803	0.4059449
167	0x3ec664b9	0.3874872
168	0x3de62c88	0.112389624
169	0x3efb9d77	0.49143574
170	0x3f04a77e	0.5181807
171	0x3e7d2448	0.24720871
172	0x3e17aeb9	0.14812745
173	0x3e0b57e0	0.1360774
174	0x3ea2b2a1	0.31776908
175	0x3de42411	0.111396916
176	0x3eaa36a0	0.332448
177	0x3e6e3614	0.23262817
178	0x3e6fa6ea	0.23403516
179	0x3eba1b9e	0.36349195
180	0x3eb51163	0.35364828
181	0x3f0ebbf5	0.5575555
182	0x3da181f1	0.078861125
183	0x3e502e8e	0.20330259
184	0x3e9a0c19	0.30087355
185	0x3e863933	0.26215515
186	0x3e85f648	0.2616446
187	0x3ec86878	0.39142203
188	0x3e190fd0	0.14947438
189	0x3e77d4d4	0.24202281
190	0x3e58a6d7	0.21157394
191	0x3eb5254a	0.35380012
192	0x3eabcc06	0.33554095
193	0x3ed0bc10	0.4076848
194	0x3e588e7d	0.21148105
195	0x3f027c11	0.5097056
196	0x3ece643b	0.40310845
197	0x3ea7b7c1	0.3275738
198	0x3ea8b899	0.32953337
199	0x3e17e84d	0.1483471
200	0x3e39e2fe	0.18152997
201	0x3eb21505	0.34781662
202	0x3e4cf427	0.20015012
203	0x3ed99f85	0.42504516
204	0x3e9f6628	0.31132627
205	0x3e4adde9	0.19811215
206	0x3e8e8928	0.27839017
207	0x3ed380da	0.41309243
208	0x3e234143	0.15942864
209	0x3ed48114	0.4150473
210	0x3edd0853	0.43170413
211	0x3e8c136c	0.27358568
212	0x3e46a61b	0.19399302
213	0x3e732b48	0.23746979
214	0x3e3ceb7a	0.18449202
215	0x3ef33a73	0.4750553
216	0x3ea61666	0.32438964
217	0x3e8293c3	0.25503358
218	0x3ea3b5c3	0.3197461
219	0x3e187fc3	0.14892487
220	0x3f0264bc	0.5093496
221	0x3e3747d1	0.1789849
222	0x3eb26887	0.34845373
223	0x3f1a3229	0.6023279
224	0x3ed4a9d7	0.41535828
225	0x3d691f0d	0.056914378
226	0x3df39c0e	0.118949994
227	0x3e886aa6	0.26643866
228	0x3e839bfd	0.25704947
229	0x3e85f715	0.2616507
230	0x3f09e2dd	0.5386179
231	0x3e576367	0.21034013
232	0x3f15f0f4	0.5857079
233	0x3e26f284	0.1630345
234	0x3e0283a3	0.12745528
235	0x3f02c35e	0.51079357
236	0x3eb8d6b6	0.3610131
237	0x3e83dd42	0.25754744
238	0x3eced858	0.40399432
239	0x3e8f954d	0.28043595
240	0x3e9d7cec	0.3075937
241	0x3e315bb4	0.17320138
242	0x3e7a9b1c	0.24473232
243	0x3e8d3f7d	0.275875
244	0x3e14c5fa	0.14528647
245	0x3e693f34	0.22778016
246	0x3d0384b5	0.03210898
247	0x3e9ad6fd	0.30242148
248	0x3d2d082b	0.042244118
249	0x3e253718	0.16134298
250	0x3e0a5e11	0.13512446
251	0x3eb479b0	0.3524909
252	0x3ef23e38	0.47313094
253	0x3d7c08d9	0.061531875
254	0x3e522d54	0.20525104
255	0x3e303e89	0.17211355

rnn.bias_hh_l0 f4 [384]
0	0x3daf0c86	0.085473105
1	0x3d9ade12	0.07561888
2	0x3d63de86	0.055632137
3	0xbca453ea	-0.020059545
4	0xbd838f1d	-0.06423781
5	0x3b3905f8	0.0028232317
6	0x3dd79aa0	0.10527539
7	0x3cb3c678	0.021945223
8	0x3bad155a	0.0052820863
9	0x3db69040	0.08914232
10	0x3d83a9e6	0.0642889
11	0x3d96e224	0.07367352
12	0x3d316346	0.043307565
13	0x3de6237f	0.11237239
14	0x3e04bfbc	0.12963766
15	0x3df61c8f	0.12017166
16	0x3e3571cb	0.1771919
17	0x3c94cdd3	0.01816455
18	0x3dbc0bd5	0.09181944
19	0xbd5faa55	-0.0546058
20	0xbbe08958	-0.00685231
21	0x3dfc34a3	0.12314727
22	0x3e07ed28	0.13274062
23	0x3d3b66b9	0.04575226
24	0x3d89925f	0.06717371
25	0x3d942125	0.07232884
26	0xbd8fbf58	-0.07018918
27	0xbc0e9c67	-0.008704281
28	0xbc0fb431	-0.008770988
29	0x3c4f9184	0.012668971
30	0x3b76ae27	0.0037640424
31	0x3dc8b168	0.097994626
32	0xbd4d1c9a	-0.050076105
33	0x3d9673ad	0.07346282
34	0x3d1ba302	0.037997253
35	0x3ca3f341	0.020013453
36	0x3d997fcd	0.07495079
37	0x3def8e35	0.11697046
38	0xbb111f0b	-0.0022143747
39	0x3d7465d4	0.059667423
40	0xbc8a9034	-0.016914465
41	0x3df5171e	0.119673
42	0x3de3745c	0.11106178
43	0x3d971d09	0.07378585
44	0x3c0e4c29	0.00868515
45	0x3e28e312	0.1649287
46	0xbcb95dd2	-0.022627745
47	0x3d20ef5a	0.039290763
48	0x3d805c06	0.06267552
49	0x3c1e43b6	0.009659698
50	0x3e0644be	0.1311216
51	0x3df3fe68	0.119137585
52	0x3a80c3ef	0.0009824018
53	0x3c117619	0.008878254
54	0xbda62e84	-0.08114341
55	0xbcf194f1	-0.029489966
56	0x3d4b2aff	0.04960155
57	0x3d8e762d	0.06956134
58	0x3d05b185	0.03264
59	0x3d42cc7f	0.047558304
60	0x3dadcad3	0.08485951
61	0x3c3942c6	0.011307424
62	0xbd1c3f92	-0.038146563
63	0xbd519f14	-0.0511771
64	0x3d09f07f	0.03367662
65	0x3d09c1ed	0.033632208
66	0x3d4ab9a3	0.049493443
67	0xbd667bcd	-0.05627041
68	0xbca9cec1	-0.02072847
69	0x3cb88915	0.022526303
70	0xbc94f1e9	-0.018181758
71	0x3de65f74	0.11248675
72	0x3dc1437a	0.09436698
73	0x3d05abc0	0.032634497
74	0xbce6d9c0	-0.028180003
75	0xbdb07a4f	-0.086170785
76	0xbd57faf4	-0.052729562
77	0x3e243be9	0.16038479
78	0x3d27c4c4	0.040959135
79	0x38d3da15	0.00010101885
80	0x3da47291	0.08029664
81	0x3dbf8317	0.09351175
82	0xbbc4ce48	-0.006006036
83	0x3e0db6c3	0.1383925
84	0x3da317c7	0.079635195
85	0x3e07880f	0.13235496
86	0x3dff6976	0.12471287
87	0xbb37eb67	-0.0028063895
88	0xbd406fee	-0.046981744
89	0x3d89770b	0.06712159
90	0x3dda4ca9	0.10659153
91	0x3d4d7f4c	0.050170228
92	0xbc3dea0f	-0.011591448
93	0xbc2c5ad3	-0.010519701
94	0x3d815235	0.06314508
95	0x3d1f5374	0.038897946
96	0x3d50a8d4	0.050942257
97	0x3db3c339	0.0877747
98	0x3d53cf02	0.05171109
99	0xbc25d005	-0.0101203965
100	0x3d37fc0c	0.044918105
101	0x3dbbce5a	0.09170218
102	0x3da5e63a	0.08100553
103	0x3d306d7a	0.043073155
104	0x3d8a00bc	0.06738421
105	0x3b5e434f	0.003391463
106	0xbd92346d	-0.07138906
107	0xbd01a4dc	-0.031651363
108	0x3d9b91b5	0.07596151
109	0x3d303ddb	0.04302774
110	0xbd452354	-0.048129395
111	0x3d615824	0.055015698
112	0x3d976ee8	0.073942006
113	0x3dbfca60	0.09364772
114	0x3d970f01	0.07375909
115	0xba7e3de9	-0.00096985564
116	0x3dae676c	0.0851582
117	0x3d3c37d1	0.04595167
118	0xbcc7c1c1	-0.024384381
119	0xbd4a449f	-0.04938185
120	0x3b57cef4	0.003292975
121	0xbd145f13	-0.036223482
122	0x3cba48f6	0.022739869
123	0xbd66500a	-0.056228675
124	0x3cb5cbf6	0.022191983
125	0x3c1b8c4f	0.009493901
126	0x3d3cc372	0.04608483
127	0x3de6886c	0.11256489
128	0x3f043a60	0.51651573
129	0x3e30e1f0	0.17273688
130	0x3ebe4799	0.37164
131	0x3ea63777	0.3246419
132	0x3db75c80	0.0895319
133	0x3e77c0ec	0.24194688
134	0x3de95b4c	0.113943666
135	0x3e738617	0.2378162
136	0x3dc31461	0.09525371
137	0x3e3d04fc	0.18458933
138	0x3eabbb30	0.3354125
139	0x3e3e40dc	0.1857943
140	0x3e6a709c	0.2289452
141	0x3ee2374e	0.4418282
142	0x3e98e0ae	0.29858917
143	0x3e5e08ba	0.21683016
144	0x3e5c0871	0.21487595
145	0x3e84613c	0.25855434
146	0x3e418950	0.18900037
147	0x3ef1236a	0.4709733
148	0x3e8907fa	0.26763898
149	0x3ee9c217	0.4565589
150	0x3df7f732	0.12107696
151	0x3e49d435	0.19709857
152	0x3ec34dcd	0.38145295
153	0x3e9b25fc	0.30302417
154	0x3d8c3652	0.06846298
155	0x3e6da8b3	0.23208885
156	0x3e8dac0c	0.27670324
157	0x3ecc314e	0.39881366
158	0x3e0e8ec5	0.1392165
159	0x3ec3330e	0.3812489
160	0x3eac1d59	0.3361614
161	0x3e21e98b	0.15811746
162	0x3e5c22bf	0.2149763
163	0x3e286d08	0.16447842
164	0x3f001f5c	0.5004785
165	0x3e767a6d	0.24070139
166	0x3f005580	0.5013046
167	0x3eb18488	0.34671426
168	0x3e20f69a	0.15719071
169	0x3ecb8b01	0.3975449
170	0x3f0b078d	0.54308397
171	0x3e8db1ea	0.276748
172	0x3d85fcff	0.06542396
173	0x3db6786d	0.08909688
174	0x3edb5ba7	0.42843363
175	0x3e6f5b86	0.23374757
176	0x3e78f5f7	0.24312578
177	0x3ec8329f	0.3910112
178	0x3eb35001	0.35021976
179	0x3ef83164	0.48475182
180	0x3ec0a265	0.37623897
181	0x3ef6038d	0.48049584
182	0x3e2e8f9f	0.17046975
183	0x3e820d8d	0.25400963
184	0x3e7f05b2	0.24904516
185	0x3e50303b	0.20330898
186	0x3e47f277	0.19526087
187	0x3ede0d07	0.43369314
188	0x3e80e75b	0.2517651
189	0x3e850ebb	0.259878
190	0x3e96fcdf	0.294898
191	0x3eaf92a0	0.34291553
192	0x3ebcb40c	0.36856115
193	0x3eb59b92	0.35470253
194	0x3e877954	0.26459754
195	0x3eecde9b	0.46263584
196	0x3ea81322	0.32827097
197	0x3ea7f64d	0.328051
198	0x3e5309c8	0.206092
199	0x3dc2e125	0.09515599
200	0x3e23315a	0.15936795
201	0x3e72feeb	0.23730056
202	0x3e704de3	0.23467211
203	0x3ef84eed	0.48497716
204	0x3eb4d9ad	0.35322323
205	0x3e99ba41	0.30024913
206	0x3eb5617b	0.35425934
207	0x3eca36dc	0.3949498
208	0x3e7baacc	0.24576873
209	0x3e86a0f6	0.26294678
210	0x3ed249c7	0.41071913
211	0x3ec06a48	0.37581086
212	0x3da2905e	0.07937692
213	0x3e93c064	0.2885772
214	0x3e49ebd0	0.19718862
215	0x3eb6a577	0.35673115
216	0x3eae9d83	0.34104547
217	0x3edbff15	0.4296805
218	0x3e4b9cbe	0.19884011
219	0x3e95e11a	0.292733
220	0x3ed85e66	0.4225952
221	0x3e9469c2	0.28986937
222	0x3e8bbd5c	0.27292907
223	0x3f02f2c4	0.5115168
224	0x3ee7ac35	0.4524857
225	0x3e5066ca	0.20351711
226	0x3e50dfdb	0.20397894
227	0x3e3b4d6a	0.1829125
228	0x3e81ff2b	0.2538999
229	0x3eab45a8	0.3345158
230	0x3ef2a3d3	0.47390613
231	0x3e3f154f	0.18660472
232	0x3f056fd4	0.5212376
233	0x3e73ee2c	0.23821324
234	0x3df0c21c	0.117557734
235	0x3edd10d5	0.43176904
236	0x3eaed992	0.34150368
237	0x3e8dfd2f	0.27732226
238	0x3eeda99f	0.46418473
239	0x3ec03bdc	0.3754567
240	0x3e8e2160	0.27759838
241	0x3d907581	0.07053662
242	0x3e7fd77e	0.24984547
243	0x3e9c0f21	0.30480292
244	0x3e4daefe	0.20086285
245	0x3e877640	0.26457405
246	0x3dda52be	0.10660313
247	0x3ec2d857	0.3805568
248	0x3d2bf9f8	0.041986436
249	0x3da6f8f6	0.08152954
250	0x3df33075	0.11874477
251	0x3ed4f9ab	0.41596732
252	0x3ef475a2	0.47745997
253	0x3df85ae8	0.12126714
254	0x3e4aca62	0.19803765
255	0x3e3d434f	0.18482707

dense.0.weight f4 [256, 128]
0	0x3d8cb993	0.06871333
1	0xbd2588b4	-0.040413573
2	0xbd5fcebd	-0.05464052
3	0x3daf3883	0.08555701
4	0x3dbf6858	0.09346074
5	0xbbb6dd13	-0.0055805533
6	0x3d533acd	0.05156975
7	0x3d911e2b	0.07085832
8	0xbca7c4eb	-0.02047964
9	0xbcaaf8bb	-0.020870557
10	0x3d34c685	0.044134635
11	0xbdd3d70d	-0.10343752
12	0x3ddfb6ce	0.10923539
13	0x3db2df97	0.08734053
14	0xbde93f46	-0.113890216
15	0xbd9d61ce	-0.076846704
16	0x3d57efb8	0.052718848
17	0x3d7c42fb	0.061587315
18	0x3d64bada	0.055842258
19	0xbd53381a	-0.051567174
20	0x3d70202d	0.058624435
21	0xbdd1647e	-0.102242455
22	0x3cf9e2d7	0.030503673
23	0xbd1e0e54	-0.038587883
24	0x3db3b1c0	0.087741375
25	0x3d8ea411	0.06964887
26	0x3aca3f7d	0.0015430298
27	0xbdc8c942	-0.09804012
28	0xbdac0566	-0.08399467
29	0x3dea42de	0.11438535
30	0xbd4168ec	-0.047219202
31	0x3d6ef8e0	0.058342814
32	0xbdece691	-0.115674146
33	0xbd227974	-0.039666608
34	0x3b148b74	0.0022666128
35	0xbdb2af7f	-0.087248795
36	0xbd0b999b	-0.034082036
37	0x3dba406d	0.090943195
38	0x3db3f9a7	0.08787852
39	0x3d0e16d0	0.034689724
40	0xbda3bf91	-0.07995523
41	0x3ce48910	0.027897388
42	0x3c7d31c6	0.015453761
43	0x3db56828	0.08857757
44	0xbc5d6bb2	-0.013514446
45	0x3d17c04a	0.037048616
46	0xbce72e7d	-0.02822041
47	0x3d87cc45	0.06630758
48	0xbdf47e2e	-0.11938129
49	0x3cb070f5	0.021538237
50	0x3d8a4e48	0.06753212
51	0xbddf648e	-0.10907851
52	0xbca11378	-0.019662604
53	0x3d6cea73	0.057840776
54	0xbd5b118a	-0.053483523
55	0x3b6fa1aa	0.0036564865
56	0x3da59f90	0.08087075
57	0xbcb77692	-0.022395406
58	0xbdd09332	-0.10184325
59	0xbdd78887	-0.105240874
60	0xbda8a8d6	-0.08235328
61	0x3ab29d05	0.0013627118
62	0x3c7c7999	0.0154098505
63	0x3c35d741	0.011098684
64	0xbd976c0c	-0.07393655
65	0xbdb4b4f7	-0.08823579
66	0x3d0b4cc3	0.034008753
67	0xbd8ebdb6	-0.06969778
68	0xbd74ea96	-0.05979403
69	0x3d8f6e99	0.07003517
70	0x3c686d6a	0.014186243
71	0x3db8207b	0.0899057
72	0x3d1b2370	0.037875593
73	0xbd6437c0	-0.05571723
74	0x3db27f0b	0.08715638
75	0xbd97dd5c	-0.07415268
76	0x3cf0e9c1	0.029408338
77	0xbd6489b7	-0.055795398
78	0xbd68d3db	-0.056842666
79	0xbcdfa9b1	-0.027302595
80	0x3d8b7096	0.068085834
81	0x3d34973e	0.04408955
82	0xbdca5963	-0.098803304
83	0xbd4976b5	-0.049185473
84	0xbd816fac	-0.06320128
85	0x3b01a255	0.0019780595
86	0xbe1ca94b	-0.15298955
87	0x3df315ef	0.11869418
88	0x3da303db	0.0795972
89	0x3e085080	0.13311958
90	0x39810f5d	0.00024616244
91	0x3d1ebefd	0.03875636
92	0x3d15ac9e	0.036541574
93	0x3da78afa	0.081808046
94	0xbdced23d	-0.100986935
95	0x3e188543	0.14894585
96	0x3d728241	0.05920625
97	0xbdd64c1f	-0.10463738
98	0x3c82500f	0.015907316
99	0x3db70176	0.089358255
100	0x3d9bb0d0	0.07602084
101	0x3dc97df5	0.098384775
102	0xbcf0bd94	-0.029387273
103	0xbd0f3f59	-0.034972522
104	0x3c36b81a	0.011152292
105	0x3cfcfcb7	0.030882223
106	0xbdbecf7b	-0.093169175
107	0x3db43c2d	0.0880054
108	0x3d0e9db9	0.034818385
109	0x3dcaef89	0.09908969
110	0x3c35824a	0.011078427
111	0x3df476f9	0.11936755
112	0x3d662d89	0.05619577
113	0xbccc04af	-0.024904577
114	0x3c1fe279	0.009758585
115	0x3cbf6cda	0.023367334
116	0xbdb331d3	-0.087497376
117	0xbd9ca19f	-0.07648014
118	0x3cdd679d	0.027026946
119	0x3b99a310	0.004688628
120	0xbcbf02a8	-0.023316696
121	0x3c9ddede	0.01927131
122	0xbc5228fa	-0.012827152
123	0xbd80ef66	-0.06295662
124	0xbda87d79	-0.08227057
125	0x3cad74fa	0.021173943
126	0xbd4847f4	-0.048896745
127	0x3c077b2f	0.008269115
128	0x3d078d2f	0.033093628
129	0x3c1fe1fc	0.009758469
130	0x3d734e96	0.059401117
131	0x3d879961	0.066210516
132	0x3d2ca86f	0.04215282
133	0x3ce83244	0.028344281
134	0xbdd431f7	-0.103610925
135	0xbd874a11	-0.06605924
136	0xbce5da7c	-0.028058283
137	0xbc75c8e4	-0.015001509
138	0x3c6002ee	0.0136725735
139	0xbc71dbc0	-0.014761865
140	0x3d575b2f	0.052577194
141	0xbd953777	-0.0728597
142	0xbd39ccfa	-0.045361497
143	0x3d1c70d2	0.03819353
144	0x3d304381	0.043033127
145	0x3d9c337e	0.07627009
146	0x3d28208b	0.04104666
147	0xbdbd5665	-0.09244994
148	0xbc480c3e	-0.01220995
149	0xbc89a238	-0.016800985
150	0x3c409e82	0.011756541
151	0xba90e9ea	-0.001105604
152	0xbdbd16c0	-0.09232855
153	0x3d4a63a7	0.049411442
154	0xbd99b900	-0.07505989
155	0x3ca381c3	0.019959336
156	0xbdfbd3d0	-0.122962594
157	0xbdd9c85b	-0.10633918
158	0x3a030d83	0.0004999267
159	0x3e14a9ce	0.145179
160	0xbc91de80	-0.017806292
161	0x3d5d66fb	0.054053288
162	0xbbf25544	-0.0073954184
163	0x3e19753a	0.14986125
164	0xbdd65f2a	-0.1046737
165	0x3cc3526c	0.023843013
166	0xbde8dd93	-0.11370387
167	0xbd4c8edd	-0.049940933
168	0x3d4ff88d	0.050774146
169	0x3c6f3d0a	0.014601955
170	0x3dc877f7	0.097885065
171	0x3c52899f	0.012850194
172	0xbdcb28c7	-0.09919887
173	0xbd866bcf	-0.065635316
174	0xbc4b0102	-0.012390377
175	0xbc949513	-0.01813749
176	0xbc1d2c78	-0.009593122
177	0x3d9a2308	0.07526213
178	0xbd0527b7	-0.03250858
179	0xbc8ac7fe	-0.016941067
180	0xbd262f95	-0.04057272
181	0xbda7462a	-0.081676796
182	0xbd707c85	-0.0587125
183	0x3bdb630a	0.006695156
184	0xbccec806	-0.025241863
185	0x3d6ca0a1	0.057770375
186	0xbbb8ea4a	-0.005643164
187	0x3dbd2721	0.09235979
188	0xbd7b4dfd	-0.061353672
189	0xbd71a5d8	-0.05899605
190	0x3c5afd8d	0.013366115
191	0x3d87a310	0.066228986
192	0x3b501303	0.0031749613
193	0x3dac75b2	0.08420886
194	0xbb81cc47	-0.0039611193
195	0x3d0f1bae	0.034938507
196	0x3ccd8831	0.025089355
197	0xbbed9062	-0.007249878
198	0x3d1d173c	0.038352236
199	0x3d582c41	0.05277658
200	0x3b4374cd	0.0029824257
201	0xbdab2671	-0.083569415
202	0x3cd04a94	0.025426187
203	0x3c01cc36	0.007922223
204	0x3cb70b43	0.022344237
205	0x3d469d06	0.048489593
206	0xbdb9b908	-0.09068495
207	0xbc9fcef5	-0.019507864
208	0x3bce9502	0.006304384
209	0x3ddd37b5	0.10801641
210	0x3c289ac3	0.010290804
211	0x3dd6e6e6	0.10493259
212	0xbddbc020	-0.10730004
213	0x3cb8e4dd	0.022570068
214	0x3d961cd5	0.07329718
215	0x3b9141df	0.0044329013
216	0xbcabb0e4	-0.020958371
217	0x3cc0dbf7	0.023542387
218	0x3db6db21	0.08928514
219	0xbd1b7552	-0.037953682
220	0x3dbc0f33	0.091825865
221	0x3d57e4b4	0.052708343
222	0x3d6fd43c	0.05855201
223	0x3d45eb35	0.048320014
224	0xb9827386	-0.00024881604
225	0x3bedba5a	0.007254881
226	0x3d092844	0.033485666
227	0x3caa7943	0.020809775
228	0xbc54f949	-0.012998887
229	0x3d2d363f	0.04228806
230	0xbe1fb035	-0.15594561
231	0x3d78dbb6	0.060756408
232	0xbd526bb3	-0.05137224
233	0x3d94caf3	0.07265272
234	0x3d664988	0.05622247
235	0xbd9f55be	-0.07780026
236	0x3c7098fd	0.014684913
237	0x3d10e43c	0.03537391
238	0xbda3027c	-0.07959458
239	0xbd660899	-0.056160543
240	0x3d00fe96	0.031492792
241	0xbdcd3f0d	-0.100217916
242	0x3d37ff45	0.04492118
243	0xbcac80c2	-0.02105749
244	0x3b29b1b0	0.0025893264
245	0x3c096060	0.008384794
246	0xbc9aa75f	-0.018878637
247	0x3d70b68d	0.058767844
248	0xbd95e5f7	-0.07319253
249	0xbd4cada5	-0.049970288
250	0x3da7e54e	0.08198033
251	0x3d99262a	0.07477982
252	0x3dbba9b6	0.09163229
253	0xbd15ed38	-0.036603183
254	0x3db384a9	0.08765537
255	0x3d2f5125	0.042801995
